ami_mujoco/ckpt/mujoco/Ant-v2_4x2/victim/actor.pt (torch, 31806 bytes, 13 tensors)

base.feature_norm.weight f4 [35]
0	0x3f80b2fc	1.0054622
1	0x3f80d8a9	1.006612
2	0x3f83c931	1.0295774
3	0x3f84ec56	1.0384624
4	0x3f818ded	1.0121437
5	0x3f7760fc	0.9663236
6	0x3f7f314a	0.99684584
7	0x3f801b48	1.0008326
8	0x3f7e9244	0.99441934
9	0x3f8078b5	1.0036837
10	0x3f815327	1.0103501
11	0x3f7c812d	0.98634607
12	0x3f7f50c1	0.99732596
13	0x3f819c4e	1.0125825
14	0x3f826f24	1.0190167
15	0x3f8034a4	1.0016065
16	0x3f8199fb	1.0125116
17	0x3f805916	1.0027187
18	0x3f80dfba	1.0068276
19	0x3f7ca8d0	0.9869509
20	0x3f80ad12	1.0052817
21	0x3f7dd2f6	0.99150026
22	0x3f80404d	1.0019623
23	0x3f7fa354	0.99858594
24	0x3f8008ca	1.0002682
25	0x3f78c76d	0.971793
26	0x3f7d0edb	0.9885079
27	0x3f7e9491	0.99445444
28	0x3f809a04	1.0047002
29	0x3f801750	1.0007114
30	0x3f7e71a8	0.99392176
31	0x3f81c236	1.0137393
32	0x3f8120de	1.0088155
33	0x3f7f9c31	0.99847704
34	0x3f812eba	1.0092385

base.feature_norm.bias f4 [35]
0	0x3a59fa79	0.00083152164
1	0xbbcec6f3	-0.0063103377
2	0x3a840fdf	0.0010075531
3	0x3c08a321	0.008339674
4	0xbc039c08	-0.008032806
5	0xba87b048	-0.0010352219
6	0xbc527d17	-0.012847207
7	0xb9277c13	-0.00015972582
8	0xbbbc538a	-0.0057472633
9	0x3b94e9bd	0.0045444653
10	0x3c4d68a0	0.012537152
11	0xbb151c5f	-0.0022752506
12	0x3ae83b81	0.0017717929
13	0xbbd00823	-0.006348626
14	0xbc87f003	-0.016593939
15	0xbc7e962b	-0.0155387325
16	0xbbce053b	-0.0062872446
17	0x3b4b6134	0.003103328
18	0x3b8b9d64	0.004260706
19	0x3ca8f794	0.020625867
20	0xbc0a7d5a	-0.008452738
21	0xbc39a7ff	-0.011331557
22	0xbab439c5	-0.0013750127
23	0x3c77f4a2	0.015134009
24	0x3be46253	0.006969729
25	0x3ba0e32c	0.0049098935
26	0x3c7703bd	0.015076575
27	0x3c168b86	0.009188538
28	0xbb206caf	-0.0024478843
29	0x393b6e4b	0.00017874797
30	0xbc628d6a	-0.013827661
31	0xbc4a7b68	-0.012358524
32	0x3aa8ce2f	0.001287883
33	0x3c5490fa	0.012974018
34	0x3b722294	0.003694688

base.mlp.fc1.0.weight f4 [64, 35]
0	0x3d08c046	0.03338649
1	0x3d17fe7e	0.037107937
2	0xbe60ad48	-0.21941102
3	0x3d69f462	0.057117827
4	0xbe69528d	-0.22785397
5	0xbe0a16ff	-0.13485335
6	0xbdc353c8	-0.095374644
7	0xbeb11aa5	-0.3459064
8	0x3d95e2cc	0.07318649
9	0x3d7714a9	0.060322437
10	0xbec0cd90	-0.37656832
11	0x3db70c06	0.0893784
12	0xbd8f32fa	-0.06992145
13	0x3e915389	0.28384045
14	0x3e84cc5b	0.2593716
15	0x3e43d686	0.19124803
16	0xbe07b211	-0.1325152
17	0xbe40a56e	-0.18813106
18	0xbecd75c5	-0.40128914
19	0x3cd12c5c	0.025533848
20	0x3b80a392	0.003925749
21	0x3dbb3ba4	0.09142235
22	0xbe7559fc	-0.23960108
23	0xbe120917	-0.1426128
24	0x3ca9b720	0.020717204
25	0xbedbd551	-0.42936185
26	0xbeaadf81	-0.33373645
27	0x3df25750	0.1183306
28	0x3e04001d	0.12890668
29	0x3e888f0e	0.26671642
30	0x3dd206e2	0.10255219
31	0xbe3f0b07	-0.1865655
32	0xbe2c42d8	-0.16822374
33	0x3e348e6a	0.17632452
34	0xbdd46587	-0.10370927
35	0xbd16ecbe	-0.03684687
36	0x3e40fcac	0.18846387
37	0x3d4d4a56	0.05011972
38	0xbe85d0b7	-0.261358
39	0xbec3e68d	-0.38261834
40	0xbc8ddcd1	-0.017317208
41	0xbe5851f1	-0.21125008
42	0xbdd8975c	-0.105757445
43	0x3e3b9257	0.18317543
44	0xbe33eacf	-0.17570041
45	0x3e7484d8	0.23878801
46	0xbc091fe1	-0.008369417
47	0xbe4b5e2b	-0.19860141
48	0xbe8bb9fe	-0.27290338
49	0xbdfc3c21	-0.12316156
50	0x3e09abfe	0.13444516
51	0x3e3803c2	0.17970183
52	0x3d9824f3	0.074289225
53	0xbe2c7d23	-0.16844611
54	0x3ccaeaaa	0.0247701
55	0xbea8f6e9	-0.33000877
56	0x3e39c771	0.18142487
57	0x3e0c0096	0.13672099
58	0xbe3c77b9	-0.18405046
59	0x3defade9	0.117030926
60	0x3e005a54	0.12534457
61	0x3c1472ff	0.00906062
62	0x3f1137c0	0.5672569
63	0x3e36e04a	0.17858997
64	0xbe2cdff9	-0.16882314
65	0x3e1a04f8	0.15040958
66	0x3e41f43c	0.18940824
67	0xbd9caa7c	-0.07649705
68	0x3e48b338	0.19599617
69	0xbdbdcf8f	-0.09268104
70	0xbd6f70fb	-0.058457356
71	0xbe2344db	-0.15944235
72	0xbe497b58	-0.19675958
73	0x3dc5ce02	0.096584335
74	0xbc8672ff	-0.016412256
75	0xbdc83a34	-0.09776726
76	0xbe46ed41	-0.19426443
77	0xbe1297c4	-0.14315706
78	0x3e1bf6b3	0.15230827
79	0x3ea2fcd4	0.31833518
80	0x3ec15f80	0.37768173
81	0xbd16a0e5	-0.036774535
82	0xbdfbe7cb	-0.123000704
83	0x3dbd42e6	0.092412755
84	0x3e6d1f56	0.23156485
85	0xbcc16bf1	-0.02361104
86	0x3dafb42a	0.085792854
87	0x3d9f6d08	0.07784468
88	0x3e2419e5	0.16025503
89	0xbd869d0e	-0.065729246
90	0x3db6cda3	0.08925941
91	0x3cda744a	0.02666678
92	0xbd6b2568	-0.05740872
93	0xbe17a5d2	-0.14809349
94	0x3e0fc39e	0.14039466
95	0x3e91bcfa	0.2846449
96	0x3b568f8d	0.0032739372
97	0xbe3f52fe	-0.18684003
98	0xbaa3b011	-0.0012488385
99	0x3e53ea03	0.20694737
100	0xbd5b88a6	-0.053597115
101	0xbde54383	-0.111945175
102	0x3d4caf6b	0.04997198
103	0x3eb29b46	0.3488409
104	0x3e9eb1b9	0.30994967
105	0x3d890876	0.06691067
106	0x3dbe7be6	0.093009755
107	0xbcadf47c	-0.021234743
108	0x3bc5d8dc	0.0060378145
109	0x3e5ac44c	0.21363944
110	0xbe188e73	-0.1489809
111	0x3d3ee6dd	0.046606887
112	0xbbbe517c	-0.0058080535
113	0xbe8ce79e	-0.2752046
114	0x3d1a5807	0.037681606
115	0x3cde7af3	0.027158236
116	0xbe5a0811	-0.2129214
117	0xbe2e1ca2	-0.1700311
118	0xbc8e61b5	-0.017380575
119	0xbe933fc3	-0.28759584
120	0xbe387714	-0.18014175
121	0x3e2a924d	0.16657372
122	0xbd1b715c	-0.037949905
123	0x3e614e4d	0.22002526
124	0xbe129150	-0.14313245
125	0xbad89c2c	-0.0016526035
126	0x3b9ef786	0.0048512844
127	0xbe257345	-0.16157253
128	0xbe398cd7	-0.18120132
129	0xbc00da9b	-0.00786462
130	0xbee23dd0	-0.44187784
131	0x3e0ae1e0	0.13562727
132	0x3e90c22a	0.28273135
133	0x3e3d4c7b	0.18486206
134	0xbe42cefe	-0.19024274
135	0xbe5ccb1c	-0.21561855
136	0xbe762315	-0.2403682
137	0xbe5415bf	-0.2071142
138	0x3dd83897	0.10557669
139	0x3eea8057	0.4580104
140	0x3e8c9e5f	0.27464578
141	0xbd11c887	-0.03559163
142	0x3de00e1c	0.10940191
143	0x3e15f0c9	0.14642633
144	0x3dbb0ef8	0.091337144
145	0xbdbf651b	-0.09345456
146	0x3e6d7435	0.2318886
147	0xbe499e77	-0.19689356
148	0xbde1c245	-0.11023382
149	0xbda1f7cc	-0.07908592
150	0x3e4b75eb	0.19869201
151	0x3d8ed24e	0.06973706
152	0x3d8f8c40	0.070091724
153	0x3da68aa6	0.08131914
154	0x3ca6d35e	0.02036446
155	0xbde124d7	-0.10993355
156	0x3b5fced9	0.003415039
157	0x3e084534	0.13307649
158	0xbe86cc3d	-0.26327696
159	0x3e1af0dc	0.15130943
160	0x3ea6ff83	0.32616815
161	0xbe7ea9d3	-0.2486947
162	0x3d259834	0.040428355
163	0xbe120e71	-0.14263321
164	0x3e5c4e2e	0.21514198
165	0xbd1e4341	-0.038638357
166	0x3e9700b6	0.2949273
167	0x3e1dec73	0.1542223
168	0x3e575a1b	0.21030466
169	0xbe0f0622	-0.13967183
170	0xbd921911	-0.07133687
171	0x3e8129dc	0.2522725
172	0x3dbbb8e8	0.091661274
173	0x3e8378a4	0.2567798
174	0xbe2afbf4	-0.16697675
175	0xbd9e8027	-0.07739287
176	0x3d4dd642	0.05025316
177	0xbe57e128	-0.21081984
178	0x3e245595	0.16048272
179	0xbe0df834	-0.13864213
180	0xbc5398fb	-0.012914891
181	0x3d5d1a8a	0.053980388
182	0x3e7797c1	0.24178983
183	0xbe853bbb	-0.26022133
184	0x3e3d1d84	0.1846829
185	0x3caf9421	0.021432938
186	0x3cc7b1e7	0.024376823
187	0xbe5ed189	-0.21759619
188	0x3d996774	0.07490435
189	0x3d3d542e	0.046222858
190	0x3e8c999b	0.27460942
191	0x3de5e4a4	0.1122525
192	0xbdb66628	-0.089062035
193	0x3c224119	0.009903216
194	0x3d214004	0.03936769
195	0x3ea8d3af	0.32974002
196	0x3e2076bf	0.15670298
197	0xbd964a11	-0.07338346
198	0xbe1b50c7	-0.15167533
199	0xbe3cd378	-0.18440044
200	0x3e9d7fa0	0.30761433
201	0x3e9c7ffc	0.30566394
202	0x3c1f5506	0.009724861
203	0xbd7da425	-0.06192412
204	0x3e124f3d	0.1428804
205	0xbee75cbd	-0.4518794
206	0xbe269dec	-0.1627118
207	0xbe1b696c	-0.15176934
208	0xbdf94876	-0.12172024
209	0xbde9e5a9	-0.11420757
210	0x3d6a691d	0.05722915
211	0x3db034b2	0.08603801
212	0xbda69816	-0.08134477
213	0x3da6df42	0.08148052
214	0x3e0a3f43	0.13500695
215	0x3dac659f	0.0841782
216	0x3e698d7a	0.22807875
217	0xbe673630	-0.22579265
218	0x3d98ba3c	0.074573964
219	0x3e249d5f	0.16075657
220	0xbeabf874	-0.33587992
221	0x3da5cf9b	0.08096238
222	0xbe79de69	-0.24401249
223	0x3daf98d3	0.08574071
224	0xbca0dc96	-0.019636434
225	0xbd270591	-0.040776793
226	0xbea44727	-0.32085535
227	0x3d8ccb81	0.06874753
228	0x3de3b765	0.11118964
229	0x3e6db69b	0.2321419
230	0x3e198f46	0.1499606
231	0xbcef45c5	-0.029208073
232	0x3e7ebb97	0.24876247
233	0xbd924cfc	-0.0714359
234	0xbd2d45c0	-0.042302847
235	0x3e270558	0.16310632
236	0x3db2b3ad	0.08725677
237	0x3d98150d	0.0742589
238	0x3e8fe2fd	0.28102866
239	0xbdecbd34	-0.11559525
240	0xbdc34119	-0.09533901
241	0xbe160e5d	-0.14653917
242	0x3e5e6588	0.21718419
243	0x3e491626	0.19637355
244	0xbd1c6140	-0.038178682
245	0xbe24ac00	-0.16081238
246	0xbe633b4b	-0.22190587
247	0xbe1be4f4	-0.15224057
248	0x3dcf02fc	0.10107991
249	0xbc673e4f	-0.014113977
250	0x3c794cde	0.0152160805
251	0xbe8d0afb	-0.2754744
252	0x3c917906	0.017757904
253	0x3d98aa1d	0.074543215
254	0x3b89f36f	0.0042099277
255	0x3eba12f9	0.363426

base.mlp.fc1.0.bias f4 [64]
0	0xbc32827b	-0.010895367
1	0x3c3437a0	0.01099959
2	0x3bf13dad	0.0073620887
3	0x3c82c08f	0.01596096
4	0xbb7584ae	-0.0037463116
5	0x3c32d4f4	0.01091503
6	0x3b3f1696	0.002915775
7	0x3b88dc49	0.0041766507
8	0x3b06a159	0.0020542948
9	0x3ba0602e	0.004894278
10	0x3b745618	0.0037282761
11	0x3b8ce60d	0.004299885
12	0x3b261614	0.002534275
13	0xbc2f7022	-0.010707887
14	0xbaad0cc6	-0.0013202659
15	0xbc48407d	-0.012222406
16	0x3c1199e1	0.008886785
17	0x3b6b8508	0.0035937447
18	0x3c9f8443	0.019472247
19	0xbbd08bfe	-0.0063643446
20	0x3c5036f9	0.012708419
21	0xbbe82eea	-0.0070856707
22	0x3c0540d7	0.008133135
23	0xbbfd9662	-0.0077388743
24	0xbb49e0e1	-0.0030804204
25	0x3c02195a	0.007940615
26	0x3c76ddef	0.0150675615
27	0x3c0315dd	0.008000818
28	0x3c4c39b0	0.012464926
29	0xbb363085	-0.0027799916
30	0xbb7215a2	-0.0036939164
31	0xbb885e88	-0.0041616596
32	0xbad9266b	-0.0016567236
33	0xbbe80cd5	-0.007081608
34	0xb9ab090c	-0.00032622402
35	0x3b1f64ce	0.002432156
36	0xbbc26bf7	-0.0059332806
37	0xbc78951d	-0.01517227
38	0xbac5574d	-0.0015055925
39	0xbc0724cf	-0.008248522
40	0xbc5809b9	-0.013185912
41	0xbbf5809b	-0.0074921376
42	0x3b848029	0.004043598
43	0xbb4c8a9b	-0.0031210545
44	0xbca3f420	-0.020013869
45	0xbc09bd6a	-0.008406976
46	0xbb7d2c70	-0.0038631223
47	0x3acc8262	0.0015602822
48	0xbc15982b	-0.009130518
49	0x3bdde456	0.0067716045
50	0x3b01027f	0.0019685326
51	0xba41cd06	-0.00073929166
52	0x3c9202ad	0.017823542
53	0xbc1eea46	-0.00969941
54	0xbbb879bf	-0.0056297476
55	0x3ba44eaa	0.0050142603
56	0xbbd1c033	-0.0064010858
57	0x3b81383d	0.0039434717
58	0xbab1b23f	-0.001355715
59	0xbc2d76b8	-0.010587387
60	0x3c474480	0.012162328
61	0x3c1c5d55	0.009543736
62	0xba2bb353	-0.0006549854
63	0xbbe312b2	-0.006929719

base.mlp.fc1.2.weight f4 [64]
0	0x3f7c30bd	0.9851187
1	0x3f813aad	1.0096031
2	0x3f7f827b	0.9980847
3	0x3f809ae0	1.0047264
4	0x3f7fd25d	0.99930364
5	0x3f818050	1.0117283
6	0x3f80b23b	1.0054392
7	0x3f7fca5d	0.99918157
8	0x3f816455	1.0108744
9	0x3f7fbeae	0.9990033
10	0x3f7eaefb	0.9948575
11	0x3f811453	1.0084327
12	0x3f7f4161	0.99709135
13	0x3f7d4c94	0.98944974
14	0x3f7e1851	0.99255854
15	0x3f7da2a8	0.9907632
16	0x3f823126	1.0171249
17	0x3f7e957e	0.99446857
18	0x3f7e45e0	0.9932537
19	0x3f7e209b	0.992685
20	0x3f8142c6	1.0098503
21	0x3f7f9af0	0.9984579
22	0x3f800683	1.0001987
23	0x3f80aa9e	1.0052068
24	0x3f7d3b05	0.9891818
25	0x3f82115c	1.0161548
26	0x3f81af71	1.0131665
27	0x3f816de4	1.0111661
28	0x3f807b31	1.0037595
29	0x3f7f1afc	0.9965055
30	0x3f7e874f	0.99425215
31	0x3f7fbbfc	0.99896216
32	0x3f7f7354	0.9978535
33	0x3f7e3969	0.9930635
34	0x3f805cd2	1.0028327
35	0x3f7e3cb6	0.9931139
36	0x3f803c2c	1.0018363
37	0x3f8073a3	1.003529
38	0x3f7fef1b	0.9997422
39	0x3f7f6beb	0.99774045
40	0x3f7b304d	0.98120576
41	0x3f805847	1.002694
42	0x3f7f821e	0.9980792
43	0x3f8082d3	1.0039924
44	0x3f7cd77b	0.987663
45	0x3f7df2d5	0.9919866
46	0x3f808248	1.0039759
47	0x3f7f582c	0.99743915
48	0x3f804da3	1.0023693
49	0x3f808792	1.0041373
50	0x3f7eaf56	0.9948629
51	0x3f7fe025	0.9995139
52	0x3f8009d3	1.0002998
53	0x3f8196e4	1.0124173
54	0x3f7eb85a	0.9950005
55	0x3f7f8b7e	0.99822223
56	0x3f7f9578	0.99837446
57	0x3f809843	1.0046467
58	0x3f80c205	1.005921
59	0x3f817731	1.0114499
60	0x3f8158d8	1.0105238
61	0x3f80ca92	1.006182
62	0x3f7fa704	0.9986422
63	0x3f7de3fc	0.99176

base.mlp.fc1.2.bias f4 [64]
0	0x3b3a21b7	0.0028401443
1	0x3c1f32aa	0.009716669
2	0x3bd2908f	0.006425924
3	0x3c5c3b01	0.013441802
4	0xbb93543b	-0.004496125
5	0x3b0baee4	0.002131396
6	0x39a7cfc3	0.00032007517
7	0xbb29e646	-0.0025924607
8	0xbaab4c23	-0.0013068955
9	0x3c21a472	0.009865867
10	0x3bfe9047	0.007768664
11	0xbb90edf3	-0.004422897
12	0xba9b9255	-0.0011869172
13	0xbb5b3bab	-0.0033452313
14	0x39ff216a	0.00048662286
15	0xbc5052f3	-0.012715089
16	0xbba7ebd7	-0.00512455
17	0xbb5b50b4	-0.003346485
18	0x3c0dd2e1	0.0086562345
19	0xbaf35a5d	-0.0018566359
20	0x3c425851	0.011861877
21	0xbb9a3266	-0.004705715
22	0xbae60c90	-0.0017551351
23	0xbba30210	-0.004974611
24	0xba77bac4	-0.00094501325
25	0x3a00ae2d	0.0004908767
26	0x3c3e666b	0.011621098
27	0xbacf486a	-0.0015814428
28	0x3b9931eb	0.00467514
29	0x39bd93af	0.00036158922
30	0x35729f4d	9.038384e-07
31	0x3aaffb45	0.0013426325
32	0xbb047b0b	-0.002021494
33	0xbc002e71	-0.0078235725
34	0xbb8d3c58	-0.004310172
35	0x3a8b7e17	0.0010642436
36	0xbadeda63	-0.001700234
37	0xbc7dd10d	-0.015491736
38	0xba61f24d	-0.00086191745
39	0xbbc5c9ef	-0.0060360353
40	0xbba8d8a0	-0.005152777
41	0xbc03f0fb	-0.00805306
42	0x3c1ff42f	0.009762808
43	0xb93b6c4b	-0.00017874052
44	0xbc9cf6e9	-0.019160705
45	0xbb4d6f03	-0.0031346686
46	0xbb7252f7	-0.003697572
47	0x3ba7636b	0.005108287
48	0xbbf901eb	-0.0075991056
49	0x3bd423e4	0.006474005
50	0x3bfd8b48	0.007737551
51	0x38acaeb9	8.234144e-05
52	0x3af79be9	0.0018891069
53	0xbc162dfb	-0.009166236
54	0xbbb70cf8	-0.005586263
55	0x3c16f21f	0.009213
56	0xbba8872e	-0.005143068
57	0x3b1b4e64	0.0023697848
58	0xbb2c0ae1	-0.0026251602
59	0xbbee5b7c	-0.0072740894
60	0x3c0b815d	0.008514729
61	0xbbe260c1	-0.0069085066
62	0xbbb93897	-0.005652498
63	0xbbd18c41	-0.0063948934

base.mlp.fc2.0.0.weight f4 [64, 64]
0	0xbe3b1cc3	-0.1827269
1	0x3e4c36be	0.19942757
2	0x3e8b3968	0.27192235
3	0x3cade627	0.02122791
4	0x3e216f13	0.15765028
5	0xbd73b66d	-0.059500147
6	0xbd1bb0b3	-0.03801031
7	0xbb4a80a2	-0.0030899425
8	0xbe8b71d4	-0.2723528
9	0xbe0044aa	-0.12526193
10	0xbe3a8b20	-0.18217134
11	0xbe01a8f9	-0.12662114
12	0xbd858cf2	-0.06521024
13	0x3e075a6a	0.13218084
14	0x3ce7f918	0.02831702
15	0xbda8aa20	-0.08235574
16	0x3e0fd7a3	0.14047103
17	0xbe6d2197	-0.23157345
18	0x3d06b83b	0.03289054
19	0x3e37e314	0.17957717
20	0xbe77e62d	-0.24208899
21	0xbe24d826	-0.16098079
22	0xbe350064	-0.1767593
23	0x3e06157b	0.13094132
24	0x3ea2dee6	0.31810683
25	0x3c0f94f9	0.008763545
26	0xbdcf6153	-0.10125985
27	0xbd2b1a72	-0.041773267
28	0xbe8825bf	-0.26591298
29	0x3d33296d	0.04374068
30	0xbd9cb1f6	-0.07651131
31	0xbed5dfe1	-0.4177237
32	0xbd9df5d6	-0.07712905
33	0xbdd0b9ab	-0.10191663
34	0x3ec3eb07	0.3826525
35	0x3dcd6fba	0.10031076
36	0x3cdfcb6c	0.027318679
37	0xbed7f5cd	-0.4217972
38	0x3dd3894a	0.1032892
39	0xbe36ab56	-0.17838797
40	0xbdbdd0d7	-0.09268349
41	0x3e4a104e	0.19732782
42	0x3e063580	0.13106346
43	0x3d98bfb1	0.07458437
44	0x3e515c55	0.20445378
45	0xb9a47ab6	-0.00031371944
46	0xbe4ff96c	-0.2030999
47	0xbde4f353	-0.11179223
48	0x3dd2d99a	0.102954105
49	0xbdce1228	-0.10062057
50	0x3e901763	0.28142843
51	0x3e3129d1	0.17301108
52	0xbe6d791e	-0.23190734
53	0xbcc592cf	-0.024117855
54	0xbe8d2a82	-0.27571493
55	0x3eaadbc8	0.33370805
56	0xbe1db8ff	-0.15402602
57	0xbc80d15c	-0.01572483
58	0x3d676808	0.056495696
59	0xbe80d4fd	-0.25162497
60	0xbd58edf9	-0.052961323
61	0xbcdd6c90	-0.027029306
62	0xbb3d2016	-0.0028858236
63	0xbe3f2bcc	-0.18669051
64	0x3e7bdb0d	0.2459528
65	0x3e0388fe	0.12845227
66	0x3dd575d2	0.10422863
67	0x3cc7e648	0.024401799
68	0x3e2caf6a	0.1686379
69	0xbae358b5	-0.0017345162
70	0x3e2dffb7	0.16992079
71	0xbdbd48c8	-0.092423975
72	0xbd64cc20	-0.05585873
73	0x3dbde468	0.09272081
74	0xbef74fba	-0.48303014
75	0x3e33485b	0.1750807
76	0xbda35096	-0.07974355
77	0x3d2ec254	0.042665794
78	0x3e6dabd6	0.23210081
79	0x3e28c831	0.16482617
80	0x3db84878	0.08998197
81	0xbe00f341	-0.12592794
82	0xbe43ac5e	-0.19108722
83	0x3d7c7cae	0.06164234
84	0x3d780282	0.060549267
85	0x3e28d2f1	0.16486718
86	0x3dc15909	0.0944081
87	0x3cf2d314	0.029641666
88	0xbceb87c6	-0.028751265
89	0x3e70a1d0	0.23499227
90	0xbdbb860a	-0.09156425
91	0x3dc95edf	0.09832548
92	0x3d816788	0.06318575
93	0x3e9c896f	0.30573604
94	0x3da6bf42	0.08141948
95	0x3d83c488	0.0643397
96	0xbe42d087	-0.1902486
97	0xbc75cab4	-0.0150019415
98	0xbe34f91b	-0.17673151
99	0xbde8a333	-0.11359253
100	0xbe1726e3	-0.14760928
101	0x3eb46fbd	0.352415
102	0x3efec57a	0.49760038
103	0xbe98f2e4	-0.2987281
104	0xbd1b96ec	-0.037985727
105	0x3db17f59	0.08666868
106	0xbd16dfab	-0.0368344
107	0x3cd81079	0.026375042
108	0xbd072703	-0.03299619
109	0xbe1d5488	-0.15364277
110	0x3bcdb18d	0.006277269
111	0x3db407b0	0.08790529
112	0xbdaef6a0	-0.08543134
113	0x3de007c1	0.10938979
114	0xbe2d72ee	-0.16938373
115	0x3e4c3719	0.19942893
116	0xbedfe8de	-0.4373235
117	0x3e41a08c	0.189089
118	0x3e3310f7	0.1748694
119	0x3dac6f08	0.08419615
120	0x3e9217ab	0.28533682
121	0xbdaaa9f5	-0.08333198
122	0x3e08b92e	0.1335189
123	0xbe64879f	-0.2231736
124	0x3d5a18d4	0.053246334
125	0xbd3f24ba	-0.046665885
126	0x3e62b2fd	0.22138591
127	0x3dff3661	0.12461544
128	0xbe1fc310	-0.15601754
129	0xbe1a9b0d	-0.1509821
130	0xbdffdf02	-0.12493707
131	0xbe198f6c	-0.14996117
132	0x3df83edf	0.12121367
133	0x3e312a3b	0.17301266
134	0x3de0e65c	0.109814376
135	0x3e0ee2cd	0.13953705
136	0xbe2f96a3	-0.17147307
137	0x3eb42e40	0.35191536
138	0xbe9c7645	-0.30558982
139	0xbb507271	-0.0031806494
140	0xbdeb1539	-0.11478657
141	0x3e4a1f4a	0.19738498
142	0xbd3007ba	-0.04297612
143	0xbe0cfff3	-0.13769512
144	0x3d3f2d65	0.04667415
145	0x3e7af7df	0.24508618
146	0x3e7b7d06	0.24559411
147	0x3e65465e	0.22390124
148	0x3b430777	0.0029759088
149	0x3d31493c	0.043282732
150	0x3e8dfa38	0.27729964
151	0x3cdbb7e4	0.026821084
152	0x3ceab687	0.028651489
153	0x3d070eb6	0.032973014
154	0x3e95a27f	0.29225537
155	0x3e78f335	0.24311526
156	0xbe5f3fb9	-0.21801652
157	0xbdab8eb3	-0.08376827
158	0x3c7f43e3	0.01558015
159	0xbd4c4f03	-0.04988004
160	0x3c84e40a	0.016222019
161	0xbe450518	-0.19240224
162	0xbe13e167	-0.14441453
163	0x3ecba0ea	0.39771205
164	0x3e08b3c3	0.13349824
165	0x3dabc00e	0.08386241
166	0xbe1b59ec	-0.15171021
167	0xbe2aa504	-0.16664511
168	0x3e150ef1	0.14556481
169	0x3d96d30a	0.07364471
170	0xbe67f69d	-0.22652669
171	0xbdaf7392	-0.08566965
172	0x3d2759d3	0.040857147
173	0xbe3d2326	-0.1847044
174	0xbedf3e8b	-0.43602404
175	0xbc3ace33	-0.011401701
176	0x3e0a43b9	0.13502397
177	0x3c49f0b9	0.012325459
178	0x3e4a5f49	0.19762911
179	0xbd19705a	-0.037460662
180	0x3da5acfb	0.08089634
181	0xbdee49ae	-0.11635147
182	0x3e875a30	0.26435995
183	0xbe51b115	-0.20477708
184	0xbd85c216	-0.065311596
185	0x3e0c7a0b	0.1371843
186	0x3e820646	0.2539541
187	0x3c3bdfd7	0.011466942
188	0x3dd33d3a	0.103144124
189	0xbe94bd51	-0.29050687
190	0xbe0ecac5	-0.13944538
191	0x3e7dd452	0.24788025
192	0x3e350eb9	0.17681397
193	0x3e6890d3	0.22711496
194	0x3d214b2b	0.039378326
195	0xbcbc5836	-0.022991281
196	0x3e4dd0d9	0.200992
197	0x3da38e44	0.079861194
198	0x3dc8177e	0.09770106
199	0x3defc3e1	0.11707283
200	0x3da4d9e7	0.08049374
201	0x3d7fbcd3	0.062435936
202	0x3c8366ea	0.016040284
203	0xbe116892	-0.14200047
204	0x3d4a152f	0.04933661
205	0x3da53ef5	0.08068649
206	0x3e6f12cd	0.23347016
207	0x3a47303a	0.0007598434
208	0x3b4201cf	0.0029603129
209	0x3ddda86b	0.10823139
210	0xbe953b8a	-0.29146987
211	0xbdce0d96	-0.10061185
212	0xbe6af455	-0.22944768
213	0xbdf76fe4	-0.12081888
214	0xbea05389	-0.31313732
215	0x3dae2a72	0.085041896
216	0xbe695661	-0.22786857
217	0xbdcb0926	-0.09913854
218	0x3e64e42f	0.2235267
219	0x3d8b6c11	0.068077214
220	0x3db53a40	0.08849001
221	0x3e30467e	0.1721439
222	0x3e20ffaa	0.15722528
223	0xbe3e7749	-0.18600191
224	0x3d37848d	0.044804145
225	0x3d9854c9	0.074380465
226	0xbdb8f8eb	-0.09031852
227	0x3db7704f	0.08956968
228	0x3e8b5948	0.27216554
229	0x3d64cdeb	0.05586044
230	0x3f04a79b	0.51818246
231	0xbd8318fb	-0.06401249
232	0xbe72f530	-0.23726344
233	0xbd86bc66	-0.06578903
234	0x3d9c7504	0.076395065
235	0xbe5f4cf2	-0.21806696
236	0xbd0478f3	-0.03234191
237	0x3b5648f5	0.0032697294
238	0xbdf6d6a8	-0.12052661
239	0xbe74058b	-0.2383024
240	0x3a3788bb	0.00070012704
241	0x3d2624cd	0.04056244
242	0x3decb163	0.11557271
243	0xbccc93be	-0.024972793
244	0x3f0dd2f6	0.55400026
245	0xbe0456ac	-0.12923688
246	0xbe2a3f6b	-0.16625755
247	0xbd9893ca	-0.074500635
248	0xbe6d5709	-0.23177733
249	0x3e073eb9	0.1320752
250	0x3c3c00bf	0.011474787
251	0x3e68d527	0.22737561
252	0xbe3427ca	-0.17593303
253	0x3d1dbf1a	0.038512327
254	0x3ebdb09f	0.37048814
255	0x3e4bb1e7	0.19892083

base.mlp.fc2.0.0.bias f4 [64]
0	0x3c069888	0.008215077
1	0xbc3d3368	-0.011547901
2	0x3a305b35	0.0006727458
3	0x3b6aa76e	0.0035805362
4	0xbc821ef2	-0.015883896
5	0xbb9e5ae1	-0.004832611
6	0x3a9dda6c	0.0012043244
7	0xbc37b369	-0.011212208
8	0x3b977191	0.0046216925
9	0xbbecdc77	-0.00722843
10	0x3b919486	0.004442754
11	0xba4cafc2	-0.00078081724
12	0x3ac3a95a	0.001492779
13	0xba454558	-0.00075252866
14	0xbab79c02	-0.0014008286
15	0x3ae752b0	0.0017648544
16	0xbc0e8cc4	-0.008700553
17	0x3c023519	0.00794723
18	0x3be84164	0.0070878733
19	0xbb9e3771	-0.0048283865
20	0xbc51f4c6	-0.012814706
21	0xbbbf15ab	-0.0058314404
22	0x3c01bd8e	0.0079187285
23	0xbbbb1b44	-0.0057100374
24	0x3b55f0d0	0.0032644756
25	0x3a945ea7	0.0011319713
26	0xbae55ad6	-0.0017498385
27	0xbc1068af	-0.008814021
28	0x3bbbcfbe	0.005731552
29	0xbbbfed78	-0.005857166
30	0xb92893c6	-0.00016076778
31	0xbc51fe37	-0.012816957
32	0xbbaa6aab	-0.005200704
33	0xba8f24e0	-0.0010921024
34	0x3b968104	0.0045930166
35	0x3acef2bb	0.0015788892
36	0x3a910a37	0.0011065666
37	0x35cceb1e	1.5267613e-06
38	0x3b457681	0.0030130448
39	0xbc13a7bc	-0.009012159
40	0xbb96b4d9	-0.0045991954
41	0xbcb5c79d	-0.02218991
42	0x38bc3ca9	8.9758374e-05
43	0x3be90550	0.007111229
44	0x3c710fa6	0.014713204
45	0xbc40c9d5	-0.0117668705
46	0x3c3e9728	0.011632718
47	0xbbe0b552	-0.0068575526
48	0xbaf25ddb	-0.0018491106
49	0x3c0d3615	0.008618851
50	0xbb51e33e	-0.0032026316
51	0x3ae396db	0.0017363684
52	0x3bbf5b33	0.005839729
53	0x3c21f316	0.009884616
54	0x3bcfd3cb	0.0063423864
55	0x3ba4da92	0.0050309384
56	0x3aece812	0.0018074533
57	0x3c0f0518	0.008729242
58	0xbbc4e30d	-0.006008512
59	0x3bcbeaed	0.0062230737
60	0x3b843f8f	0.004035897
61	0x3a8cbfda	0.0010738329
62	0x3c05e097	0.008171222
63	0xb95d19ee	-0.00021085862

base.mlp.fc2.0.2.weight f4 [64]
0	0x3f80dcad	1.0067345
1	0x3f80e4ef	1.0069865
2	0x3f816bf0	1.0111065
3	0x3f80d36b	1.006452
4	0x3f812009	1.0087901
5	0x3f80d209	1.0064098
6	0x3f819f56	1.012675
7	0x3f80a9c0	1.0051804
8	0x3f813e58	1.0097151
9	0x3f81bd62	1.013592
10	0x3f815025	1.0102583
11	0x3f80a59b	1.0050539
12	0x3f814661	1.0099603
13	0x3f80a1f2	1.0049422
14	0x3f80a774	1.0051103
15	0x3f80ec1a	1.0072052
16	0x3f80b111	1.0054036
17	0x3f819e89	1.0126506
18	0x3f80dee9	1.0068027
19	0x3f80b6cd	1.0055786
20	0x3f809f60	1.0048637
21	0x3f80cc5d	1.0062367
22	0x3f819945	1.0124899
23	0x3f8099b9	1.0046912
24	0x3f805f05	1.0028998
25	0x3f813dea	1.009702
26	0x3f80b38e	1.0054796
27	0x3f80f966	1.007611
28	0x3f815c17	1.0106229
29	0x3f81035e	1.0079153
30	0x3f80be3f	1.0058059
31	0x3f8171e4	1.0112882
32	0x3f80e1c4	1.0068898
33	0x3f80dff8	1.006835
34	0x3f80ed0b	1.007234
35	0x3f81a15b	1.0127367
36	0x3f813a31	1.0095884
37	0x3f80e277	1.0069112
38	0x3f820b03	1.015961
39	0x3f80c800	1.0061035
40	0x3f810278	1.0078878
41	0x3f80cefb	1.0063165
42	0x3f81c23e	1.0137403
43	0x3f80d90c	1.0066237
44	0x3f81c71c	1.0138888
45	0x3f80eb2d	1.007177
46	0x3f814aca	1.0100949
47	0x3f8176a0	1.0114326
48	0x3f819351	1.0123082
49	0x3f812a25	1.0090986
50	0x3f811b45	1.0086447
51	0x3f816f1a	1.011203
52	0x3f80f2e8	1.0074129
53	0x3f81b841	1.0134355
54	0x3f80ea10	1.007143
55	0x3f8115af	1.0084742
56	0x3f82004e	1.0156343
57	0x3f80d304	1.0064397
58	0x3f80f98b	1.0076154
59	0x3f81ff9d	1.0156132
60	0x3f82bca7	1.0213822
61	0x3f81c9da	1.0139725
62	0x3f8048a5	1.0022169
63	0x3f811c91	1.0086843

base.mlp.fc2.0.2.bias f4 [64]
0	0x3b84d6bd	0.004053919
1	0x3b141569	0.002259577
2	0xbbf8d7ae	-0.0075940704
3	0xbbc35d62	-0.00596206
4	0xbc51678f	-0.012781038
5	0xbb97bbb7	-0.0046305317
6	0xbc17c519	-0.0092633
7	0xbc46d786	-0.012136346
8	0x3a81834e	0.0009881051
9	0xbc369cd5	-0.01114579
10	0x3c24ad62	0.010051103
11	0xbb2b61e5	-0.002615088
12	0x3bb2888b	0.005448406
13	0xbb35d028	-0.002774248
14	0xbbdbf317	-0.006712328
15	0x3c58689c	0.013208535
16	0x3c2ac74d	0.010423494
17	0x3aec0f38	0.0018009907
18	0x3c21c6bc	0.009874042
19	0xbaf64ff1	-0.0018792135
20	0xbbcd0b30	-0.006257437
21	0xbbc55b1d	-0.0060228244
22	0x3a2b7e5b	0.0006541961
23	0x3bce6726	0.0062989173
24	0x3bd5f328	0.0065292306
25	0x3bca7ec8	0.0061796643
26	0xbbe0ba96	-0.0068581803
27	0x3a3aa8b5	0.0007120476
28	0xbad25a6b	-0.0016048675
29	0xbc36c72e	-0.011155887
30	0xbad4d685	-0.0016238248
31	0x3a9c1de4	0.0011910764
32	0xbc4c2956	-0.012461027
33	0xbb5565c7	-0.0032561885
34	0x3c06e1f2	0.0082325805
35	0x3c20e1d7	0.009819469
36	0x3c1be63a	0.0095153395
37	0xbb97aad2	-0.0046285177
38	0xbb6ab6b1	-0.003581446
39	0xbba5a676	-0.005055244
40	0xbbd24696	-0.006417106
41	0xbc526017	-0.012840292
42	0x3af633da	0.0018783764
43	0x3c201556	0.009770712
44	0x3c07a54b	0.008279155
45	0x3ae268c2	0.0017273652
46	0x3bfadfbb	0.0076560653
47	0xbc4293b0	-0.011876032
48	0xbb5854cb	-0.0033009525
49	0x3b8c6657	0.004284661
50	0x3c0277b3	0.007963109
51	0xbb973661	-0.004614637
52	0x3bc56d6f	0.0060250084
53	0x3bba99bc	0.005694596
54	0x3b86f831	0.004118942
55	0x3c127930	0.008940026
56	0xbc0aa95c	-0.00846323
57	0x3bfc492a	0.0076991515
58	0x3adbbd5a	0.0016764805
59	0xbbf3a15d	-0.0074350075
60	0xbbe837c8	-0.007086728
61	0xbc1e5538	-0.009663872
62	0x3c224349	0.009903737
63	0x3b46b56b	0.0030320536

act.action_out.log_std f4 [2]
0	0x3f2f02ff	0.68363947
1	0x3f16e946	0.58949697

act.action_out.fc_mean.weight f4 [2, 64]
0	0xba5c1b3d	-0.0008396393
1	0x3b674b47	0.0035292672
2	0x3b9244c2	0.004463763
3	0x3aadba33	0.0013254344
4	0x3b9be60d	0.004757649
5	0x3b911de3	0.0044286116
6	0x3b0e69c6	0.0021730526
7	0xba0564aa	-0.00050885475
8	0x3ba67090	0.0050793365
9	0x3c09adf7	0.008403293
10	0xbb92d264	-0.004480647
11	0xbb6f93bd	-0.0036556565
12	0xbc10f2d7	-0.00884696
13	0x3a38c72a	0.0007048721
14	0xbb1ce246	-0.002393858
15	0x3b1991d8	0.0023432877
16	0x3b002d40	0.001955822
17	0xbc0b50f6	-0.008503189
18	0x3b571c8a	0.0032823407
19	0xbb3e8438	-0.0029070508
20	0xba815495	-0.0009867126
21	0xbaf658c8	-0.001879477
22	0x3c60f049	0.013729163
23	0xb97f4197	-0.00024343129
24	0x3b365798	0.0027823206
25	0x3bcd5e8e	0.0062673753
26	0x3b5d9394	0.0033809887
27	0xba8f9cdd	-0.0010956783
28	0x3c15e0ee	0.009147866
29	0x3b0d4b62	0.0021559824
30	0x3a27cdd4	0.0006401215
31	0x3bb1906f	0.005418829
32	0xbb833a2f	-0.0040047388
33	0x3b10a14a	0.0022068792
34	0x3b8c6a9d	0.00428517
35	0x3c1b70ce	0.009487344
36	0x3adcd26d	0.001684738
37	0xbad0bcbd	-0.0015925389
38	0xbc7ac86d	-0.015306574
39	0xbb2d8bdb	-0.0026481065
40	0xbbba4019	-0.0056839106
41	0xbb5ca790	-0.003366921
42	0x3b95861d	0.0045631067
43	0x38cb8da9	9.7061806e-05
44	0xbc28cf72	-0.010303365
45	0xbb45f1a8	-0.0030203853
46	0xbb96b39e	-0.0045990488
47	0xba7d40cb	-0.0009660839
48	0x3b468219	0.0030289947
49	0xbb816f90	-0.003950067
50	0x3ad1bc24	0.0016001505
51	0xbbf9f4d6	-0.0076280637
52	0xbbbb153e	-0.0057093194
53	0x3bd6e7f8	0.0065584145
54	0xbb402728	-0.0029320214
55	0xbbeb15be	-0.0071742227
56	0x3b1a1ffd	0.0023517602
57	0x3bc9c25e	0.0061572036
58	0x3bb221b4	0.0054361466
59	0xbc263de8	-0.010146596
60	0xbc0777c8	-0.008268304
61	0xbc3bf2ae	-0.011471434
62	0x3ab3ff35	0.0013732674
63	0x3b9a03bd	0.0047001527
64	0x3b6ab92a	0.0035815933
65	0xba0df441	-0.000541512
66	0xbc02fea8	-0.007995285
67	0x3ab39d9a	0.0013703585
68	0x3b11cc31	0.0022246952
69	0xba0b164a	-0.00053057505
70	0xbc34ad77	-0.011027685
71	0xbb9feb80	-0.0048803687
72	0xbbac31d8	-0.0052549653
73	0xbc0a92e5	-0.008457874
74	0x3bc6e9b1	0.0060703387
75	0xb86e660f	-5.683867e-05
76	0xbb463a1a	-0.0030247034
77	0x3ac8a961	0.0015309268
78	0x39e41582	0.00043503573
79	0x3750e22f	1.2450429e-05
80	0xb951ab40	-0.00019995589
81	0x3b6b8d63	0.0035942427
82	0x3babe228	0.005245466
83	0x3901d5b7	0.00012382014
84	0xbb3396eb	-0.0027403187
85	0xbb9ffd84	-0.0048825163
86	0x3b3a46f9	0.002842365
87	0x3acfd1be	0.0015855355
88	0x3ac9dd4f	0.0015401038
89	0xbb879f20	-0.004138842
90	0xbb0b8f1f	-0.0021295024
91	0xbb235de5	-0.0024927792
92	0xbbe1fe0d	-0.0068967403
93	0xbbde2841	-0.006779701
94	0x3b9227d7	0.0044603157
95	0x3bb6a4cd	0.005573845
96	0xbb56a178	-0.0032750051
97	0xbbbaf1e7	-0.0057051065
98	0x3b5e6afa	0.0033938275
99	0x3bad7971	0.005294018
100	0x3be04b41	0.0068449085
101	0xbb8f7450	-0.004377879
102	0xbbb7db15	-0.0056108334
103	0x3b35d1bf	0.0027743427
104	0xbb53a23a	-0.003229274
105	0xbb7f31f4	-0.0038939686
106	0x3c0f1d68	0.008735038
107	0x3bfdf6a7	0.0077503505
108	0x3c13e0cc	0.009025764
109	0x3b7989f5	0.0038076614
110	0x3c34f807	0.011045462
111	0xbc3a89d0	-0.011385396
112	0x3c2e41c4	0.010635797
113	0x3be3930b	0.006945019
114	0x3bc7a471	0.006092601
115	0x3ba24b46	0.004952821
116	0x3b01f833	0.0019831776
117	0x3c309e01	0.010779859
118	0x3b942c0f	0.0045218538
119	0x3af062bd	0.0018339973
120	0xbc5a2f86	-0.0133169945
121	0xbb09b469	-0.0021012074
122	0xbb7d6dd8	-0.0038670208
123	0xbc714f02	-0.01472831
124	0xbca1d918	-0.019756839
125	0xbaeab0b8	-0.001790545
126	0x3b0254a2	0.001988687
127	0x3bd1d693	0.006403753

act.action_out.fc_mean.bias f4 [2]
0	0x3ab57bc5	0.001384609
1	0x3c27c83a	0.010240609
