ami_mujoco/ckpt/mujoco/Ant-v2_4x2/victim/critic.pt (torch, 51137 bytes, 11 tensors)

base.feature_norm.weight f4 [111]
000000 7b 02 23 41 18 ad 64 41 80 68 ac 41 ae 14 b4 41
       10.188106 14.292259 21.551025 22.510098
000010 c8 80 7e 41 03 55 8a 40 1c 9f 87 40 3c 26 6f 40
       15.906441 4.3228774 4.2381725 3.7367086
000020 4c aa 60 40 9d b2 83 40 c0 bc 7b 40 d9 02 89 40
       3.510394 4.1155534 3.9333954 4.2815976
000030 fb 3c 8d 40 59 b2 7b 40 5f d8 01 40 a8 79 56 40
       4.413694 3.9327605 2.0288312 3.3511753
000040 2a 4c cc 3f 4e 22 da 3f c2 86 f2 3f 18 f9 1c 3f
       1.5960743 1.7041719 1.8947375 0.61317587
000050 85 a8 21 3f 08 fd f0 3e 74 f5 02 bf 81 7c 10 3f
       0.63147765 0.47068048 -0.5115578 0.5643998
000060 b2 f2 b9 3e e4 be 48 3f 25 f7 e9 3e 2c 00 2d 41
       0.36317974 0.78416276 0.4569637 10.812542
000070 18 4a 91 bf 3c 91 8c be a4 9d 01 3f fa 7f 47 3d
       -1.1350737 -0.27454555 0.50631166 0.048706032
000080 75 3c cb 3e 13 c0 43 3f 44 00 a4 bf 44 a6 87 bf
       0.39694563 0.76464957 -1.2812581 -1.0597615
000090 1a 73 d6 bf 89 13 01 c0 2c 6f 61 be c3 e2 7c bf
       -1.6753876 -2.0168173 -0.22015065 -0.9878351
0000a0 93 91 0d 3f 7e a1 0f 40 87 ca 12 c0 92 86 de 3f
       0.55300254 2.2442317 -2.2936113 1.7384818
0000b0 e3 3c 18 bf 26 33 0a bd a9 9a cd be b7 06 2d bf
       -0.59467906 -0.033740185 -0.4015706 -0.6758837
0000c0 bf 58 6d be bb d5 04 bf 7c 43 66 3e 85 b5 da be
       -0.23178385 -0.51888627 0.22486681 -0.42716613
0000d0 00 3c 39 c0 6b 5d a5 bf b1 36 b3 3e f1 74 25 3f
       -2.894287 -1.2919134 0.35002664 0.64631563
0000e0 69 43 2e bf 4d 2f 4d 41 a4 cf 93 bf 1a 07 f4 40
       -0.6807161 12.824048 -1.1547742 7.625867
0000f0 38 fc f1 be 46 29 8b bf 73 b6 bd bf 94 44 af bc
       -0.4726274 -1.0871971 -1.4821304 -0.021395005
000100 07 72 8b 3f 65 6d fe 3d da 3f 33 bf 7a b3 d1 bf
       1.0894173 0.12423209 -0.70019305 -1.6382897
000110 dc 54 11 3f 40 05 90 be 50 2c 55 bf 9d 5d 00 41
       0.5677011 -0.28129005 -0.8327074 8.022855
000120 b3 4f 34 3f 23 56 a6 bf a2 0c 07 c0 a5 05 0a 40
       0.7043411 -1.2995037 -2.110146 2.1565945
000130 77 80 03 40 a6 4d a9 bd b0 df e0 bf 65 40 bb 3f
       2.0547159 -0.082667634 -1.7568264 1.4629027
000140 51 be 0b c0 05 b2 0e 40 de 19 74 bf 86 13 03 bf
       -2.183491 2.2296154 -0.9535197 -0.51201665
000150 3b 8d 74 bf 70 c2 65 3f e7 6f a1 be 0e 38 f8 bf
       -0.95528 0.89749813 -0.31530687 -1.9392107
000160 b5 15 57 c0 5d 0f 28 40 f6 1f 79 bf b6 64 f4 3f
       -3.3607 2.6259377 -0.97314394 1.9093235
000170 b0 54 30 41 a6 c4 af 3f 61 52 78 bf e1 6a 32 bf
       11.020676 1.3731887 -0.970007 -0.69694334
000180 e8 54 22 3f 64 11 e2 bf 91 be ec 3f a2 85 f6 3e
       0.63410807 -1.7661557 1.8495656 0.4814883
000190 34 ec 13 41 8f 5f 52 3f cf d4 eb 3f 1c 19 1d 41
       9.245167 0.8217706 1.8424319 9.81863
0001a0 10 59 12 3f b9 03 29 bf 27 f8 44 3f ee c0 9f be
       0.5716715 -0.66021305 0.7694115 -0.3120188
0001b0 b4 6d 10 bf 14 02 2b 40 11 cd 0e bf
       -0.56417394 2.6720018 -0.55781657

base.feature_norm.bias f4 [111]
000000 e0 63 27 c0 c5 ee b5 bf 05 3e 03 3e a9 30 4a bd
       -2.615471 -1.4213492 0.12816627 -0.049362812
000010 8a d9 49 3e a6 88 c4 be ed 67 47 c0 0f e0 14 3f
       0.19711891 -0.38385504 -3.1157181 0.58154386
000020 7b 9a 2f 40 f5 98 5e 3c f9 53 1f 40 4d e6 47 3b
       2.7438037 0.0135862725 2.4895003 0.003050226
000030 ea fc 59 c0 4b 18 7d bd 30 d5 be 3e 7b 3f bd 3e
       -3.4060616 -0.061790746 0.37272024 0.36962494
000040 66 81 61 3e 07 05 75 3f 67 6b 6c 3d a6 a9 ad 3e
       0.22022018 0.95710796 0.057719614 0.33918494
000050 0a 27 4f 3f b5 ed f6 3d b6 1e 0e 3f 53 d4 ff bd
       0.80918944 0.12057058 0.5551561 -0.124916695
000060 9a 61 0e be 7d 75 60 bf ec c3 4e 3f c0 51 49 be
       -0.1390442 -0.8767927 0.80767703 -0.19660091
000070 15 e7 b4 3e 14 3e 87 3d 74 16 05 bf a6 47 53 3e
       0.35332552 0.06603637 -0.51987386 0.206328
000080 3c be 2c be 6e 53 9c 3d b2 6b a8 be 10 c0 07 3d
       -0.16869444 0.076331005 -0.32894665 0.03314215
000090 cf 58 13 3f a1 2d 2e 3e 79 2a 9c 3e a4 ea 89 be
       0.57557386 0.17009594 0.30501154 -0.2693683
0000a0 62 f9 3d bf e2 ef fb 3e 8a 22 96 3e ee fe c2 3e
       -0.7420865 0.49206454 0.29323226 0.3808512
0000b0 ff 7c b0 3e cb 85 0b 3f be 7e cf be e1 ce 51 be
       0.34470364 0.54501027 -0.40526384 -0.20489074
0000c0 91 93 72 3f 6d 19 94 bf cb 0b 23 3e 9c 24 e0 3e
       0.9475642 -1.1570259 0.15922467 0.4377793
0000d0 6d 32 09 be 83 aa ec be 0b 47 fa be 8a d2 b2 3e
       -0.13398142 -0.4622384 -0.48882326 0.34926254
0000e0 07 99 a5 be f9 7f ae be e7 b2 96 be d5 7b 34 3e
       -0.32343313 -0.3408201 -0.29433367 0.17625363
0000f0 32 e2 50 be 53 8a 7c bd fe 13 6c bf f2 f1 ad be
       -0.20398787 -0.061655354 -0.92218006 -0.33973652
000100 07 7f 55 bf b6 8c 6b 3c 9b 61 54 3f 53 af b3 3e
       -0.83396953 0.01437681 0.82961434 0.350947
000110 e1 64 54 3e ba ea 15 3f 65 ec 00 bf 86 e9 3c 3e
       0.20741607 0.5856129 -0.5036071 0.18448457
000120 44 6d cb 3e b4 9b a3 be b2 83 8a 3e 7c c6 97 be
       0.397318 -0.3195473 0.270536 -0.2964362
000130 b2 7c 22 be d4 d9 da bd bb c2 87 be 65 5a 79 3e
       -0.1586788 -0.10686079 -0.26515755 0.24350889
000140 9c 8d 85 3d 8c f8 1e 3e 34 f5 99 3e 79 26 20 bd
       0.065211505 0.155245 0.30069888 -0.03909919
000150 e1 2a 87 be c9 21 0b be 9c 7b 86 3d 12 ae ea 3d
       -0.26399902 -0.13587107 0.06566545 0.114589825
000160 d4 e0 0b 3e 19 e4 35 3f 8b 7d 27 3f b1 b2 3b be
       0.13659984 0.71051174 0.6542594 -0.18329884
000170 a2 5d 5e bd 12 41 0a bf 3a c7 d9 be 77 53 e5 be
       -0.054288514 -0.5400554 -0.4253481 -0.4479024
000180 a7 e3 4a 3e 3a b7 1c 3f ba e6 09 3f 0b f4 3f bd
       0.19813405 0.6121708 0.53867686 -0.046863597
000190 4e e1 e1 3c d8 06 ce 3f 85 2b 2e 3f 8e 0d 24 bd
       0.027573254 1.6095839 0.68035156 -0.04005199
0001a0 9d a9 85 3f 69 e0 0f bf 26 2a cb be 4e 1b 86 be
       1.0442387 -0.562018 -0.39680594 -0.26192707
0001b0 cf 54 d3 bd 68 9d af be 85 f5 6f bf
       -0.1031891 -0.3429978 -0.9373401

base.mlp.fc1.0.weight f4 [64, 111]
000000 15 f1 92 c0 13 d2 e9 c0 09 6c 3a c0 9e 0d 3f bc
       -4.591929 -7.306894 -2.912844 -0.011660961
000010 ab e9 2f c1 9d ba be bf ff 54 d2 bf 23 dd 76 c0
       -10.994548 -1.49007 -1.6432189 -3.857247
000020 fc 98 60 c0 9e 0f 94 be 10 4b 09 bf 75 3e 26 bf
       -3.5093374 -0.28918165 -0.5363016 -0.6493905
000030 eb 38 ab bd 8a 6f 00 3f a3 16 d5 40 7d c5 13 c0
       -0.083604656 0.50170195 6.6590133 -2.3089287
000040 c6 13 53 3f 51 13 b0 3b 82 66 75 3f d0 62 f6 bf
       0.82452047 0.0053733964 0.9585954 -1.9248905
000050 51 2f e3 bf e3 44 f8 bf 79 b0 48 3f b3 5e ae be
       -1.7748815 -1.9396023 0.78394276 -0.34056625
000060 85 6d c1 bf 4a f0 b7 3f 82 9f a0 3d fb 37 be 40
       -1.5111548 1.4370205 0.07842924 5.9443336
000070 2d e2 26 40 b3 0f 4a 3f 96 71 33 bf 36 41 4f bf
       2.6075547 0.78930205 -0.70095193 -0.8095888
000080 aa 7b 37 3f ec e1 09 3f ff c4 7e 3e fe 30 b5 bd
       0.7167307 0.53860354 0.24879836 -0.08847235
000090 ed a7 0c 3e 7f 37 b7 bf 08 86 04 40 67 19 e3 3d
       0.13735934 -1.4313811 2.0706806 0.110888295
0000a0 0f 0a 28 c0 eb 9f 02 c0 15 0f 0f 3f c3 da f3 3f
       -2.625614 -2.0410106 0.5588239 1.9051136
0000b0 59 88 9d be 82 4e 29 3f 92 75 91 bf 22 84 36 3f
       -0.30768088 0.6613542 -1.1364005 0.7129537
0000c0 08 dc 95 bf 8e 0e 55 3f fd b1 d1 3f 0a d7 f7 3f
       -1.1707773 0.83225334 1.6382443 1.93625
0000d0 d1 4e 7c bf 23 78 d0 3f 22 56 99 3f 8d ac 4c 3f
       -0.98557764 1.6286663 1.1979411 0.7995079
0000e0 12 d7 1b 3f de 47 db 40 ff 97 2b c0 15 cd 95 40
       0.60875046 6.852523 -2.681152 4.6812844
0000f0 10 8d 91 3f 2f a9 bb 3e 3d b6 2e 3f f6 c4 f0 3e
       1.1371174 0.36652514 0.68246824 0.4702527
000100 3d 11 94 bf 23 54 30 40 23 71 b4 3f 57 4f 85 bf
       -1.1567761 2.7551353 1.4097027 -1.0414838
000110 77 a8 03 40 76 9e 26 bf d8 66 95 3f 57 65 95 40
       2.0571573 -0.6508554 1.167201 4.6686206
000120 d0 3f c1 3f 45 61 33 c0 ff 7a 2b 3f 17 63 7c bf
       1.5097599 -2.8028119 0.6698455 -0.985887
000130 e9 25 fa 3f b4 b4 c0 3f e4 d1 53 c0 48 7e 0e 3f
       1.9542819 1.5055146 -3.3096857 0.5566144
000140 2a e5 18 3f a8 9a d4 bf 81 d4 ed 3f c9 6b d7 be
       0.59724677 -1.6609697 1.8580476 -0.4207442
000150 37 18 07 c0 81 d7 0e bf b5 16 a3 3f 7e 45 8c 3f
       -2.110853 -0.5579758 1.2741305 1.0958707
000160 28 2e 82 bf b7 1a e1 bf be a7 d6 be 69 41 80 be
       -1.0170336 -1.7586278 -0.41924852 -0.25049904
000170 b2 88 c0 40 ac dd 0c 3e eb 13 e8 3d 74 85 b4 3e
       6.0166864 0.13756436 0.11331924 0.35258067
000180 e0 ef 52 be 41 e8 f4 be 5e 04 ec 3e de 4a 07 c0
       -0.20599318 -0.47833446 0.46097082 -2.1139445
000190 0b cf ac 40 22 97 03 c0 d0 99 d4 3f 00 91 af 40
       5.400274 -2.0560994 1.660944 5.48645
0001a0 44 6a 67 3f d1 47 45 40 22 25 3c bf 14 db d2 bf
       0.90396523 3.0825083 -0.7349416 -1.6473107
0001b0 84 62 4e c0 e6 58 68 bf 3a 97 ab be 37 f6 56 3f
       -3.224763 -0.9076065 -0.33513814 0.83969444
0001c0 f9 ef 02 be 3f 49 30 c1 0e bc 9a bf ee f2 e2 3e
       -0.12786855 -11.017882 -1.208864 0.44325966
0001d0 98 ba 99 c1 97 38 25 c1 6f 65 67 41 74 fd 8e 40
       -19.21611 -10.326316 14.462264 4.468439
0001e0 5d 83 61 c0 0d 38 8c c0 d8 c3 29 c0 0b 99 97 3f
       -3.5236428 -4.381842 -2.6525784 1.184358
0001f0 38 cb 91 3f 20 19 00 c0 72 73 7a be e5 c7 8b c0
       1.1390142 -2.0015335 -0.24458101 -4.368151
000200 e6 38 34 40 1d a8 99 3f 51 89 29 c0 c0 66 9b c0
       2.8159728 1.2004429 -2.6490061 -4.8562927
000210 78 54 b4 40 f7 ee 4a bf a4 8f 4d c0 b7 0b 4c be
       5.635311 -0.7927088 -3.2118921 -0.19926344
000220 33 52 9d be c5 2d a9 c0 08 98 90 40 cd 83 8e 3d
       -0.30726776 -5.286837 4.5185585 0.06958733
000230 69 89 80 be 9f 11 02 3f 71 8d 38 be e9 68 06 3f
       -0.25104836 0.5080814 -0.18022706 0.5250383
000240 66 6b 4d bf 5b cf c6 bf e3 b2 92 bf bd 6c 95 be
       -0.80242 -1.553203 -1.1460842 -0.29184523
000250 0e f7 d0 be 85 8d 85 3d 2c 2f 81 3f 0f f4 31 3f
       -0.40813488 0.06521133 1.0092521 0.6951303
000260 84 86 69 3f 5e 38 07 c0 82 2e 9e 3f 92 bf 5c bf
       0.9122088 -2.1128154 1.2357943 -0.86229813
000270 33 cb 1d 3f 9d 3b 3f 3c dc 2c 3c 3f a1 d4 4e bf
       0.6163818 0.011671928 0.7350595 -0.80793196
000280 b8 a1 76 3f 94 74 e3 3f 6e 66 20 be 1d 0b 22 c0
       0.96340513 1.7769952 -0.15664074 -2.5319283
000290 da 75 98 bf 23 72 bf 3e 1b bf 76 bf b0 0f e0 bd
       -1.1910965 0.37391767 -0.96385354 -0.10940492
0002a0 d7 09 a5 40 1a 68 bb 3e 4d e2 19 40 e8 20 15 3f
       5.157451 0.3660286 2.4044373 0.58253336
0002b0 7d a7 15 40 47 ef 0a be 43 a2 16 40 7f 1b ad 3f
       2.3383477 -0.1356784 2.3536537 1.3524016
0002c0 23 4f 02 c0 79 48 a1 bf fd e6 9e bf 3d a0 2c 3d
       -2.0360801 -1.2600242 -1.2414242 0.042145003
0002d0 69 fb 41 bf f0 28 95 3f 8a ca 25 40 ec ec f5 3f
       -0.75774246 1.1653118 2.590487 1.9212928
0002e0 3b 18 29 bf 1e bf 2f 3f c9 82 46 40 dd e7 70 3e
       -0.660526 0.68650997 3.1017325 0.23525949
0002f0 c4 3b f5 3e 26 64 53 c0 c6 1d 1a 40 c8 82 17 be
       0.4789716 -3.3029876 2.4080672 -0.14795983
000300 8d 55 54 bf 18 44 ff bf a3 b0 0e 3f ed 92 2c c0
       -0.8294304 -1.9942656 0.55738276 -2.6964676
000310 94 54 09 c0 08 8b 8c 3e 85 47 02 3f 87 bc bc bf
       -2.1457872 0.27449822 0.5089038 -1.4745034
000320 5c 43 b2 3f 98 3b 6c 3f 72 63 52 3f 41 c1 85 40
       1.3926806 0.9227843 0.8218299 4.1798406
000330 28 b2 01 bd 55 3a 2b bf f1 98 88 3f 03 3b 3d 40
       -0.031664044 -0.6688588 1.0671674 2.9567268
000340 bb a6 d8 be b0 56 07 3e d1 c4 a1 bf 3a f6 62 40
       -0.42314705 0.13216662 -1.2638189 3.5462785
000350 5c 7e bb bf c2 4a f2 3f 4f f5 6d 40 19 9a c3 3f
       -1.4647937 1.8929064 3.7180974 1.5281402
000360 40 03 fb be 40 98 8f 3e 39 c8 37 bf 09 ba b2 bc
       -0.49025917 0.28045845 -0.7178989 -0.021817224
000370 bf 61 d7 bd a3 54 d2 bf ce f2 49 40 aa 9c ab bf
       -0.105166905 -1.6432079 3.1554446 -1.3407185
000380 8d 7e c5 40 42 c8 31 41 a3 fa cf c0 49 52 e9 bf
       6.171698 11.111391 -6.4993453 -1.8228236
000390 3e 12 af bf 81 f9 19 bf 1a de ce 3f 63 88 df 3e
       -1.3677442 -0.6014634 1.616153 0.43658742
0003a0 7a 37 b0 40 2a 14 23 40 0d b5 4d c0 85 3d 51 41
       5.506772 2.5481057 -3.2141755 13.077519
0003b0 70 29 a6 3e cc dd 97 40 8d 2c 5d bf 02 7a 19 3f
       0.3245349 4.745825 -0.86396104 0.59951794
0003c0 a2 99 8d 40 34 16 2b 40 07 32 0b bf a4 71 a0 bf
       4.425004 2.6732302 -0.5437321 -1.253468
0003d0 19 2b a1 3e 56 51 0c 40 63 64 33 c0 1a f9 4c 40
       0.31478193 2.1924644 -2.803002 3.202704
0003e0 a5 d0 d4 3e 07 04 6c c0 9f 1d 33 c0 70 b8 9a 3e
       0.41565433 -3.6877458 -2.798683 0.3021884
0003f0 fe 08 8c 3f 06 30 fa bf 90 3d 3f c0 c8 90 8c be
       1.0940244 -1.9545906 -2.9881325 -0.2745421

base.mlp.fc1.0.bias f4 [64]
000000 9a fe 04 c0 81 ea ad c0 4f 13 be be ca b7 cb bf
       -2.0780396 -5.434876 -0.37124106 -1.5915463
000010 0b 29 71 c0 00 be d1 c0 e9 76 f8 3e 2f ee d4 3f
       -3.76813 -6.5544434 0.4852822 1.6635188
000020 93 f3 ab c0 f2 f3 a5 c0 79 ae 85 bf 9d ca fc 3f
       -5.373483 -5.1860285 -1.044387 1.9749333
000030 9e c8 b2 bf 1a 17 de bf 94 2a 88 c0 ab 9e 8c 40
       -1.3967474 -1.73508 -4.2551975 4.3943686
000040 16 a1 86 be 54 c5 25 c0 5c ef 3e c0 44 18 00 bf
       -0.26294774 -2.590169 -2.9833593 -0.50037026
000050 39 69 56 40 1b 55 88 c0 c9 07 06 40 2b 6d 11 3e
       3.3501723 -4.260389 2.0942252 0.142018
000060 c2 7c cc 3f 47 e2 36 c0 43 01 16 40 c1 69 bf 3f
       1.5975573 -2.8575609 2.343827 1.4954149
000070 f6 0e ce 3e 7e 0b e6 bf dd 26 81 bf 86 94 92 bd
       0.4024579 -1.7972257 -1.0089985 -0.07157235
000080 dd 86 91 c0 8c b2 b7 c0 e7 f6 8f 3e f1 d9 57 c0
       -4.547713 -5.7405453 0.2811806 -3.372677
000090 5a ad a5 3f 0e a4 3d bf 74 62 47 40 e3 bd b6 bf
       1.2943528 -0.7407845 3.115384 -1.4276699
0000a0 c0 c3 9e c0 82 2b c7 c0 c1 a5 a8 3f 7d 81 b5 3f
       -4.9613953 -6.224061 1.3175584 1.4180142
0000b0 5f a1 bb c0 6b 9c 2d 3f 2a 0f 7e c0 98 d9 8f 40
       -5.8634486 0.678168 -3.9696755 4.4953117
0000c0 ac aa 04 c0 04 ca b6 40 88 e6 5a bf ec 3e d1 c0
       -2.072917 5.71216 -0.8550801 -6.538931
0000d0 68 c2 3a c0 d9 d1 2a bf 16 70 e0 be fb e8 47 3f
       -2.9181156 -0.6672645 -0.43835515 0.78089875
0000e0 53 10 f4 bf af 80 f5 3f ec 37 9d c0 da 81 80 3f
       -1.9067482 1.9179896 -4.9130764 1.0039628
0000f0 8f 80 29 c0 d1 c4 5d 40 d7 85 6d 40 0a 52 b3 40
       -2.6484716 3.4651377 3.711294 5.6037645

base.mlp.fc1.2.weight f4 [64]
000000 7b 82 0e 41 35 41 6b 40 4c 1f 6a 40 26 00 ec 40
       8.906856 3.675855 3.6581602 7.375018
000010 0d c0 f0 bd 77 58 06 41 92 a5 fc 40 cd 67 47 40
       -0.11755381 8.396598 7.895211 3.1157105
000020 19 7e e0 40 8e b2 95 40 62 83 c0 40 7a f7 62 40
       7.015393 4.678046 6.016038 3.5463548
000030 87 54 9b 40 0f f8 9e 40 09 01 49 40 21 76 ec 40
       4.8540683 4.9677806 3.1406882 7.38942
000040 30 00 8e 40 6d 73 82 40 c1 2d c5 40 46 ba 86 40
       4.437523 4.07659 6.161835 4.2102385
000050 30 7a 4d 40 ce 3f 84 40 f3 4d 94 40 5d d9 62 40
       3.2105827 4.1327887 4.6345153 3.5445168
000060 49 49 81 40 ca b4 87 40 a6 9c 72 40 cb cb 7e 40
       4.040196 4.240819 3.790811 3.9811885
000070 1b 9a 3c 40 0e f5 50 40 94 d0 5f 40 25 b8 7a 40
       2.9469059 3.264957 3.4971056 3.9174893
000080 30 62 c6 40 e7 99 9f 40 43 82 78 40 5e 50 ff 40
       6.199486 4.987537 3.8829505 7.9785604
000090 ca 88 6b 40 26 fc c9 40 7d 8c 61 40 4f d1 cf 40
       3.680224 6.31203 3.5241997 6.4943004
0000a0 c4 c5 d0 40 24 89 90 40 d1 31 b8 40 f8 4a 6d 40
       6.5241413 4.516741 5.756081 3.7077007
0000b0 90 00 45 40 3d 0e 98 40 86 1b 95 40 8b f5 8c 40
       3.0781593 4.751738 4.65961 4.4049735
0000c0 cf 75 7f 40 84 34 e0 40 22 b0 4a 40 05 f5 09 41
       3.9915655 7.0064106 3.1670003 8.622319
0000d0 db 9b 32 41 9b df 9f 40 20 fc 6f 40 c7 4c da 40
       11.163051 4.9960456 3.7497635 6.821872
0000e0 01 ff 86 40 9f 22 8d 40 55 1b 54 40 e7 a7 da 40
       4.2186284 4.410476 3.3141682 6.832996
0000f0 82 47 a5 40 f6 76 8c 40 11 a6 c6 40 52 72 99 40
       5.164979 4.3895216 6.207772 4.795205

base.mlp.fc1.2.bias f4 [64]
000000 0b d2 6a 3f 00 86 68 3f bc 5b 6c 40 50 c0 d8 3f
       0.9172675 0.9082947 3.693099 1.6933689
000010 ba b1 c6 bd 23 19 73 40 d1 1e be 40 d4 6d f4 3e
       -0.097018674 3.7984092 5.941262 0.47740042
000020 e6 a2 dd 3f 8a 09 f3 3f fa 2f 8d 3f 5d f8 3a c0
       1.7315338 1.8987286 1.1030266 -2.921409
000030 ef 00 03 c0 2d 46 fc be d3 54 bd 40 f1 86 ab c0
       -2.046932 -0.4927229 5.9166045 -5.3602223
000040 fb 75 b1 be 60 5c 12 40 e5 18 86 c0 4e 4c 4e 3e
       -0.34660324 2.2868881 -4.190539 0.20146295
000050 34 b6 a0 bf e6 e0 d2 bf 3c 72 12 c0 ba 95 32 3e
       -1.2555604 -1.6474884 -2.2882223 0.17439929
000060 22 c7 ce 3d 71 3d 39 3f 7b de 1d c0 4e 4a 79 40
       0.10096575 0.7235938 -2.4667041 3.8951602
000070 07 c7 5b 40 00 7a 64 40 17 1b fe bf dd 77 01 3f
       3.4340227 3.5699463 -1.9852017 0.5057352
000080 0b f4 2b 40 11 fd d1 40 15 82 b4 be a8 58 8e 3f
       2.6867702 6.562142 -0.35255495 1.1120806
000090 74 b6 c2 3f 00 4c 79 40 ef 4f 31 c0 20 63 0c 40
       1.521193 3.8952637 -2.7705038 2.19355
0000a0 1e 39 82 be 7e 34 7c 40 4a 71 c0 40 ef 78 dc 40
       -0.25434202 3.9407039 6.013829 6.8897624
0000b0 32 c0 32 bf a7 25 98 be b7 e0 90 3f 6d 73 80 bf
       -0.69824517 -0.29716226 1.1318578 -1.0035225
0000c0 2b ea b7 3f 44 ea 21 c0 7e eb 40 bf 9f 25 f5 3f
       1.4368337 -2.5299234 -0.7535933 1.9152106
0000d0 aa fa 59 40 1a 14 91 40 23 f2 9a bf a0 c4 f9 bf
       3.4059243 4.533704 -1.2105144 -1.951313
0000e0 00 a5 ce be cc f6 3c bf d5 99 83 40 82 79 b3 40
       -0.4036026 -0.7381408 4.1125283 5.6085825
0000f0 70 2d c0 3e 1b cd 96 3f c5 53 91 40 2f 62 54 40
       0.37534666 1.1781343 4.541476 3.3184927

base.mlp.fc2.0.0.weight f4 [64, 64]
000000 8f d4 20 3f 21 86 63 40 9b 2e 9e 40 ae ff da 3f
       0.6282434 3.5550616 4.943189 1.7109277
000010 21 94 09 3e 48 1a 91 40 9d 31 a8 40 78 ba 1d 40
       0.13435413 4.534458 5.2560563 2.4645061
000020 93 23 75 40 f0 b3 81 c0 48 ec ab 3f 6c 76 1d c0
       3.8302963 -4.053215 1.3431482 -2.460353
000030 7c 5b 02 bf 42 a6 48 be be 4b 23 40 a8 11 63 bf
       -0.50920844 -0.19594672 2.551498 -0.88698816
000040 d3 e0 24 c0 50 77 e6 bf 7f 6a 72 c0 84 03 35 40
       -2.5762222 -1.8005161 -3.78775 2.8283396
000050 31 cc 36 40 27 d9 34 c0 7f ce 91 c0 1b e1 73 40
       2.8562129 -2.825754 -4.556457 3.8106143
000060 d5 bb 01 3f 6a 55 10 41 94 9f b4 3e 13 b5 c3 40
       0.50677234 9.020853 0.35277998 6.115854
000070 93 4b aa 40 0a 4d 08 c0 19 32 0c c0 bd 1b c8 3e
       5.3217254 -2.129702 -2.1905577 0.39083663
000080 2e 0b 86 40 2f dd e3 40 87 77 1b bf ea de f3 c0
       4.1888647 7.12075 -0.6072926 -7.620961
000090 f2 62 1d c0 e5 8a 58 c0 08 79 1b 3f 1e 0c b2 3e
       -2.4591641 -3.3834774 0.60731554 0.3477487
0000a0 dd 02 57 be 51 08 bf be ed 8d e6 3f 25 7d 59 40
       -0.20997186 -0.37311032 1.8012062 3.3982632
0000b0 f7 f9 a4 c0 16 8b a3 bf 6c cb dc 40 9a 70 5d be
       -5.1555133 -1.2776821 6.899832 -0.21624985
0000c0 bb f2 a4 40 b0 aa a1 bf c4 91 90 be 3b f1 0c 41
       5.15463 -1.2630215 -0.2823621 8.808894
0000d0 2a f7 3c 40 27 c2 23 c0 6d d9 28 bf 01 b0 3d 3e
       2.9525857 -2.558725 -0.65956765 0.18524171
0000e0 ce 10 64 3f 4d 7d 15 3f 65 e0 40 3e b2 44 3b 3f
       0.8908814 0.5839432 0.188356 0.73151696
0000f0 da 5e a2 3f 93 03 3b 40 50 0e 3d 40 d9 63 a5 bd
       1.2685196 2.9220932 2.9539986 -0.08075685
000100 7c 6c 64 3f 55 38 a2 40 21 b5 57 41 e3 74 81 40
       0.89228034 5.0693765 13.481721 4.0455184
000110 f7 f6 4d c0 b4 25 f6 3d 92 81 8c 40 ac 78 78 3f
       -3.2181985 0.1201891 4.3908167 0.9705913
000120 2b 0f 81 c0 52 dd b5 c0 cc d6 42 40 0f b7 8d c0
       -4.0331016 -5.6832666 3.0443602 -4.428596
000130 fa 32 fa bf 02 04 52 c0 0c 8c 58 3d b9 67 c0 3e
       -1.9546807 -3.2814946 0.052867934 0.37579134
000140 fe 7a ec c0 a3 0f d7 c0 f4 de 24 40 73 59 ab 3f
       -7.3900137 -6.720659 2.576108 1.3386673
000150 0f 07 6a c0 49 b5 01 c0 e3 13 40 c0 76 e8 48 bf
       -3.6566808 -2.0266898 -3.0012138 -0.7847971
000160 29 2a 9f bf f1 ef e5 40 21 da 0c bf e9 e9 4c c0
       -1.2434741 7.1855397 -0.5502034 -3.2017767
000170 84 02 d5 3f 6a 07 05 41 ef 8a 86 40 ba ef fb 40
       1.6641393 8.31431 4.2044597 7.8730135
000180 fc 67 a2 3f 45 2a fd 3e 05 41 3c 40 ea 64 07 40
       1.2687984 0.49446312 2.9414685 2.1155343
000190 f5 00 41 41 f6 1e 6c 3f a4 5d 85 3f 39 0c 8f bf
       12.062734 0.9223474 1.0419202 -1.1175605
0001a0 f3 39 e7 bf 60 d9 ba 40 23 50 14 41 f1 08 a0 40
       -1.806456 5.839035 9.269565 5.0010915
0001b0 78 00 13 bf 52 0d 9d 3f 5f fb 09 c0 33 bb da 40
       -0.5742259 1.226969 -2.1559675 6.8353515
0001c0 9c 34 77 bf 3a e1 c2 3f 3c 30 9f c0 be ca 25 c1
       -0.9656465 1.5224984 -4.974638 -10.361998
0001d0 11 ba 13 41 22 7a 40 40 a8 30 71 c0 92 1f b6 3f
       9.232926 3.0074544 -3.7685947 1.4228384
0001e0 39 4f 96 40 65 6b a8 40 6f f5 82 c0 6c 04 eb be
       4.6971707 5.2631097 -4.09246 -0.4590181
0001f0 fb 07 a1 c0 20 b6 5d 40 99 34 43 40 bb e7 a7 3f
       -5.032224 3.464241 3.0500853 1.3117594
000200 fa 11 b8 be 5b a2 71 3e 58 4a 4d 3f 5a 2f 3c 3e
       -0.35951215 0.2359709 0.80191565 0.18377438
000210 cf c7 71 3f e9 66 4c 40 45 11 9c 40 c6 d9 0b 3f
       0.9444551 3.1937811 4.877108 0.5462917
000220 86 fe ea bf 6a 6f 78 40 9b f0 df bf 04 87 0c 3f
       -1.8358924 3.8818002 -1.7495302 0.5489352
000230 85 29 2a 3e 74 78 76 c0 fc ec 59 c0 86 60 38 bf
       0.16617401 -3.8511019 -3.4050894 -0.72022283
000240 6d 84 93 40 82 57 45 40 ec 57 eb c0 ad 00 5a 3f
       4.6099153 3.083466 -7.3544827 0.8515728
000250 be 68 55 c0 c1 39 70 40 12 1e a1 40 da 27 20 c0
       -3.334518 3.753525 5.0349207 -2.5024323
000260 e0 95 de 3f f8 0d 70 40 ae b4 9e 40 e7 f5 81 3f
       1.7389488 3.7508526 4.9595556 1.0153168
000270 3f eb 35 3f f6 01 59 c0 47 a6 89 40 48 d9 89 3e
       0.7106208 -3.3907447 4.3015475 0.26923585
000280 51 a0 66 40 af f0 db 3e 6e 1f 28 40 8d b3 4a c0
       3.603535 0.42957065 2.6269183 -3.167209
000290 87 f9 04 c0 41 b5 84 be 92 41 a7 c0 eb b0 54 3f
       -2.07773 -0.25919536 -5.226754 0.83082455
0002a0 08 53 98 40 25 dc 66 c0 2b 27 4b c0 b6 89 13 3e
       4.7601357 -3.6071866 -3.1742656 0.14408001
0002b0 40 41 d5 3f 0c 4e 1d 40 22 9e ae be 08 90 a0 bf
       1.6660538 2.4578886 -0.3410502 -1.2543955
0002c0 a8 26 52 40 a7 1a ad 40 f9 8f c3 40 6f a6 6c 40
       3.2836094 5.4095035 6.111325 3.6976583
0002d0 69 c0 82 40 fd f1 a5 c0 d8 9d b5 3f ae 15 17 3e
       4.0859876 -5.1857896 1.4188795 0.14754364
0002e0 89 78 58 40 8e 70 e7 40 25 75 42 c0 df 83 6c c1
       3.382357 7.2324896 -3.0384 -14.782195
0002f0 9e db 31 bf 6f 47 e9 3f b0 ae b0 3e b3 fd 2e c0
       -0.69475734 1.8224925 0.34508276 -2.7342346
000300 64 d1 c2 bf 2b 10 d3 3f 96 5d 25 40 bb 31 fd 3f
       -1.5220151 1.6489309 2.583837 1.9780802
000310 95 65 3f bd 98 19 60 c0 e1 a4 09 40 aa 64 b1 bf
       -0.046727736 -3.501562 2.1506884 -1.3858845
000320 de 81 78 3f 75 7a 36 40 de a7 1d 40 56 a7 52 c0
       0.9707316 2.8512242 2.4633708 -3.2914634
000330 b8 69 2c 3f 8e 10 23 c0 dd e8 67 c0 99 20 e1 bf
       0.67348814 -2.5478854 -3.6235878 -1.7588073
000340 6e 08 62 c0 93 e4 0a 41 76 8a 1a c0 5f 10 c1 3f
       -3.5317645 8.680804 -2.414701 1.5083121
000350 92 a3 24 40 00 12 31 3f 38 e3 e4 40 33 e3 d3 bf
       2.5724835 0.6916809 7.1527367 -1.6553711
000360 7e 35 e3 3f 89 ee 1c 40 5b d0 4c bf 89 31 c5 3f
       1.77507 2.452059 -0.80005425 1.5405742
000370 f0 de 1f bf fa 84 04 41 a2 f8 d5 40 70 5c 26 40
       -0.6244955 8.282465 6.6866007 2.599392
000380 15 95 cf 40 01 4b 5c c0 8f 5c 0b bf 0a 3b 13 c1
       6.4869485 -3.4420779 -0.5443811 -9.201914
000390 73 9f 0d 40 0c ce 2f bf 2b ee d3 3f 99 27 83 c0
       2.212857 -0.6867378 1.6557058 -4.0985837
0003a0 19 46 f6 3e d4 60 4b 40 45 98 df bf 75 df 8d 3f
       0.48100355 3.177785 -1.7468344 1.1083819
0003b0 76 77 9e c0 41 ce 09 c0 0b 20 e1 c0 08 9e fe c0
       -4.9520826 -2.1532137 -7.0351615 -7.956791
0003c0 9c 0f 81 c0 3c 0a 86 40 d5 1a 1a c0 56 6e f2 bf
       -4.0331554 4.1887493 -2.4078877 -1.8939922
0003d0 28 8b 9c 40 a1 bf 22 40 95 68 58 bf 1f e9 ac bf
       4.891987 2.542946 -0.8453458 -1.3508643
0003e0 7a 2a 00 c0 2b c6 09 41 90 7f ad 3d f9 cf 05 c0
       -2.0025926 8.610881 0.08471596 -2.0908186
0003f0 2a 29 24 c1 13 46 77 40 26 50 81 bb b3 94 d4 bd
       -10.26005 3.863652 -0.003946322 -0.103799246

base.mlp.fc2.0.0.bias f4 [64]
000000 8e cf a6 be 0a 46 6e 40 31 3b b7 c0 ab ea 3d c0
       -0.32580227 3.7230248 -5.7259755 -2.967448
000010 0d c6 6b c0 19 db e6 c0 9d 5f 89 40 21 0d 44 40
       -3.683963 -7.2142453 4.2929215 3.0633013
000020 79 1f 73 c0 a0 0a 55 c0 94 c8 c4 3e 67 99 cd 3f
       -3.798796 -3.3287735 0.3843428 1.606244
000030 cd 1f f1 bf e8 af 26 40 1c ea ee 3f 86 8b 9b c0
       -1.883783 2.6044865 1.8665195 -4.8607817
000040 27 0a 81 bf c0 59 c4 3c 07 62 0b c0 de f4 3e 40
       -1.0081223 0.023968577 -2.177858 2.9836955
000050 2c 3d a9 c0 ee 3c 98 c0 84 3b 02 40 39 db 7d bf
       -5.2887173 -4.7574377 2.0348825 -0.9916263
000060 ad 99 24 c0 09 f2 47 3f 6f 05 13 40 9c 35 1a 3f
       -2.5718796 0.7810369 2.2972066 0.6023805
000070 e3 2f ec bf 52 a8 2d c0 b8 15 70 c0 12 a9 8c 3f
       -1.8452114 -2.7133985 -3.7513256 1.0989096
000080 02 c3 da 40 ba 57 da c0 52 f0 77 c0 23 b9 14 3f
       6.8363047 -6.823209 -3.874043 0.58094996
000090 14 7e 9a c0 02 b2 0b c0 56 ed 88 bf d1 ba 28 40
       -4.8278904 -2.1827397 -1.0697429 2.6364024
0000a0 5c b9 a0 3f c4 9e dd bf f1 a7 bb 3f d1 af c4 3f
       1.2556567 -1.7314076 1.4660627 1.5366155
0000b0 c8 42 03 40 ac 8b 2a 40 c1 9f 41 40 5c be 20 be
       2.050951 2.664775 3.0253756 -0.15697616
0000c0 71 5b 94 c0 17 2c 84 3f 9f c2 a1 c0 69 90 90 3f
       -4.6361623 1.0325955 -5.0550075 1.129407
0000d0 01 34 85 c0 c4 19 1b bf fa 5d 59 c0 db b0 1a bf
       -4.162598 -0.6058619 -3.3963609 -0.6042611
0000e0 dc 96 51 40 44 4a 7f 40 92 d3 8e c0 ce 72 36 3f
       3.2748327 3.9889078 -4.4633265 0.7126893
0000f0 4e b7 cd bf 13 17 37 40 6f 6f 0d 3f 9e 88 8a c0
       -1.6071565 2.8607833 0.5524816 -4.329177

base.mlp.fc2.0.2.weight f4 [64]
000000 4b 27 80 29 3f d8 ae bc a9 37 59 3f 05 df bf ba
       5.691158e-14 -0.021343349 0.84850556 -0.0014638609
000010 6e 4d 69 2c dd 9c f3 3f c9 d6 26 bc 5e 38 6d 3e
       3.3154274e-12 1.9032246 -0.010183045 0.23166034
000020 54 06 e9 3f ef f0 ab 3e 57 40 40 3e 75 5d 66 3e
       1.8205056 0.33582255 0.18774544 0.22496589
000030 3a d9 26 40 0d 2f a3 bd d4 25 e4 bc 1d d2 a4 3f
       2.6070085 -0.079679586 -0.02785007 1.2876621
000040 fd 19 6f bd 08 e2 ba a6 22 ea a0 3e 37 58 70 3d
       -0.058374394 -1.2967609e-15 0.3142863 0.05867788
000050 24 bf f4 3f 41 43 4f 3e 88 e9 2b 3b e4 40 78 be
       1.9120831 0.20240499 0.0026231725 -0.24243504
000060 00 ce 2c 39 d7 f8 e5 ba 9b 34 71 2d ed f6 d6 ba
       0.00016479939 -0.0017545474 1.3710945e-11 -0.0016400494
000070 02 5c 81 3e 12 f8 59 3e 1b f0 0d 40 3e a5 56 be
       0.2526551 0.21286038 2.2177799 -0.20961472
000080 5f 6c cc 38 b0 d8 f6 3f 2f f9 8c 3e 6c 68 a4 b0
       9.747664e-05 1.9284878 0.27533862 -1.1962249e-09
000090 b3 09 b4 3f 55 d3 7b 3e c3 34 80 3b 90 ed 8c b9
       1.406546 0.24592336 0.0039125397 -0.0002687988
0000a0 0d da a6 34 05 49 ed bd 70 d7 2a ac 05 84 be b9
       3.1078562e-07 -0.11586193 -2.4278045e-12 -0.00036337986
0000b0 44 a4 db 37 20 a2 05 3b 83 ef ee 3b ce 82 45 38
       2.6183327e-05 0.0020390823 0.0072917356 4.709028e-05
0000c0 97 ce 8b 3f 57 a2 80 38 4e 59 43 3b 72 f0 8a be
       1.0922421 6.133754e-05 0.0029807868 -0.2713657
0000d0 7b 07 15 40 65 05 a0 b5 61 8f 92 3d 22 77 29 b9
       2.3285816 -1.1922499e-06 0.071562536 -0.00016161476
0000e0 2c 81 10 3e b7 b9 a1 b9 84 2e c8 3f 59 2e cb bd
       0.14111775 -0.0003084668 1.5639195 -0.099209495
0000f0 cb 8b 12 3f 51 9a 01 ba 2d ac 90 ad 59 78 19 ba
       0.5724456 -0.00049439544 -1.6447366e-11 -0.000585442

base.mlp.fc2.0.2.bias f4 [64]
000000 ab f0 fe a8 3e e5 9e 3c ac 13 1d 3f 0c ab fb bb
       -2.8304038e-14 0.01939642 0.6135814 -0.0076803025
000010 b9 8b 07 ac 64 e3 b7 3f 2f bc 90 3c 13 01 48 bc
       -1.9262216e-12 1.4366269 0.017667858 -0.012207287
000020 5c 65 b1 3f b9 c8 7c 3e d3 2d 9c bd f7 55 03 bc
       1.3859057 0.24685945 -0.07625928 -0.008016101
000030 3f 45 e8 3f 8a 23 a5 3b 5a 20 d0 3c dd 69 4f 3f
       1.8146132 0.005039637 0.025406051 0.8102091
000040 e8 39 88 3b b8 ea 38 26 a1 ac 19 3e 47 2a 41 bd
       0.0041572936 6.4155927e-16 0.15007259 -0.04715946
000050 92 a3 ae 3f f4 a2 0f 3e 53 26 6d bc 85 1b af bd
       1.3643668 0.14027005 -0.014474469 -0.08550171
000060 6d 69 4a 39 06 5a 86 b9 e1 94 08 2c 36 2b ef 3b
       0.00019303495 -0.00025625544 1.9409407e-12 0.0072988523
000070 f5 8d 0d 3e ef dc 93 3d 8e f1 cf 3f 89 29 62 bd
       0.13823684 0.07219874 1.6245592 -0.055215392
000080 d8 7c 83 b9 c1 03 a9 3f 1f c6 33 3e 62 55 ca b0
       -0.00025079283 1.3204271 0.17556046 -1.4721702e-09
000090 3c 3d 6c 3f 7d 53 30 3e 81 b0 75 bb 49 4b c1 38
       0.92280936 0.17219348 -0.0037489238 9.21698e-05
0000a0 76 fd 96 b5 ad 69 51 bd ac c9 e9 2b a6 e6 b9 3a
       -1.1249638e-06 -0.05112617 1.6611621e-12 0.0014183118
0000b0 3f f5 0b b9 dc 6a c1 bb e2 74 d0 bb 61 a5 e6 36
       -0.00013347434 -0.005902631 -0.0063615898 6.873787e-06
0000c0 c4 bb 44 3f f9 99 29 b8 39 64 13 3b 6d 15 40 3d
       0.7684901 -4.0436138e-05 0.0022490157 0.046895433
0000d0 21 93 d9 3f f9 60 65 35 bd 49 5b 3d 92 84 bb 39
       1.6998025 8.545026e-07 0.05353712 0.00035766192
0000e0 13 89 bf bb 92 77 06 3a 36 9c 89 3f f6 d2 8b bc
       -0.005845198 0.00051295117 1.0750797 -0.017068367
0000f0 13 54 c7 3e df df 7a 3b 3f 03 16 2d bd d5 e6 b9
       0.3893133 0.003828041 8.527234e-12 -0.00044028266

v_out.weight f4 [1, 64]
000000 da a7 ec 28 3f af f1 bb 8e 42 e2 bd b9 b8 8f bc
       2.6274057e-14 -0.0073756273 -0.110478505 -0.017544137
000010 a5 63 44 ac f9 62 b3 bd b0 bb 47 bb bc 46 0f 3e
       -2.790859e-12 -0.08759112 -0.003047686 0.13991827
000020 cd d9 0e 3c ac 2c ad bc 04 c5 96 bd 17 b7 92 3d
       0.00871892 -0.021139465 -0.073617965 0.07163828
000030 92 91 90 bf 30 23 7b bc 13 b9 94 3c 7f bd 87 be
       -1.1294425 -0.015328214 0.018154657 -0.26511762
000040 0b cf 2c 3d 7f c5 45 a6 58 1a 3c 3e f6 d1 c1 3c
       0.04218964 -6.861576e-16 0.18369424 0.023659687
000050 51 c2 15 bf a4 f1 98 3d 69 a8 b1 3a fb f6 21 be
       -0.5849963 0.07467964 0.0013554218 -0.15816872
000060 a0 a1 bf b9 42 b4 52 3a e0 3a 1f ad f4 8a c7 b6
       -0.0003655078 0.0008037725 -9.0511765e-12 -5.9468384e-06
000070 b6 ac 2e 3e 12 55 ad bd 4b 06 e5 be f8 45 0a 3d
       0.17058071 -0.084634915 -0.44731364 0.033758134
000080 b3 74 fb b7 8a e4 d0 be f5 fc 22 bd 8c 4f 06 30
       -2.9975874e-05 -0.4079936 -0.03979202 4.886196e-10
000090 70 b4 99 be 38 29 5e bd 1d b7 6b b9 ed 06 dc b8
       -0.30020475 -0.054238528 -0.00022479561 -0.000104917075
0000a0 ed eb f8 33 cd 95 4d bd f2 e6 f3 2c c7 f6 30 b9
       1.15913146e-07 -0.05019169 6.9321155e-12 -0.000168766
0000b0 32 30 d9 b7 c4 a9 ad 38 9d 6a 5d bb 8e cc 38 b7
       -2.5890859e-05 8.280904e-05 -0.003378547 -1.1014881e-05
0000c0 97 25 e1 bd 34 b6 a6 b8 5a 55 48 b7 e3 52 16 3e
       -0.10993498 -7.949435e-05 -1.1940801e-05 0.14680056
0000d0 e4 1f 08 bf c9 5f f2 34 fc 40 fc ba c7 ea 35 b8
       -0.5317366 4.5145705e-07 -0.0019245441 -4.3372416e-05
0000e0 11 f7 d1 3d 0e 72 e3 b8 4a 3d 49 bd c3 c0 fd bc
       0.10252202 -0.00010845448 -0.049130715 -0.030975705
0000f0 d4 bf b2 bd cd c8 75 ba f2 cd fa ac a4 85 76 35
       -0.087279946 -0.000937593 -7.128292e-12 9.1836614e-07
