ami_mujoco/ckpt/mujoco/Humanoid-v2_17x1/victim/actor.pt (torch, 30718 bytes, 11 tensors)

base.feature_norm.weight f4 [32]
0	0x3f8933a1	1.0718881
1	0x3f84d59e	1.0377691
2	0x3f7e7e49	0.99411446
3	0x3f7fd6c6	0.99937093
4	0x3f7f5899	0.99744564
5	0x3f869cf5	1.051665
6	0x3f83047a	1.0235741
7	0x3f7f95dd	0.9983805
8	0x3f7aff62	0.98045933
9	0x3f7e12a8	0.9924722
10	0x3f7f50d3	0.997327
11	0x3f812555	1.0089518
12	0x3f7ffafc	0.99992347
13	0x3f820258	1.0156965
14	0x3f828827	1.01978
15	0x3f812b65	1.0091368
16	0x3f7c9bb5	0.9867509
17	0x3f80afef	1.0053691
18	0x3f7c1e92	0.98484147
19	0x3f703c7d	0.938423
20	0x3f80754a	1.0035794
21	0x3f82ee24	1.0228925
22	0x3f7b0644	0.98056436
23	0x3f81a597	1.0128659
24	0x3f80cd3e	1.0062635
25	0x3f82482e	1.0178277
26	0x3f82220d	1.0166641
27	0x3f81729b	1.01131
28	0x3f7fdd61	0.9994717
29	0x3f8031a5	1.001515
30	0x3f81eadb	1.0149797
31	0x3f7d3e7b	0.9892346

base.feature_norm.bias f4 [32]
0	0x3c37cece	0.01121874
1	0xbc4ae851	-0.01238449
2	0xbc1395a4	-0.009007845
3	0xbb419838	-0.0029540192
4	0xbc185e0b	-0.009299765
5	0xbc7087ac	-0.014680784
6	0x3b39e2f3	0.0028364032
7	0x3b84b3a3	0.0040497347
8	0x3cc35aad	0.023846949
9	0xbba0223a	-0.0048868926
10	0x3c0149c5	0.007891123
11	0xbbee05eb	-0.007263889
12	0xbc5d172b	-0.013494293
13	0xbb4bdf73	-0.0031108528
14	0xbc90f00f	-0.017692594
15	0xbc1145f1	-0.008866773
16	0x3c828be1	0.01593584
17	0xbab4ce47	-0.0013794386
18	0xbc76983b	-0.015050943
19	0xbd2952e0	-0.0413388
20	0x3c1fe4a3	0.009759101
21	0xbbb3c62b	-0.00548627
22	0xb99426cd	-0.0002825767
23	0x3a48877f	0.0007649585
24	0x3b1b220a	0.0023671412
25	0x39b8e7cf	0.00035267926
26	0xbc721bab	-0.014777104
27	0xbc69b59e	-0.014264492
28	0x3b0e5676	0.0021719015
29	0xbbdaa22c	-0.0066721644
30	0xbbdcacfe	-0.0067344895
31	0x3bc5843b	0.006027726

base.mlp.fc1.0.weight f4 [64, 32]
0	0xbe7f07d8	-0.24905336
1	0xbe866be1	-0.2625418
2	0x3e060eef	0.13091634
3	0xbe031446	-0.12800702
4	0xbc481d8b	-0.012214075
5	0x3e17f558	0.14839685
6	0x3e9cd854	0.30633795
7	0x3d0613a3	0.03273357
8	0x3cbd7f5a	0.023132015
9	0xbeb803a4	-0.35940278
10	0x3e0dfdd6	0.13866362
11	0x3d967e7a	0.07348342
12	0x3d57fdfa	0.052732445
13	0xbe8a869d	-0.27055827
14	0xbe2bd590	-0.16780686
15	0xbe8024d6	-0.25028104
16	0x3dfe9519	0.12430782
17	0x3b34ee1d	0.0027607747
18	0x3e967658	0.29387164
19	0x3d4d900d	0.050186206
20	0x3c8f94bd	0.017526979
21	0x3e79b776	0.24386391
22	0xbb8df306	-0.004331949
23	0xbba147ea	-0.004921903
24	0xbe5b3d97	-0.21410213
25	0xbe1421b6	-0.14465985
26	0x3b3219ed	0.0027176098
27	0xbd0698f6	-0.03286072
28	0x3d67d1bb	0.0565965
29	0xbe951bca	-0.29122764
30	0x3e0e7393	0.13911276
31	0x3e22dc13	0.15904264
32	0x3d98fd35	0.074701704
33	0xbe3ce5aa	-0.18446985
34	0xbe2f12de	-0.17097041
35	0x3e3fc992	0.18729237
36	0x3d4f147d	0.05055665
37	0x3e17424c	0.14771384
38	0xbe621b23	-0.22080664
39	0xbe291a80	-0.16514015
40	0xbe0683fe	-0.13136289
41	0xbdbc2ca6	-0.091882035
42	0xbdf760e5	-0.12079028
43	0x3d7ee0c6	0.06222608
44	0xbda38a2f	-0.07985341
45	0x3d0d3a3c	0.034479365
46	0x3ea2b66b	0.317798
47	0x3eb34366	0.35012358
48	0xbe92017e	-0.28516763
49	0x3e289713	0.1646388
50	0xbd1e1d75	-0.03860231
51	0x3d3efafd	0.04662608
52	0xbd8e371c	-0.06944105
53	0xbca90bed	-0.02063557
54	0xbe832675	-0.25615278
55	0x3dbe2f4f	0.09286367
56	0x3e2f1f18	0.17101705
57	0xbd572094	-0.052521303
58	0x3d5867da	0.052833416
59	0x3e0dfeb0	0.13866687
60	0x3d01ab23	0.03165735
61	0xbd954d59	-0.072901435
62	0x3de9ef3d	0.11422584
63	0xba717990	-0.00092115346
64	0xbbacc696	-0.0052726967
65	0x3e39c374	0.18140966
66	0xbe06a5ee	-0.13149235
67	0xbe3a1b8c	-0.18174571
68	0xbe4eec8f	-0.20207427
69	0xbe0de98e	-0.13858625
70	0xbd81f5d2	-0.06345715
71	0xbba7cc74	-0.0051208083
72	0x3ec44212	0.38331658
73	0xbdddb61f	-0.108257525
74	0xbe3b48fc	-0.1828956
75	0xbd68a5b8	-0.056798667
76	0xbe0cad83	-0.13738064
77	0x3e4004ba	0.18751803
78	0x3eb4b25a	0.3529232
79	0xbc085cf0	-0.008322939
80	0xbd51aa69	-0.051187906
81	0xbd6d54cc	-0.057942197
82	0x3dfcfea4	0.12353256
83	0xbe2e467b	-0.17019074
84	0x3e7722c5	0.24134357
85	0x3e206d39	0.15666665
86	0x3e38af11	0.18035533
87	0x3df953eb	0.12174209
88	0xbe2596f6	-0.16170868
89	0xbe2881f8	-0.16455829
90	0xbd911919	-0.07084865
91	0xbeb783e7	-0.3584282
92	0xbd9a3a46	-0.07530646
93	0xbe753257	-0.23944984
94	0x3dffe115	0.12494103
95	0xbdfa7b09	-0.12230498
96	0x3e198574	0.14992315
97	0x3cdaa5d1	0.026690396
98	0x3d55b2f4	0.052172616
99	0x3da0243a	0.0781941
100	0x3e9eb3a5	0.30996433
101	0xbdfb2070	-0.12262046
102	0xbeeb95f0	-0.4601283
103	0xbe18a725	-0.1490751
104	0xbd097341	-0.03355718
105	0x3d09e74e	0.033667855
106	0x3e7e69ea	0.2484509
107	0xbcfa757d	-0.0305736
108	0xbe8cf8bc	-0.2753352
109	0x3c0f7056	0.00875481
110	0x3e6762b6	0.22596249
111	0x3d2edd4c	0.042691514
112	0xbc8450cf	-0.016151814
113	0xbd924587	-0.071421675
114	0x3eca2444	0.39480793
115	0x3e4de921	0.20108463
116	0x3ebbad3b	0.36655602
117	0xbd9e0e13	-0.07717528
118	0x3d697131	0.056992713
119	0xbdd3d880	-0.103440285
120	0xbdeb2bfb	-0.11482998
121	0xbdc2a894	-0.0950481
122	0xbdc6771f	-0.09690689
123	0x3db34798	0.0875389
124	0xbda9646d	-0.08271108
125	0xbd03c349	-0.03216866
126	0x3d0ec92b	0.034859817
127	0xbe566a11	-0.20938899
128	0xbe012a3f	-0.12613772
129	0x3cb5e90d	0.022205854
130	0xbdc3dffa	-0.095642045
131	0x3dff4463	0.124642156
132	0x3e0552cb	0.13019864
133	0x3e106080	0.14099312
134	0xbe3db0b3	-0.18524437
135	0xbe1e755d	-0.15474458
136	0xbc4b840b	-0.012421618
137	0x3dbc1624	0.091839105
138	0xbc9bb297	-0.019006057
139	0xbd49e266	-0.049288176
140	0xbe2e91ca	-0.17047802
141	0xbe30f922	-0.17282537
142	0xbca4081f	-0.020023404
143	0x3c1f4f79	0.009723538
144	0x3dc48135	0.09594957
145	0x3e0a01bb	0.13477223
146	0xbe09a063	-0.13440089
147	0x3e1f7d50	0.15575147
148	0xbe95e97d	-0.292797
149	0x3d49f1d4	0.04930289
150	0x3effe8f6	0.49982423
151	0xbdd40a21	-0.103534944
152	0xbec63281	-0.38710406
153	0x3a85f05c	0.0010218727
154	0xbe1bf043	-0.15228371
155	0xbe3aa2d6	-0.1822618
156	0x3b1f15bc	0.002427443
157	0x3e00ab5a	0.12565365
158	0xbe5b486e	-0.21414348
159	0xbd4bd5cc	-0.04976444
160	0xbddb69ac	-0.10713515
161	0xbe90001d	-0.28125086
162	0xbe59f9a8	-0.21286643
163	0xbe82b2b5	-0.25526968
164	0xbe015fdf	-0.12634228
165	0x3e26b37f	0.1627941
166	0x3e70ea88	0.23526967
167	0xbd8f589e	-0.06999324
168	0xbe805cbf	-0.2507076
169	0x3e3d01e8	0.18457758
170	0x3e41c339	0.18922128
171	0x3d33b2b5	0.0438716
172	0xbe02564e	-0.12728235
173	0x3d8a00bf	0.067384236
174	0x3dbc6bcf	0.0920025
175	0xbe0cf1b8	-0.13764083
176	0xbe1b650c	-0.15175265
177	0xbe4a53e1	-0.1975856
178	0x3ddccac0	0.10780859
179	0x3e5cf951	0.21579482
180	0xbe62ff5d	-0.22167726
181	0x3e56d864	0.20980984
182	0xbd3ae830	-0.045631588
183	0xbe01b551	-0.12666823
184	0xbd416892	-0.047218867
185	0xbdafffcf	-0.085937135
186	0xbcfd888f	-0.030948905
187	0x3e1cb171	0.15302064
188	0x3eb3ce26	0.35118216
189	0xbce167e3	-0.027515357
190	0x3d772a5f	0.060343143
191	0xbdd4a539	-0.10383076
192	0xbbe92f0e	-0.007116205
193	0x3d6bea00	0.057596207
194	0xbe119020	-0.14215136
195	0x3d7d694b	0.061867993
196	0xbe7c6507	-0.24647914
197	0xbe051291	-0.12995364
198	0xbd5bf483	-0.05369998
199	0xbeb2c5c1	-0.349165
200	0xbb0e070f	-0.0021671688
201	0xbd6f1c7d	-0.058376778
202	0xbe8f278e	-0.27959865
203	0x3de0cecd	0.10976944
204	0xbe2b51d6	-0.16730437
205	0x3e5cf899	0.21579207
206	0x3e831459	0.25601462
207	0x3e4360ea	0.19079939
208	0xbe0f1b2d	-0.1397521
209	0xbe8e51bb	-0.2779673
210	0xbeaa028b	-0.33205065
211	0xbce9ca7f	-0.02853894
212	0xbddddcbd	-0.10833118
213	0x3e212d01	0.15739824
214	0xbde6aa60	-0.11262965
215	0x3d3154d3	0.043293785
216	0xbd0eb852	-0.03484375
217	0xbe9c6603	-0.3054658
218	0xbe22cb3a	-0.15897837
219	0x3e2e801f	0.17041062
220	0xbce3b058	-0.027794048
221	0x3e36a99d	0.1783814
222	0xbea7d960	-0.3278303
223	0x3e3470cd	0.17621155
224	0xbe4262ea	-0.18983045
225	0x3ee90afa	0.45516187
226	0xbe0638bd	-0.13107581
227	0xbdb9b40b	-0.090675436
228	0x3d80e3d4	0.06293455
229	0xbcad9f31	-0.021194072
230	0xbc8b153c	-0.016977899
231	0xbe9cae5c	-0.30601776
232	0xbca79fa6	-0.020461868
233	0xbe253921	-0.16135074
234	0xbe1c2212	-0.15247372
235	0x3e23c497	0.15992962
236	0x3d2c3bf4	0.042049363
237	0x3e915694	0.28386366
238	0xbde3bbe3	-0.11119821
239	0xbe990ff1	-0.29894975
240	0xbe62b6c5	-0.22140034
241	0xbcaafee0	-0.020873487
242	0x3d95f3db	0.07321902
243	0x3e34f25a	0.17670575
244	0x3dc8bb8a	0.09801395
245	0xbe21de37	-0.15807424
246	0xbe2c505b	-0.16827528
247	0xbd7bff29	-0.061522637
248	0x3da70012	0.0815431
249	0x3d49fdcc	0.049314305
250	0xb9fa9434	-0.00047794136
251	0x3dbe11f7	0.0928077
252	0x3ee58d62	0.4483443
253	0xbd10c059	-0.035339687
254	0x3e501e40	0.2032404
255	0x3d4c33d4	0.049854115

base.mlp.fc1.0.bias f4 [64]
0	0xbbe7a051	-0.0070686718
1	0xbcb9e436	-0.022691827
2	0x3cb8110a	0.022469062
3	0xbc877d36	-0.016539197
4	0xbb90515d	-0.0044042305
5	0xbbff297b	-0.0077869273
6	0xbb1a4d42	-0.0023544584
7	0xbcec5832	-0.028850649
8	0xbb41e08e	-0.0029583308
9	0x3c835875	0.01603339
10	0x3ccfd016	0.025367778
11	0xbbb6a800	-0.0055742264
12	0xbcfc3c90	-0.030790597
13	0xbb1f290f	-0.0024285947
14	0xbbec9380	-0.007219732
15	0xbc11ff6d	-0.008910996
16	0x3ce82828	0.02833946
17	0xbbaa866d	-0.005204013
18	0xbb60fccd	-0.0034330369
19	0xbbd75199	-0.0065710065
20	0x3c8e78af	0.01739153
21	0xbc1f96c3	-0.009740534
22	0xbc88687c	-0.016651385
23	0xbcd2ad19	-0.025717305
24	0x3b636d78	0.00347027
25	0xbc329eca	-0.010902116
26	0xbbcf7954	-0.006331602
27	0xbb9e8e94	-0.004838774
28	0x3c94c74d	0.01816144
29	0x3d2f5aef	0.04281133
30	0xbc1ca37d	-0.009560463
31	0x3932d6ca	0.00017055418
32	0x3b8f2c80	0.0043693185
33	0x3ba6cce5	0.0050903433
34	0x3cf99330	0.030465692
35	0x3cbd0e70	0.023078173
36	0xbb2e16e4	-0.0026563937
37	0xbd11dd48	-0.03561142
38	0x3b8bf697	0.004271339
39	0xbc8e587d	-0.017376179
40	0xbcbdef38	-0.023185357
41	0x3ba1f93a	0.00494304
42	0x3c05ca59	0.008165919
43	0x3c796bf1	0.015223489
44	0xbb098b0a	-0.0020987415
45	0x3c827590	0.015925199
46	0xbbe3e226	-0.006954449
47	0x3c5ead7d	0.0135911675
48	0xbc3216e3	-0.010869714
49	0x3b2caff2	0.0026349989
50	0xbcfc7cb8	-0.03082119
51	0xbb1e70da	-0.0024176151
52	0xbc83f8cc	-0.016109847
53	0x3bd39a27	0.0064575854
54	0x3c78694f	0.015161826
55	0x3b706331	0.0036680216
56	0x3bd5fe59	0.0065305647
57	0x3c4977a6	0.012296593
58	0xbcc38d8a	-0.023871202
59	0xba350f32	-0.00069068663
60	0x3c2dd7dd	0.010610548
61	0xbabd9769	-0.0014464679
62	0xba757ae4	-0.00093643204
63	0x3c140c1f	0.009036093

base.mlp.fc1.2.weight f4 [64]
0	0x3f8287cf	1.0197695
1	0x3f815bb4	1.010611
2	0x3f7bf3ef	0.9841909
3	0x3f7d0002	0.98828137
4	0x3f7bfe70	0.98435116
5	0x3f7974f3	0.97444075
6	0x3f7e3af9	0.99308735
7	0x3f798a98	0.974771
8	0x3f80564a	1.0026333
9	0x3f844d82	1.0336154
10	0x3f7fe895	0.99964267
11	0x3f7ef753	0.99596137
12	0x3f78cb9e	0.97185695
13	0x3f80eb0a	1.0071728
14	0x3f7ae2f2	0.9800254
15	0x3f8173d0	1.0113468
16	0x3f7ebb3c	0.99504447
17	0x3f815f5e	1.0107229
18	0x3f8171c7	1.0112847
19	0x3f7c11c3	0.984646
20	0x3f79fc89	0.97650963
21	0x3f7b4209	0.98147637
22	0x3f7b08c6	0.9806026
23	0x3f7b2c82	0.9811479
24	0x3f7c19e3	0.98477
25	0x3f801801	1.0007325
26	0x3f81e93d	1.0149304
27	0x3f8161de	1.0107992
28	0x3f8259ad	1.0183617
29	0x3f83f431	1.0308896
30	0x3f7aa4c5	0.9790767
31	0x3f7f6222	0.99759114
32	0x3f809acb	1.0047239
33	0x3f80adcd	1.005304
34	0x3f81edc7	1.0150689
35	0x3f801243	1.0005573
36	0x3f7f1522	0.9964162
37	0x3f82911a	1.0200531
38	0x3f805202	1.0025027
39	0x3f7ee6bb	0.99570817
40	0x3f7adaed	0.97990304
41	0x3f8629ef	1.0481547
42	0x3f78f9fd	0.9725645
43	0x3f7c5f6e	0.98583114
44	0x3f7a7e9b	0.97849435
45	0x3f7ff50c	0.99983287
46	0x3f7c6c9f	0.9860324
47	0x3f83b94f	1.0290927
48	0x3f778c70	0.96698666
49	0x3f802529	1.001134
50	0x3f7d8b62	0.99040806
51	0x3f7e818d	0.9941643
52	0x3f810d6a	1.0082219
53	0x3f7b57e6	0.98181
54	0x3f847654	1.0348611
55	0x3f840e55	1.0316874
56	0x3f7c5601	0.9856873
57	0x3f7ce64e	0.9878892
58	0x3f85c8e5	1.0451933
59	0x3f82a4bf	1.0206527
60	0x3f80c4b5	1.006003
61	0x3f7d7887	0.99012035
62	0x3f7cbbfa	0.9872433
63	0x3f807798	1.0036497

base.mlp.fc1.2.bias f4 [64]
0	0xbb94b41c	-0.0045380723
1	0xbcafacf8	-0.021444783
2	0x3d34883a	0.04407523
3	0xbbfddc06	-0.007747176
4	0x3a15a6ba	0.0005708743
5	0x3bc55d97	0.0060231197
6	0x3befeb0f	0.0073217223
7	0xbcf05ed7	-0.029342098
8	0x3ba05d51	0.0048939367
9	0x3bed0a42	0.007233889
10	0x3c92b2fe	0.017907616
11	0x3b2ee254	0.0026685195
12	0xbbc09660	-0.005877301
13	0xbbfe7122	-0.0077649513
14	0xbc25b2d5	-0.010113438
15	0xbc200c6e	-0.0097685885
16	0x3c21337a	0.009838933
17	0xbbe42be6	-0.006963241
18	0x3a19d64f	0.0005868421
19	0x3c8adfca	0.016952414
20	0x3cf481f7	0.029847128
21	0x3b972f2f	0.004613779
22	0x3bf1c090	0.0073776916
23	0x3c168b2a	0.009188453
24	0x3c369177	0.01114308
25	0xbbac55e6	-0.0052592633
26	0xbc46ef0e	-0.012141956
27	0xbbc2755e	-0.0059344014
28	0xbb0851e9	-0.0020800775
29	0x3d07430f	0.033022936
30	0xba945385	-0.0011316395
31	0x3c09fd29	0.0084221745
32	0x3a8d9600	0.001080215
33	0x3c65f21b	0.014034773
34	0x3c0081fd	0.007843492
35	0x3b8f9b4f	0.004382528
36	0xbc007eee	-0.007842762
37	0xbd252625	-0.04031958
38	0x3a5f9d0f	0.00085301785
39	0xbbeea754	-0.0072831307
40	0xbcc0d7e9	-0.023540454
41	0xbc0b8e35	-0.0085177915
42	0x3ca09f87	0.019607319
43	0x3cc4e631	0.024035545
44	0xbb8dde1c	-0.004329456
45	0x3cb40966	0.021977138
46	0x3c2491bd	0.010044512
47	0xbc78d7a6	-0.015188133
48	0x3d11abbb	0.035564166
49	0x3af33a1a	0.0018556744
50	0xbba38d46	-0.0049912063
51	0x3bcb1b13	0.006198296
52	0xbc89af2d	-0.016807163
53	0x3ce3516e	0.02774879
54	0xbc9401d5	-0.01806728
55	0x3b32a711	0.0027260224
56	0x3b8c5922	0.0042830864
57	0x3c284ae5	0.0102717625
58	0xbd5ada20	-0.053430676
59	0xbc2e0dd5	-0.010623415
60	0x3c6a01b1	0.01428263
61	0x3bbf06bf	0.0058296616
62	0x3beddaca	0.0072587477
63	0x3b527407	0.0032112615

base.mlp.fc2.0.0.weight f4 [64, 64]
0	0xbd93c1be	-0.07214688
1	0xbe38d67c	-0.1805057
2	0xbdb28c06	-0.087181136
3	0x3dd54d09	0.10415084
4	0x3d4c5170	0.049882352
5	0xbe939fef	-0.28832957
6	0x3d244fd2	0.040115185
7	0x3c4a21da	0.012337172
8	0xbedb9284	-0.4288522
9	0x3d8e61a6	0.06952219
10	0xbe5f900a	-0.2183229
11	0xbdcc553d	-0.099771954
12	0xbd7bccc5	-0.06147458
13	0xbdbfdfb6	-0.09368841
14	0xbe4a7ea0	-0.19774866
15	0x3dda8de9	0.106715985
16	0xbda1ce4f	-0.07900678
17	0x3d8c5499	0.06852073
18	0xbda11844	-0.078659564
19	0xbe012551	-0.12611891
20	0xbd1c9952	-0.038232155
21	0x3ea181c7	0.31544325
22	0xbe516288	-0.20447743
23	0x3e3c49e8	0.18387568
24	0x3e379060	0.17926168
25	0xbd774dc5	-0.0603769
26	0xbe1831a7	-0.14862691
27	0xbe4e2ecf	-0.20135044
28	0xbe54fce5	-0.20799597
29	0xbd9f4ee9	-0.07778723
30	0xbe640b75	-0.22269996
31	0xbde67261	-0.11252285
32	0xbdb3991b	-0.08769437
33	0xbe633fa9	-0.22192253
34	0x3e28bee2	0.16479066
35	0xbe6e4fe9	-0.23272671
36	0x3e91776a	0.28411418
37	0x3d4c2b74	0.049846128
38	0xbd25140d	-0.040302325
39	0x3e8857eb	0.26629576
40	0xbe653b48	-0.22385895
41	0xbe22d1fa	-0.15900412
42	0xbd97d83a	-0.07414289
43	0xbe498c28	-0.19682372
44	0x3d0ec97e	0.034860127
45	0x3d83bc55	0.06432406
46	0x3d1c1d44	0.038113847
47	0xbe8b4252	-0.27199036
48	0x3ad44a2a	0.0016196419
49	0x3f0e9221	0.55691725
50	0xbc9f991d	-0.01948219
51	0x3e3a2425	0.1817785
52	0x3d466f77	0.048446145
53	0x3d86da4a	0.06584604
54	0x3e12ab6f	0.14323209
55	0x3e232fb4	0.15936166
56	0x3e2acc16	0.16679415
57	0xbd751d3b	-0.05984233
58	0x3c7defd3	0.015499073
59	0xbe702c64	-0.23454434
60	0x3eba31bf	0.36366078
61	0x3e809f90	0.25121737
62	0xbe1206f8	-0.14260471
63	0xbd04a4eb	-0.03238384
64	0x3e769a50	0.24082303
65	0x3e5e0b42	0.21683982
66	0xbcbd2a46	-0.023091447
67	0xbe37af59	-0.17937984
68	0x3de40a6e	0.11134802
69	0xbe089c04	-0.13340765
70	0xbe172596	-0.14760432
71	0xbce59404	-0.02802468
72	0x3e9581c1	0.29200557
73	0x3cf4b616	0.029871982
74	0xbde63773	-0.11241045
75	0x3d4f0eff	0.05055141
76	0xbe8915e8	-0.26774526
77	0x3e691454	0.22761661
78	0x3d9dfca5	0.07714204
79	0xbe9e3b35	-0.30904546
80	0x3d93b539	0.072123
81	0x3cb172d8	0.021661207
82	0xbb9bd9ba	-0.0047561796
83	0xbe01e8e3	-0.12686495
84	0x3c45f82a	0.012083093
85	0x3d5b2e9e	0.053511254
86	0xbdb403fc	-0.087898225
87	0x3de9aeeb	0.11410316
88	0xbc8d36e0	-0.01723808
89	0x3e254e13	0.16143064
90	0x3e3f575c	0.18685669
91	0x3dacfd7b	0.08446785
92	0xbe8de052	-0.27710205
93	0x3dcb7234	0.09933892
94	0xbe8cf5b0	-0.27531195
95	0x3e33b082	0.17547801
96	0xbdf04a20	-0.11732888
97	0xbd493f8a	-0.04913286
98	0x3dc245be	0.094859585
99	0x3d3fd82e	0.046837024
100	0x3e100ea0	0.14068079
101	0xbe821dae	-0.2541327
102	0xbc8dc02c	-0.017303549
103	0x3dac1ee7	0.08404332
104	0x3ed3d6eb	0.41374907
105	0xbec6e467	-0.38846132
106	0xbe3e2b05	-0.18571098
107	0x3e1cbf8b	0.15307443
108	0x3e56836f	0.20948575
109	0xbed032aa	-0.40663654
110	0xbcd7924f	-0.026314883
111	0xbd92ed3b	-0.07174154
112	0xbc90e029	-0.017685013
113	0xbd87347d	-0.06601808
114	0x3e8a5f19	0.2702568
115	0x3d077e1e	0.03307926
116	0xbd5c681b	-0.05381022
117	0x3e42b84a	0.19015613
118	0x3e150417	0.14552341
119	0x3eae65dd	0.3406209
120	0xbe9c5f13	-0.30541286
121	0x3d5c45e6	0.053777598
122	0xbebb95c1	-0.3663769
123	0xbc76ffeb	-0.015075664
124	0x3ddc4cb8	0.107568204
125	0x3d713f8f	0.058898505
126	0x3e2fa08b	0.17151086
127	0xbca0fa43	-0.019650584
128	0xbe9e4de7	-0.3091881
129	0x3ec1a2dd	0.37819567
130	0xbd83f9f0	-0.06444156
131	0xbec3a080	-0.3820839
132	0x3c51f895	0.012815614
133	0xbd250cef	-0.040295538
134	0x3dd889af	0.10573136
135	0xbe127ea1	-0.14306118
136	0xbd99951e	-0.07499145
137	0xbe80799b	-0.25092778
138	0x3d355445	0.04426982
139	0xbc643f75	-0.013931145
140	0xbe070863	-0.13186793
141	0xbcd16e30	-0.025565237
142	0xbe100b28	-0.14066756
143	0xbd80b1ba	-0.06283899
144	0x3b3d7df8	0.0028914195
145	0xbe5666b9	-0.20937623
146	0xbe92bbef	-0.28659007
147	0xbd2ab01e	-0.041671865
148	0x3c51c257	0.012802682
149	0xbc77d488	-0.015126355
150	0xbe278779	-0.16360272
151	0xbd83629a	-0.06415291
152	0xbe16cea1	-0.1472726
153	0x3cffdba4	0.031232662
154	0xbf037d1d	-0.5136278
155	0x3eaaef86	0.33385867
156	0x3cf61b34	0.030042268
157	0xbe708983	-0.23489957
158	0xbee61db5	-0.4494454
159	0x3d621011	0.055191103
160	0x3ac0089e	0.0014651006
161	0x3daca5d1	0.084300645
162	0x3e8e9cd8	0.27854037
163	0x3dbc4ac6	0.091939494
164	0xbe8eae44	-0.2786733
165	0x3eb06493	0.34451732
166	0x3d3b6d20	0.045758367
167	0x3d87f0be	0.06637715
168	0x3e33299d	0.17496343
169	0x3e627e2d	0.22118445
170	0xbdb9aabf	-0.0906577
171	0x3daa8805	0.08326725
172	0x3d56a7d9	0.052406166
173	0x3e0a508c	0.13507289
174	0xbd218e1f	-0.039442178
175	0xbd94c993	-0.0726501
176	0xbe7bafe9	-0.24578823
177	0xbd98838d	-0.07446966
178	0x3df4b223	0.119480394
179	0x3d27e1dc	0.04098688
180	0xbda9f044	-0.0829778
181	0xbd0eeb4d	-0.03489237
182	0xbcda1fd5	-0.026626507
183	0xbda1315b	-0.07870742
184	0x3d734698	0.059393495
185	0xbc9ab08b	-0.01888301
186	0xbb95cc2c	-0.0045714583
187	0x3b42b824	0.0029711807
188	0x3de8bbe0	0.11363959
189	0x3a3686b6	0.00069628225
190	0xbe9190ea	-0.28430873
191	0x3e136071	0.14392258
192	0xbde6b395	-0.11264721
193	0x3c5617c1	0.013067187
194	0xbe341702	-0.17586902
195	0x3d83a6ab	0.06428274
196	0x3e2d3d75	0.16917975
197	0xbe91176c	-0.28338182
198	0x3eee79cf	0.46577308
199	0x3caef67e	0.021357771
200	0x3c0a43a0	0.008438975
201	0x3e1a17ca	0.15048137
202	0xbda51990	-0.08061516
203	0xbea61e41	-0.32444957
204	0xbe8b921e	-0.27259916
205	0xbe112551	-0.14174391
206	0x3df3120d	0.11868677
207	0x3e19fade	0.15037104
208	0x3d96fd61	0.07372547
209	0x3dcd706d	0.10031209
210	0xbcadcfc7	-0.02121724
211	0xbe63e701	-0.2225609
212	0x3df46a69	0.119343586
213	0xbb5703e3	-0.0032808713
214	0x3ea8878b	0.3291591
215	0x3d0b6327	0.034030106
216	0xbe3ff81d	-0.18746991
217	0xbe161a26	-0.14658412
218	0xbe766776	-0.24062905
219	0xbe08d900	-0.13364029
220	0xbde7c1ac	-0.11316237
221	0xbd8f3876	-0.06993191
222	0x3d5931eb	0.05302612
223	0xbebf151d	-0.37320796
224	0x3ec59b95	0.38595262
225	0xbdf37e86	-0.11889367
226	0x3e06a122	0.13147405
227	0xbbcc0997	-0.006226729
228	0xbe38ee14	-0.1805957
229	0xbda1357c	-0.078715295
230	0x3e0f58e7	0.13998757
231	0x3cc0ba5b	0.023526361
232	0x3ec62393	0.38699016
233	0x3c9be644	0.019030698
234	0x3d184261	0.03717268
235	0x3e0cb8b2	0.1374233
236	0x3dfc9169	0.12332422
237	0xbadd5707	-0.0016886898
238	0xbd874647	-0.06605201
239	0x3d4eb82a	0.0504686
240	0xbd1e9c19	-0.038723085
241	0xbdb7b43c	-0.08969924
242	0x3e1434f3	0.14473324
243	0x3d2ef687	0.042715576
244	0x3dbd7d24	0.09252384
245	0x3d70fa61	0.05883253
246	0xbe86cad2	-0.26326615
247	0x3dc757b6	0.097335264
248	0xbe155ff4	-0.14587384
249	0xbe7554f9	-0.23958196
250	0x3e679289	0.22614492
251	0x3d6a8277	0.057253327
252	0xbe10d40d	-0.14143391
253	0x3e1a46a6	0.15066013
254	0x3e7670e0	0.24066496
255	0xbde4ce9b	-0.11172219

base.mlp.fc2.0.0.bias f4 [64]
0	0x3be309dd	0.006928666
1	0x3c1041d0	0.008804753
2	0x3aa82229	0.0012827563
3	0xbd1229fb	-0.035684567
4	0xbbc6345c	-0.006048722
5	0x3c174bf9	0.009234422
6	0x3cb65e0f	0.022261648
7	0xbcb7dd95	-0.022444526
8	0xbca1ee7d	-0.01976704
9	0xbcd0088d	-0.025394702
10	0x3d1b7484	0.037952915
11	0xbc0e8e0d	-0.00870086
12	0xbc58d6b9	-0.013234788
13	0x3c81e0f4	0.015854336
14	0xbcc84dd2	-0.02445117
15	0x39cdaf97	0.00039231472
16	0xbc88ae7b	-0.016684761
17	0xbcaccb3b	-0.021093002
18	0xbcaa3778	-0.020778403
19	0xbd092ff8	-0.033493012
20	0x3b919557	0.0044428515
21	0x3c50d57d	0.012746212
22	0xbc73c266	-0.014877891
23	0xbd27b07a	-0.040939786
24	0xbb681cc2	-0.0035417532
25	0xbd1eec6f	-0.0387997
26	0xbd01f7d4	-0.031730488
27	0xbc834e7b	-0.016028633
28	0xbd325402	-0.043537147
29	0x3a28450a	0.0006418979
30	0xbc692804	-0.014230732
31	0xbc1547b2	-0.009111332
32	0xbcd2a706	-0.025714409
33	0x3a676042	0.0008826294
34	0xbc3a6bfa	-0.011378283
35	0xba034f9b	-0.00050091156
36	0xbd0aaa0d	-0.03385358
37	0xbc1c50ec	-0.009540778
38	0xbc1a3d30	-0.009414002
39	0x3a458e1f	0.00075361313
40	0xbd07f432	-0.033191867
41	0xbc0e0a4e	-0.008669449
42	0xbd14f64a	-0.036367692
43	0xba3c1e7c	-0.00071761734
44	0xbd4a38ca	-0.049370565
45	0xbc95ef31	-0.018302532
46	0xbc6442fd	-0.013931987
47	0x3afa992e	0.0019119137
48	0xbcf3484a	-0.029697556
49	0xbb53e126	-0.0032330244
50	0x3d0dedf3	0.034650754
51	0xbc2215f8	-0.009892933
52	0xbb4d2f8d	-0.003130886
53	0xbc097fc0	-0.008392274
54	0xbc28b599	-0.0102972025
55	0x3c1ef3e5	0.009701704
56	0xbcc12000	-0.02357483
57	0xbd1551c9	-0.03645495
58	0x3c866e2f	0.016409962
59	0xbce02c91	-0.027365
60	0xbceec628	-0.029147223
61	0xbc0dc468	-0.008652784
62	0xbc4cef9d	-0.0125083
63	0xbbe74297	-0.0070574987

base.mlp.fc2.0.2.weight f4 [64]
0	0x3f8342f1	1.0254804
1	0x3f855a60	1.0418205
2	0x3f815e23	1.0106853
3	0x3f80cc5a	1.0062363
4	0x3f854234	1.0410829
5	0x3f80fbfb	1.0076898
6	0x3f843814	1.0329614
7	0x3f848b70	1.0355053
8	0x3f84e9c3	1.0383838
9	0x3f820c66	1.0160034
10	0x3f80724a	1.0034878
11	0x3f819520	1.0123634
12	0x3f816eb6	1.0111911
13	0x3f81ac80	1.0130768
14	0x3f8625e2	1.0480311
15	0x3f8252e3	1.0181545
16	0x3f833364	1.0250058
17	0x3f82f68e	1.0231493
18	0x3f81d94a	1.0144436
19	0x3f839e5c	1.0282702
20	0x3f80ddd5	1.0067698
21	0x3f816f99	1.0112182
22	0x3f857ab8	1.0428076
23	0x3f817d87	1.0116433
24	0x3f8891cc	1.0669494
25	0x3f80c689	1.0060588
26	0x3f829ffb	1.0205072
27	0x3f80c70d	1.0060745
28	0x3f809a4e	1.004709
29	0x3f81e9e2	1.01495
30	0x3f85b90a	1.0447094
31	0x3f842405	1.0323492
32	0x3f818813	1.0119652
33	0x3f826fdc	1.0190387
34	0x3f842335	1.0323244
35	0x3f84a466	1.036267
36	0x3f833e1d	1.025333
37	0x3f83bc1b	1.029178
38	0x3f83c55c	1.0294604
39	0x3f836a02	1.0266726
40	0x3f825207	1.0181283
41	0x3f878b36	1.0589359
42	0x3f81567e	1.010452
43	0x3f80923d	1.0044628
44	0x3f80f447	1.0074548
45	0x3f82b0e3	1.0210232
46	0x3f886dd6	1.0658519
47	0x3f846df4	1.0346055
48	0x3f80b75d	1.0055958
49	0x3f8c42b3	1.0957855
50	0x3f820742	1.0158465
51	0x3f82bcdb	1.0213884
52	0x3f86cf0d	1.0531937
53	0x3f81176b	1.0085272
54	0x3f827fa4	1.0195203
55	0x3f852a74	1.0403581
56	0x3f823597	1.0172604
57	0x3f81629b	1.0108217
58	0x3f8497c3	1.0358814
59	0x3f822771	1.0168287
60	0x3f808c36	1.0042789
61	0x3f82392c	1.0173697
62	0x3f87ad37	1.0599736
63	0x3f870452	1.0548193

base.mlp.fc2.0.2.bias f4 [64]
0	0x3cf11072	0.029426787
1	0xbc353c36	-0.011061719
2	0x3cf78e27	0.03021915
3	0x3c5fd651	0.013661937
4	0x3d033e41	0.03204179
5	0x3cc8b5e8	0.024500802
6	0x3d00cc22	0.031444676
7	0xbd00ba58	-0.03142771
8	0xbcf871a3	-0.030327624
9	0xbce69ed5	-0.028151909
10	0x3cf918fb	0.03040742
11	0xbd02140a	-0.031757392
12	0x3d04ed41	0.032452825
13	0x3b583f54	0.003299673
14	0xbd027c64	-0.03185691
15	0x3ca2e63b	0.019885173
16	0xbcf27d60	-0.0296008
17	0xbca878b3	-0.020565366
18	0xbd0327c7	-0.032020357
19	0x3cfeb49e	0.031091984
20	0x3cb2f6e6	0.021846246
21	0x3cf0aeac	0.029380165
22	0xbcb8ec81	-0.022573711
23	0xbd0275a6	-0.03185048
24	0xbd002129	-0.031281624
25	0xbd06811f	-0.032837983
26	0x3d038067	0.032104876
27	0xbd046298	-0.03232059
28	0x3cee686f	0.029102532
29	0x3cef6f23	0.029227799
30	0xbcc454b1	-0.023966165
31	0xbd054d26	-0.032544278
32	0xbcdae2e1	-0.026719512
33	0x3c81806e	0.01580831
34	0xbd00c8c0	-0.03144145
35	0x3c446814	0.011987705
36	0x3d00a9db	0.031411987
37	0xbd0186c6	-0.03162267
38	0xbcfbf3e0	-0.030755937
39	0x3cf77054	0.03020493
40	0xbd004394	-0.031314448
41	0xbcf88fa2	-0.030341927
42	0xbd0234ea	-0.031788744
43	0x3cbfa7f0	0.023395509
44	0xbd05745a	-0.032581665
45	0x3cebef2d	0.028800571
46	0xbcfade18	-0.03062348
47	0xbd012558	-0.031529754
48	0x3d02dd29	0.031949196
49	0xbcf53348	-0.02993168
50	0x3c916b61	0.017751398
51	0x3ce65609	0.028117197
52	0xbd04ffa7	-0.03247037
53	0x3d0480cc	0.032349393
54	0x3d015d13	0.031582903
55	0x3cfa845e	0.030580696
56	0xbd01b832	-0.031669803
57	0xbcdf7da5	-0.027281592
58	0x3d034b86	0.032054447
59	0xbcdca5b0	-0.026934475
60	0xbcec61f2	-0.028855298
61	0xbc302ca3	-0.01075283
62	0xbd052883	-0.032509338
63	0xbd04af12	-0.032393523

act.action_out.fc_mean.weight f4 [1, 64]
0	0x3cd12523	0.025530403
1	0x3d26305d	0.040573467
2	0x3c35c636	0.01109462
3	0x3a89fd6c	0.0010527796
4	0x3d1d33af	0.038379367
5	0x3bd4817f	0.0064851637
6	0x3d01bf38	0.0316765
7	0xbd107a93	-0.035273146
8	0xbd1fc2ac	-0.039004013
9	0x3c4f4d2e	0.012652678
10	0x3a8aebc1	0.0010598825
11	0xbc33c356	-0.010971865
12	0xbb98c034	-0.0046615843
13	0x3c3e6570	0.011620864
14	0xbd3c3793	-0.045951437
15	0x3c7b3d0a	0.015334377
16	0xbcbf736c	-0.023370467
17	0xbcb95cf1	-0.022627326
18	0x3c2c8af4	0.010531176
19	0x3ce7684c	0.028247975
20	0x3b894349	0.004188929
21	0x3c37de70	0.011222467
22	0x3d2cc6d2	0.042181797
23	0xbc10b23a	-0.008831555
24	0xbd8c1805	-0.06840519
25	0xbb27a862	-0.0025582542
26	0x3c92f9e4	0.017941423
27	0x3bb16f56	0.0054148836
28	0xbb5d6838	-0.0033784043
29	0x3c78b4b0	0.015179798
30	0x3d2e3a36	0.042535983
31	0xbcf16e9c	-0.029471688
32	0xbc36f6c2	-0.01116723
33	0xbc73ac6d	-0.0148726525
34	0xbd0355ba	-0.032064177
35	0x3d15852a	0.03650395
36	0x3cbedadd	0.023297722
37	0xbcde9efa	-0.027175415
38	0xbcf838eb	-0.030300578
39	0x3cd96407	0.026536955
40	0xbc78cf3c	-0.015186127
41	0xbd71b132	-0.059006877
42	0xbc1fec25	-0.009760891
43	0x3ad29bbe	0.0016068143
44	0x3b790ed4	0.0038003223
45	0x3c9ad0dc	0.01889842
46	0xbd88c564	-0.06678274
47	0xbd0a8425	-0.03381743
48	0xb9114489	-0.00013853809
49	0xbdbf25ae	-0.09333359
50	0x3c7d7f7e	0.015472291
51	0x3ca5741a	0.020196963
52	0xbd4ae12e	-0.049531154
53	0x3b8e0734	0.004334355
54	0x3c8e1cca	0.017347712
55	0x3d25fb0a	0.040522613
56	0xbc6b2849	-0.014352866
57	0xbc26143b	-0.010136659
58	0x3d095152	0.03352482
59	0xbc741e4c	-0.014899801
60	0xbb3c0a67	-0.0028692724
61	0x3c68b175	0.014202465
62	0xbd659edf	-0.056059714
63	0xbd537db5	-0.051633555
