ami_mujoco/ckpt/mujoco/Humanoid-v2_17x1/victim/critic.pt (torch, 121153 bytes, 11 tensors)

base.feature_norm.weight f4 [376]
5.7988977 -0.05631314 -0.1271118 -0.15526104 3.8784506 4.9297223 4.585949 5.513007
-1.8351759 6.16147 6.0449643 6.0740137 3.963235 6.224666 6.22485 5.420213
3.988528 4.479871 4.3929896 5.5934386 5.0314474 5.9279065 6.9293523 7.3149505
3.3806114 1.3673135 0.6742487 0.84749085 0.38040778 0.74655914 -0.45119542 0.85500365
0.47425598 0.6694896 0.5146801 0.86763775 0.27846476 0.3286575 -0.2392669 -0.46022958
0.88965863 -0.39002362 -0.30030492 -0.5840766 0.67360836 0.0013367604 -4.4960336e-05 0.014009793
0.0039662123 0.004017664 0.04074163 -0.0010987074 -0.0060723918 -0.0108731445 -0.011518143 -0.071295924
0.015295857 6.1016593 0.054082163 3.238684 2.1521297 5.287421 7.1722836 0.116501145
0.31114307 -0.0020229085 0.012124855 0.0033474115 0.019385455 -0.0030206703 0.030912647 1.3165388
3.1375303 -0.03775666 -0.021884283 -0.021151975 -0.002753039 -0.021922642 -0.015125045 -0.008710572
0.002687131 4.4988995 4.6603765 6.627726 0.22345644 0.017538948 -0.034499887 0.0134523185
0.004885704 0.0015934601 -0.010639618 5.129306 3.2901158 1.2516599 0.46271572 -0.103115626
-0.039488714 4.1221333 0.0030718765 3.9447312 3.7151167 6.0908885 5.5691 -0.11737684
-0.07512795 4.800264 -0.050117712 5.746939 0.0026147184 5.1854315 5.0105915 6.391337
6.1348925 -0.10476125 0.046121795 0.015861446 0.012453075 0.033508345 0.00033560453 0.016360993
0.016277255 4.605343 1.1694359 -0.10967355 -0.2810008 -0.04547755 0.036171384 3.7830293
-0.020188352 3.9642837 2.3070595 6.3228197 7.377988 -0.043082554 0.045014884 7.0399218
-0.035735477 4.812836 0.0046883835 5.0101423 4.9080606 6.11732 7.5578876 -0.031168671
-0.1548393 0.00032541863 -0.03193906 0.008033802 -0.014079548 -0.034934405 -0.025455708 3.5874474
0.08610819 -0.044537187 0.017825479 -0.039436657 0.16878639 0.00647352 0.01188008 0.029540682
0.019735586 3.7367468 0.030667046 -0.032316055 -0.10063624 0.08834881 0.113909766 0.015371883
-0.011231392 -0.022600336 -0.017503774 5.2936883 0.15456977 0.20911919 0.15818919 0.017853804
0.0026640631 -0.027291019 0.009231565 0.0145242475 -0.0074825357 2.9810324 0.3749986 -0.30441594
-0.04529202 -0.014187686 -0.019189237 0.018732727 0.0057252557 0.02297626 -0.0077682366 0.82426494
0.5377246 1.0239644 1.7318546 1.4364957 0.1562983 0.9159746 -0.011567143 0.69491625
2.8789814 1.1239352 0.15873079 0.61616623 -0.17370705 -0.250838 3.815876 4.097612
0.2694681 1.1826665 0.6801776 0.5358093 1.9376063 2.5392492 2.1991124 0.10541091
0.3260834 -0.34137455 -1.5073676 1.1515387 0.52091545 -1.3225404 0.94690675 0.059465513
-0.5251554 0.6710599 -0.01063267 1.6683209 0.9441902 -0.004812587 3.2023964 3.1230266
2.744477 1.0722263 -0.3338792 0.14329179 0.16838977 2.0671842 -0.03379845 0.7431226
0.750701 -0.46092218 0.24736425 -0.48294386 0.4403039 0.20626356 0.16807653 0.46673778
1.5102736 0.87666905 2.5613468 0.08337837 0.7612036 -0.2090031 1.1957197 1.0271345
00000000: 9290 b940 9ba8 66bd 9829 02be c0fc 1ebe
00000010: 8938 7840 49c0 9d40 18c0 9240 8e6a b040
00000020: 0be7 eabf c32a c540 5970 c140 525e c240
00000030: a4a5 7d40 7730 c740 f931 c740 6372 ad40
00000040: 0b44 7f40 1a5b 8f40 5f93 8c40 73fd b240
00000050: 9e01 a140 69b1 bd40 41bd dd40 1314 ea40
00000060: f05b 5840 2104 af3f 909b 2c3f 29f5 583f
00000070: cfc4 c23e 801e 3f3f 1603 e7be 85e1 5a3f
00000080: aed1 f23e ac63 2b3f 13c2 033f 821d 5e3f
00000090: ef92 8e3e cc45 a83e 6202 75be 36a3 ebbe
000000a0: abc0 633f 2db1 c7be 91c1 99be 0b86 15bf
000000b0: 9971 2c3f 3c36 af3a cb93 3cb8 5589 653c
000000c0: 00f7 813b 9ca6 833b b2e0 263d 8102 90ba
000000d0: eafa c6bb 4625 32bc 98b6 3cbc 9903 92bd
000000e0: 799b 7a3c cb40 c340 4285 5d3d 9946 4f40
000000f0: 7ebc 0940 8e32 a940 5983 e540 2798 ee3d
00000100: 254e 9f3e c692 04bb 54a7 463c 3f60 5b3b
00000110: 3fce 9e3c 70f6 45bb 853c fd3c 5884 a83f
00000120: 4ccd 4840 baa6 1abd ab46 b3bc e846 adbc
00000130: 546c 34bb 1d97 b3bc 09cf 77bc c9b6 0ebc
00000140: 941a 303b fcf6 8f40 ce21 9540 5516 d440
00000150: c4d1 643e d7ad 8f3c c14f 0dbd 1d67 5c3c
00000160: 4118 a03b a6db d03a cb51 2ebc 4623 a440
00000170: 4291 5240 6436 a03f 13e9 ec3e 492e d3bd
00000180: ebbe 21bd 84e8 8340 8951 493b 7a76 7c40
00000190: 79c4 6d40 8fe8 c240 1136 b240 4563 f0bd
000001a0: afdc 99bd c39b 9940 3b48 4dbd ede6 b740
000001b0: b25b 2b3b 0eef a540 c456 a040 d585 cc40
000001c0: 0a51 c440 118d d6bd 35ea 3c3d ddef 813c
000001d0: fb07 4c3c 0c40 093d 14f4 af39 7d07 863c
000001e0: e157 853c f85e 9340 13b0 953f 879c e0bd
000001f0: 56df 8fbe ab46 3abd 7228 143d 271d 7240
00000200: 0b62 a5bc d3b6 7d40 dda6 1340 8a54 ca40
00000210: 7a18 ec40 5577 30bd 8761 383d 0a47 e140
00000220: 5d5f 12bd c102 9a40 03a1 993b 1653 a040
00000230: d50e 9d40 16c1 c340 37da f140 7155 ffbc
00000240: 328e 1ebe f39c aa39 88d2 02bd 35a0 033c
00000250: e8ad 66bc 6117 0fbd 7d88 d0bc bd98 6540
00000260: 7e59 b03d a06c 36bd bd06 923c 5588 21bd
00000270: 57d6 2c3e d21f d43b aba4 423c 4dff f13c
00000280: 86ac a13c dc26 6f40 7539 fb3c d75d 04bd
00000290: 5f1a cebd 39f0 b43d 8649 e93d 5ada 7b3c
000002a0: df03 38bc 5724 b9bc 1364 8fbc e565 a940
000002b0: 8a47 1e3e 5723 563e 59fc 213e 2442 923c
000002c0: 9097 2e3b 6a91 dfbc fd3f 173c 1cf7 6d3c
000002d0: 0f30 f5bb 3cc9 3e40 d1ff bf3e 68dc 9bbe
000002e0: 2084 39bd 7873 68bc bf32 9dbc 6075 993c
000002f0: ed9a bb3b b638 bc3c b18c febb 0703 533f
00000300: 52a8 093f 4411 833f 69ad dd3f 17df b73f
00000310: a90c 203e 507d 6a3f 1d84 3dbc 08e6 313f
00000320: 3b41 3840 1cdd 8f3f 538a 223e 12bd 1d3f
00000330: 43e0 31be d76d 80be 5037 7440 a31f 8340
00000340: b9f7 893e 9e61 973f 1f20 2e3f cc2a 093f
00000350: 7c03 f83f 0f83 2240 42be 0c40 ade1 d73d
00000360: 67f4 a63e a5c8 aebe 6cf1 c0bf 9f65 933f
00000370: b75a 053f 0149 a9bf 7b68 723f 1c92 733d
00000380: 9670 06bf 95ca 2b3f a634 2ebc 8a8b d53f
00000390: 73b6 713f e8b2 9dbb 10f4 4c40 abdf 4740
000003a0: 83a5 2f40 b63e 893f 37f2 aabe 15bb 123e
000003b0: 5e6e 2c3e bf4c 0440 3e70 0abd 483d 3e3f
000003c0: f12d 403f fefd ebbe 0e4d 7d3e 6b44 f7be
000003d0: 836f e13e c136 533e 411c 2c3e 41f8 ee3e
000003e0: a550 c13f 626d 603f 1bed 2340 47c2 aa3d
000003f0: 3dde 423f e904 56be 580d 993f 2579 833f

base.feature_norm.bias f4 [376]
0.022640048 -0.0070711416 -0.025051285 -0.022080906 0.5346708 0.6531506 1.0096244 0.4088739
-0.23555577 0.5725557 0.6002641 0.79237354 0.50045484 0.6983346 0.56226844 0.7076225
0.46297574 0.3567052 0.35626006 0.45371485 0.470138 0.49838725 0.7758407 0.7193372
0.9761023 0.24044058 -0.063542135 0.24565345 0.14462584 0.33409134 0.021961013 0.09525021
-0.023178529 0.025836356 0.0010030167 0.11105894 -0.05470937 0.0036359648 -0.19045952 -0.1799872
-0.06856289 0.05112428 0.15783504 0.103656836 -0.110924624 -0.00623774 0.003608093 -0.017212268
-0.016096417 -0.0009804189 -0.010947823 0.0025167319 0.021615004 -0.02232162 0.0022082494 -0.106117025
0.07014526 0.71872675 -0.025365775 0.45972884 0.41274878 0.45237935 0.9468688 -0.09223088
-0.101191066 0.026070409 0.011972318 -0.0055351155 -0.022839954 -0.0021029005 -0.021922182 0.11319098
0.44657817 0.0067739487 -0.020410785 0.0068643694 0.008842526 -0.020292155 -0.0133821815 0.011705602
-0.017630452 0.5912995 0.7248151 0.6668467 -0.09344619 -0.01852081 0.014565003 0.013936213
-0.006425943 -0.027723255 -0.006986506 0.72629505 0.671614 0.28487036 -0.2485806 0.04502651
-0.0088134045 0.5299643 -0.03277972 0.5020333 0.511437 0.74428123 0.7411789 0.07266794
0.07552256 0.13291383 0.014753135 0.7449841 -0.02780792 0.6047099 0.6208731 0.6801047
0.74211496 -0.012064345 0.042968936 -0.016853256 -0.010099259 -0.018033838 0.0034851166 -0.00992433
0.0012320117 0.6167452 0.0906798 -0.030606652 0.031811327 -0.0006709919 -0.0047993273 0.463988
0.009417545 0.5481953 0.26750717 0.7494938 0.7862489 0.027738879 -0.10586433 0.2931194
-0.027861953 0.107312895 -0.0028470338 0.6328373 0.58738613 0.7225772 0.8944686 -0.0046118144
-0.020477813 0.0039253826 0.00022170824 -0.0075866715 -0.0057452344 -0.015132489 -0.0076971394 0.4316539
0.018258346 0.0074362564 0.0009269664 0.015067838 -0.02499621 -0.0062745158 -0.028031876 -0.014400692
-0.031594027 0.3967444 -0.056920357 0.03724452 -0.009621644 -0.025472045 -0.02877772 -0.002444143
-0.015621786 -0.0038092204 0.0071558137 0.5927167 0.043006588 -0.052753415 0.025543693 0.0450114
-0.009692443 -0.003422208 0.026232988 -0.022187406 0.0066467314 0.34703246 0.033767942 0.0055283043
-0.045148782 0.00813264 0.026582848 -0.030272346 -0.017257243 -0.020903178 -0.014208983 0.27108005
-0.003245783 0.23201586 0.32279804 0.30267465 -0.01260248 0.25328848 0.025702499 0.17662622
0.31437868 0.2344737 0.027340122 0.069100626 -0.18356746 -0.019372033 0.51921886 0.5662048
-0.02509899 0.08227004 0.0683163 0.08122116 0.28833634 0.34261167 0.40471822 0.009622248
0.033001762 -0.0076887584 -0.20664048 0.19673601 0.08695107 -0.07883429 0.09926009 0.11784088
-0.10522678 0.12188533 0.07133533 0.09482231 0.17604591 -0.19962746 0.42188928 0.5431111
0.43550637 0.12710926 -0.0630781 0.045738682 0.084620334 0.30615723 -0.023029532 0.03500407
0.08375171 -0.14097218 0.05778446 -0.12449418 0.0509188 0.12740467 -0.04962272 0.14279543
0.21908963 0.010155662 0.38030425 0.10650863 0.1872733 -0.08454641 0.16587493 0.012554039
00000000: 9f77 b93c 09b5 e7bb 5a38 cdbc 04e3 b4bc
00000010: 30e0 083f e134 273f 5f3b 813f eb57 d13e
00000020: 8835 71be 0393 123f e8aa 193f fed8 4a3f
00000030: cf1d 003f 0ec6 323f d3f0 0f3f c026 353f
00000040: 280b ed3e 10a2 b63e b867 b63e 504d e83e
00000050: eeb5 f03e 9d2c ff3e 7f9d 463f 7c26 383f
00000060: d7e1 793f 0e36 763e 6122 82bd 948c 7b3e
00000070: cc18 143e 050e ab3e 95e7 b33c 8b12 c33d
00000080: e6e0 bdbc c4a6 d33c a877 833a df72 e33d
00000090: ef16 60bd 5e49 6e3b d207 43be 914e 38be
000000a0: b36a 8cbd b167 513d 829f 213e 094a d43d
000000b0: 732c e3bd f565 ccbb c175 6c3b be00 8dbc
000000c0: a2dc 83bc 6681 80ba 7f5e 33bc c1ef 243b
000000d0: f311 b13c d4db b6bc 47b8 103b e253 d9bd
000000e0: 51a8 8f3d 7afe 373f e3cb cfbc 9461 eb3e
000000f0: cf53 d33e 449e e73e fe65 723f 8be3 bcbd
00000100: 433d cfbd 9c91 d53c 8b27 443c ea5f b5bb
00000110: db1a bbbc d1d0 09bb 2696 b3bc acd0 e73d
00000120: e5a5 e43e 00f8 dd3b 8534 a7bc 81ee e03b
00000130: 3ee0 103c bc3b a6bc f040 5bbc dac8 3f3c
00000140: bd6d 90bc 675f 173f 7b8d 393f 77b6 2a3f
00000150: b760 bfbd f4b8 97bc 0da2 6e3c b754 643c
00000160: b890 d2bb e11b e3bc 0fef e4bb 79ee 393f
00000170: e5ee 2b3f 87da 913e ea8b 7ebe b86d 383d
00000180: 1966 10bc beab 073f 0744 06bd 4185 003f
00000190: 89ed 023f 3789 3e3f e6bd 3d3f eed2 943d
000001a0: 92ab 9a3d 901a 083e 22b7 713c 47b7 3e3f
000001b0: 6fcd e3bc 45ce 1a3f 8af1 1e3f 571b 2e3f
000001c0: 3ffb 3d3f 88a9 45bc 3200 303d d70f 8abc
000001d0: 5d77 25bc b3bb 93bc 8e66 643b a899 22bc
000001e0: 747b a13a 03e3 1d3f 55b6 b93d cdba fabc
000001f0: 984c 023d 81e5 2fba ad43 9dbb d68f ed3e
00000200: 0c4c 1a3c 8756 0c3f b3f6 883e d3de 3f3f
00000210: 9c47 493f a53c e33c 66cf d8bd bf13 963e
00000220: c03e e4bc ddc6 db3d 4d95 3abb a001 223f
00000230: f05e 163f d2fa 383f e5fb 643f b41e 97bb
00000240: 16c1 a7bc 7fa0 803b 5a7a 6839 9d99 f8bb
00000250: 8542 bcbb 42ee 77bc 4938 fcbb bd01 dd3e
00000260: 8792 953c d7ab f33b a9ff 723a 18df 763c
00000270: dac4 ccbc 749a cdbb 1ba3 e5bc e1f0 6bbc
00000280: bd68 01bd 1522 cb3e 5225 69bd b68d 183d
00000290: 1aa4 1dbc c0aa d0bc 41bf ebbc ea2d 20bb
000002a0: 85f2 7fbc 1da4 79bb 517b ea3b 48bc 173f
000002b0: ad27 303d f713 58bd 0241 d13c e05d 383d
000002c0: 0dcd 1ebc 1f47 60bb 90e6 d63c 5dc2 b5bc
000002d0: d3cc d93b 3dae b13e 4150 0a3d c726 b53b
000002e0: eeed 38bd c43e 053c 46c4 d93c b6fd f7bc
000002f0: 105f 8dbc 243d abbc cbcc 68bc 01cb 8a3e
00000300: 34b7 54bb 9195 6d3e c945 a53e 2cf8 9a3e
00000310: a27a 4ebc 07af 813e 0c8e d23c 81dd 343e
00000320: 3ef6 a03e e019 703e 64f8 df3c a184 8d3d
00000330: 1cf9 3bbe 19b2 9ebc 87eb 043f ccf2 103f
00000340: 669c cdbc 327d a83d 6be9 8b3d 4857 a63d
00000350: d2a0 933e cc6a af3e 3a37 cf3e a2a6 1d3c
00000360: db2c 073d fbf1 fbbb 9099 53be 2a75 493e
00000370: 6713 b23d df73 a1bd e048 cb3d 8f56 f13d
00000380: 2381 d7bd 049f f93d 4218 923d 3332 c23d
00000390: 6145 343e 246b 4cbe df01 d83e 5409 0b3f
000003a0: b1fa de3e ee28 023e 172f 81bd 7c58 3b3d
000003b0: 6d4d ad3d a4c0 9c3e 6ea8 bcbc 6d60 0f3d
000003c0: 0486 ab3d 035b 10be 66af 6c3d cef6 febd
000003d0: 3b90 503d 5f76 023e 3141 4bbd f738 123e
000003e0: 0859 603e ef63 263c 3db7 c23e 3221 da3d
000003f0: 92c4 3f3e ab26 adbd 1edb 293e 75af 4d3c

base.mlp.fc1.0.weight f4 [64, 376]
1.0248065 0.13214707 -0.09549014 -0.1299299 2.346645 2.6457396 0.7287212 -2.9309733
0.32572818 2.141421 -1.7263604 0.08838656 -1.0755116 2.883161 -3.1326768 2.7817538
0.7782019 0.3923431 1.619568 -3.0409243 -0.03842084 2.2649863 5.0327344 2.0266688
1.051551 -0.9736793 -0.88160056 0.35678646 -0.22293392 -1.2587963 -0.55514187 0.8919751
0.32147652 -0.03823746 0.3997752 -0.87823564 -0.00024702412 -0.51583517 -0.38022053 -1.091693
1.0667384 -2.0048873 0.17785998 -0.5816469 -1.2967918 0.070833586 -0.015814452 0.026101451
-0.019385507 -0.070662215 -0.016916502 0.01827872 -0.041390464 -0.035191026 -0.038801044 -0.11777683
0.021844566 -2.37311 -0.115944296 -0.16214451 0.11081197 3.2694695 1.6252892 -0.16718325
-0.05508553 -0.041558903 0.06708379 -0.03112468 0.029980844 0.08792115 -0.02888501 -0.28781855
0.5239403 0.030108124 -0.13016355 -0.04402795 0.013922028 -0.009782055 0.018035362 0.0021830795
0.009176068 4.4200163 2.6384974 -0.6944656 0.19010164 -0.027787065 -0.01682102 -0.0386846
-0.015127408 -0.012886163 0.024228245 4.295626 1.186165 -0.13057107 0.10710424 -0.07983969
-0.046570126 -0.45102957 -0.077322684 -0.7344186 -0.7033161 -2.4204895 -2.4065037 -0.15514655
-0.028639095 2.4663486 -0.10536049 -2.0084212 -0.027066406 -3.1826336 -3.1151242 -3.8753436
-3.1082938 -0.050062153 -0.2225645 0.0099724615 -0.060708527 -0.06723068 -0.0029889373 -0.040712584
0.0048423037 -2.648522 0.11613888 -0.061370272 -0.16889118 -0.03855578 -0.007899926 -0.36736006
-0.0315279 -0.64902097 -0.08210656 -3.6667552 -0.87772846 -0.15555781 -0.116228245 2.4311628
0.08994053 -0.41948286 -0.086147346 -2.1109157 -0.9858237 -3.1167111 -1.8317579 -0.110230796
0.08340587 -0.067656904 -0.041333683 -0.002666534 -0.046086874 -0.04854881 0.002616134 3.2128088
-0.05940916 -0.08303276 -0.16504005 0.008069257 -0.0074385405 0.0015584644 -0.013424507 -0.038499
-0.054139964 1.7516432 -0.052381266 0.008440312 -0.06849478 -0.0020213926 0.03861616 0.007581037
0.09117071 -0.0057133487 0.035054233 -0.80105734 -0.05399102 0.00846617 0.027899936 -0.04035735
-0.023464214 -0.023379143 0.008931665 0.033933368 -0.03810189 -0.2308227 -0.076175086 0.018609397
0.054667525 0.05197342 -0.025722694 0.02499243 0.011006131 -0.021582019 -0.013353186 0.10271109
0.89659 -0.883608 0.62501955 0.03859 -0.09219817 -0.43370408 -0.17405738 0.8237488
0.60129726 -0.4226526 0.0041677756 0.8777154 -0.34628356 0.38868922 1.2811902 1.9731525
-0.1707523 -0.622944 -1.5844861 0.2650556 0.5759938 -0.08472067 0.271181 0.40394485
0.061695166 0.3382202 -0.21825525 -0.6005878 0.02771729 0.6853057 -1.415147 -0.3857212
-0.1145067 -0.045470607 -0.0035199379 1.4855446 -0.72650707 -0.2710245 0.542776 1.925876
-1.0113673 0.64346755 0.4683595 -0.6694202 -0.2463092 0.22683284 -0.07405539 0.13650605
-0.01241189 0.9647037 -0.0700011 -0.019049346 -0.13243142 0.2568808 -0.65646565 -0.46410498
0.48747766 1.9207135 -0.78030795 0.32842636 0.007939215 0.03354052 -0.4840971 1.1479335
00000000: dc2c 833f 9051 073e 5690 c3bd 580c 05be
00000010: 6f2f 1640 cc53 2940 798d 3a3f 1195 3bc0
00000020: d8c5 a63e 0b0d 0940 61f9 dcbf 0304 b53d
00000030: 5daa 89bf b685 3840 c77d 48c0 4108 3240
00000040: 3d38 473f 32e1 c83e 014e cf3f 819e 42c0
00000050: 2c5f 1dbd 89f5 1040 290c a140 f1b4 0140
00000060: 3999 863f 0c43 79bf 93b0 61bf b7ac b63e
00000070: ca48 64be 3d20 a1bf c71d 0ebf 7b58 643f
00000080: 9298 a43e e29e 1cbd 56af cc3e 0dd4 60bf
00000090: 0483 81b9 c60d 04bf 44ac c2be 99bc 8bbf
000000a0: e28a 883f 1350 00c0 ed20 363e d0e6 14bf
000000b0: 46fd a5bf 3311 913d 4f8d 81bc b6d2 d53c
000000c0: 5bce 9ebc 5ab7 90bd 7a94 8abc 41bd 953c
000000d0: 0c89 29bd 7724 10bd d8ed 1ebd fb34 f1bd
000000e0: 60f3 b23c 09e1 17c0 3474 edbd 3609 26be
000000f0: 63f1 e23d fd3e 5140 7a09 d03f 1632 2bbe
00000100: 5da1 61bd ab39 2abd 3a63 893d 2ff9 febc
00000110: 639a f53c 0110 b43d 42a0 ecbc f45c 93be
00000120: f420 063f 50a5 f63c 9849 05be a756 34bd
00000130: 3819 643c ea44 20bc e5be 933c ff11 0f3b
00000140: 3857 163c c670 8d40 24dd 2840 7fc8 31bf
00000150: 01aa 423e b3a1 e3bc 3ccc 89bc be73 1ebd
00000160: f3d8 77bc 7c20 53bc 507a c63c c575 8940
00000170: 41d4 973f 6cb4 05be 7859 db3d fe82 a3bd
00000180: 51c0 3ebd 59ed e6be 5b5b 9ebd db02 3cbf
00000190: 860c 34bf 4de9 1ac0 2804 1ac0 bdde 1ebe
000001a0: 899c eabc a8d8 1d40 3ec7 d7bd f989 00c0
000001b0: 5eba ddbc 45b0 4bc0 325e 47c0 a105 78c0
000001c0: 49ee 46c0 f90d 4dbd f3e7 63be 8963 233c
000001d0: 81a9 78bd 3db0 89bd 0ce2 43bb 3dc2 26bd
000001e0: 30ac 9e3b 6281 29c0 39da ed3d 655f 7bbd
000001f0: cff1 2cbe aaec 1dbd b16e 01bc 9e16 bcbe
00000200: 6623 01bd 3d26 26bf 7c27 a8bd 1eac 6ac0
00000210: d0b2 60bf 8c4a 1fbe 1309 eebd 2c98 1b40
00000220: be32 b83d 75c6 d6be 056e b0bd 3e19 07c0
00000230: f15e 7cbf 3278 47c0 0b77 eabf afc0 e1bd
00000240: b2d0 aa3d b48f 8abd 824d 29bd 04c1 2ebb
00000250: 97c5 3cbd 1edb 46bd 7273 2b3b a99e 4d40
00000260: 0557 73bd 140d aabd 4200 29be eb34 043c
00000270: 00bf f3bb 6345 cc3a 77f2 5bbc 21b1 1dbd
00000280: dec1 5dbd d835 e03f bd8d 56bd 3c49 0a3c
00000290: fe46 8cbd 5779 04bb fb2b 1e3d 596a f83b
000002a0: b6b7 ba3d 0b37 bbbb 0795 0f3d 1812 4dbf
000002b0: b025 5dbd b1b5 0a3c 688e e43c c04d 25bd
000002c0: 0638 c0bc 9e85 bfbc 1e56 123c b7fd 0a3d
000002d0: ba10 1cbd c95c 6cbe af01 9cbd bc72 983c
000002e0: 0eeb 5f3d 15e2 543d 66b8 d2bc edbc cc3c
000002f0: 0f53 343c c6cc b0bc 52c7 5abc 315a d23d
00000300: ec86 653f 2234 62bf 4801 203f 8c10 1e3d
00000310: 65d2 bcbd 760e debe 193c 32be 34e1 523f
00000320: 9eee 193f ec65 d8be d691 883b f5b1 603f
00000330: 144c b1be 4602 c73e 0afe a33f 4390 fc3f
00000340: b1d9 2ebe 4279 1fbf 71d0 cabf 5eb5 873e
00000350: 5474 133f 0882 adbd 3cd8 8a3e dcd1 ce3e
00000360: 12b4 7c3d 332b ad3e 4e7e 5fbe 1fc0 19bf
00000370: 5f0f e33c 3270 2f3f 8923 b5bf 407d c5be
00000380: 7d82 eabd 633f 3abd c2ae 66bb 5326 be3f
00000390: 5efc 39bf b9c3 8abe 5ef3 0a3f 1b83 f63f
000003a0: 7c74 81bf 4aba 243f d1cc ef3e 1f5f 2bbf
000003b0: 7b38 7cbe de46 683e 5aaa 97bd 3ec8 0b3e
000003c0: 3d5b 4bbc d2f6 763f bd5c 8fbd 600d 9cbc
000003d0: 1a9c 07be e185 833e 220e 28bf 2b9f edbe
000003e0: ac96 f93e f1d9 f53f 43c2 47bf 8027 a83e
000003f0: 7b13 023c c961 093d 93db f7be 7cef 923f

base.mlp.fc1.0.bias f4 [64]
1.080927 -0.34771875 -2.2034354 -0.34983706 -2.292769 -2.2843595 -0.42978397 0.09987635
0.5275614 3.1385658 1.2889992 -2.4928107 -0.4743311 -1.9329429 -0.42814937 0.5815065
-0.9216947 -2.5119157 -2.49139 0.2466088 -1.2572061 -0.3636496 0.663864 1.1812903
-1.9272608 -0.0029802355 -0.73915046 -0.4940104 2.6921704 -0.15806964 -0.26854515 2.8136692
0.5173241 1.034653 -3.494 0.24434836 1.3847175 -0.6488454 -4.074355 -1.3882667
2.7838428 0.5962852 0.42758453 0.048454136 -0.52776575 -2.3279948 0.93671495 0.046378657
0.5045726 2.665638 0.7172136 0.6074382 -3.3191135 -3.0133982 -0.04297028 -1.0877793
1.6311345 -0.0047212588 -2.0289361 -2.0352318 -1.3250941 1.3245645 -2.9633832 1.0516361
00000000: d15b 8a3f 3108 b2be 1605 0dc0 d81d b3be
00000010: babc 12c0 f232 12c0 a50c dcbe f98b cc3d
00000020: 440e 073f 43de 4840 edfd a43f 368a 1fc0
00000030: 87db f2be ac6a f7bf 6536 dbbe 9cdd 143f
00000040: 2ff4 6bbf 3ac3 20c0 ef72 1fc0 0487 7c3e
00000050: 21ec a0bf 4830 babe fef2 293f 8534 973f
00000060: 7bb0 f6bf 0e50 43bb f738 3dbf eeee fcbe
00000070: 854c 2c40 02dd 21be c07e 89be 2813 3440
00000080: 5a6f 043f 826f 843f b29d 5fc0 7536 7a3e
00000090: 6c3e b13f bb1a 26bf 1e61 82c0 b9b2 b1bf
000000a0: 7b2a 3240 26a6 183f 5cec da3e d877 463d
000000b0: a81b 07bf defd 14c0 8dcc 6f3f 8cf7 3d3d
000000c0: ab2b 013f d099 2a40 4f9b 373f 1281 1b3f
000000d0: 5b6c 54c0 84db 40c0 9b01 30bd 5a3c 8bbf
000000e0: 04c9 d03f cab4 9abb 17da 01c0 3d41 02c0
000000f0: af9c a9bf 548b a93f 12a8 3dc0 039c 863f

base.mlp.fc1.2.weight f4 [64]
2.062423 2.3174694 2.171866 4.959147 2.212817 2.641646 2.4547212 2.719183
4.5414295 1.1479272 3.8131468 2.8138227 2.6832767 3.7253633 3.3414917 2.5422025
6.5211062 2.5244477 2.2423792 2.5207386 2.2115312 3.0164018 3.343404 3.161714
2.9945805 2.9627404 2.1273062 2.4036043 0.8257307 3.5324647 1.786368 0.93500245
1.9567102 2.4585953 2.0773094 2.303427 2.0763657 4.5402493 2.510396 2.3348846
0.9132698 3.0951316 1.3569208 2.4872859 2.8249295 2.627533 4.1460557 3.5309856
3.0365076 3.2878723 3.1216042 1.8916383 2.9939756 2.8462253 2.0869505 3.982893
1.043883 1.8251121 2.9388313 3.1294456 2.4724913 1.9176594 2.3886335 2.3452046
00000000: bdfe 0340 6b51 1440 daff 0a40 55b1 9e40
00000010: cb9e 0d40 ba10 2940 271a 1d40 1807 2e40
00000020: 6453 9140 47ef 923f 990a 7440 ac15 3440
00000030: ceba 2b40 5a6c 6e40 00db 5540 72b3 2240
00000040: e7ac d040 8d90 2140 2483 0f40 c853 2140
00000050: ba89 0d40 ba0c 4140 55fa 5540 8659 4a40
00000060: 35a7 3f40 8a9d 3d40 c925 0840 a7d4 1940
00000070: 1663 533f e713 6240 b5a7 e43f 525c 6f3f
00000080: 7b75 fa3f a059 1d40 a3f2 0440 596b 1340
00000090: 2de3 0440 b949 9140 54aa 2040 c06e 1540
000000a0: 0dcc 693f a316 4640 95af ad3f b12f 1f40
000000b0: a5cb 3440 8029 2840 7dac 8440 abfb 6140
000000c0: 2456 4240 806c 5240 5dc8 4740 3421 f23f
000000d0: 4c9d 3f40 8e28 3640 9990 0540 b8e7 7e40
000000e0: f59d 853f 469d e93f d015 3c40 d648 4840
000000f0: 4c3d 1e40 dd75 f53f 5fdf 1840 d517 1640

base.mlp.fc1.2.bias f4 [64]
-0.22697552 0.9810584 0.60055465 0.7011037 0.7312498 0.2916546 0.69771284 1.1608497
2.0882978 -3.0161996 1.5788574 -0.033314627 0.45511612 1.0401568 1.3171781 0.39112362
3.248423 1.0845331 0.9529062 0.43271738 0.9322649 1.3762887 -0.4899874 1.7703424
0.48669434 0.21601668 0.39495182 1.1464411 -2.2239249 1.0194253 1.1927086 -2.3160112
0.49946398 0.22588654 1.0574147 0.50507766 -1.4318434 2.550989 1.2394563 0.7998421
-2.469097 0.67532307 -1.8723408 0.5965269 1.5641874 0.4837658 0.6233263 1.099362
1.5499424 1.2195781 1.4079783 0.084968865 1.301721 1.1515927 0.84772503 1.1205771
0.8736125 0.8500264 1.1986481 1.2207689 0.96210897 -1.1346971 1.0582021 0.7307996
00000000: 456c 68be a526 7b3f f3bd 193f 887b 333f
00000010: 3033 3b3f c053 953e 4f9d 323f b996 943f
00000020: aca6 0540 6a09 41c0 0018 ca3f eb74 08bd
00000030: fb04 e93e dc23 853f 4b99 a83f 5b41 c83e
00000040: 2ae6 4f40 fbd1 8a3f a9f1 733f 228d dd3e
00000050: eaa8 6e3f 3a2a b03f a1df fabe 949a e23f
00000060: 0030 f93e 7a33 5d3e 2037 ca3e 95be 923f
00000070: c954 0ec0 877c 823f adaa 983f 8739 14c0
00000080: beb9 ff3e cd4e 673e 5d59 873f c54c 013f
00000090: a546 b7bf 6743 2340 81a6 9e3f 74c2 4c3f
000000a0: af05 1ec0 f9e1 2c3f dda8 efbf fdb5 183f
000000b0: 4b37 c83f 27b0 f73e 5092 1f3f e5b7 8c3f
000000c0: 8364 c63f 231b 9c3f a238 b43f 2804 ae3d
000000d0: cb9e a63f 6467 933f 8204 593f 126f 8f3f
000000e0: 12a5 5f3f 559b 593f 4d6d 993f 2842 9c3f
000000f0: c64c 763f c13d 91bf 2b73 873f af15 3b3f

base.mlp.fc2.0.0.weight f4 [64, 64]
-2.221032 -2.0088778 -0.44562352 -0.22275218 -1.0204496 -0.5806407 2.56993 0.8811194
0.38692507 0.48012215 -1.2460387 0.2377806 0.77684426 -2.2192981 2.786771 5.467837
0.6121951 1.2060217 -1.2338905 1.7174263 -0.8548499 2.06608 5.478404 -0.16615745
-2.08205 1.0624999 3.662653 -0.947024 0.5049099 -4.5380106 3.0141878 -1.0642984
-0.3039001 -1.2387831 1.9465687 0.28625026 3.4930964 -2.3213317 -1.422512 -0.31144437
-0.15366872 -6.756209 2.2022827 0.35422587 -2.129795 -0.5235256 -0.069901116 0.11439446
2.8826253 1.9762123 -0.36504465 -6.742929 -1.0837722 0.04814041 0.74251866 0.03459829
-2.8130054 -1.3900677 0.15682642 -1.7589847 -1.5295782 -2.8213308 0.054441277 1.3753154
-3.030951 0.19133572 0.16702633 -1.3302598 -0.36579704 0.49964407 -3.0926266 -6.708914
-5.4420943 3.6337464 1.5749393 2.6472359 0.11482727 -0.22160894 0.4228878 -1.2698426
-4.331015 0.06728917 -0.89489293 -2.4651473 -0.6192174 0.95508635 -0.75677645 -4.4677644
0.4335826 -2.862527 -1.7405117 1.4859958 3.8663573 2.6007953 -0.34814247 2.264448
-0.5100731 -2.4973624 0.53866273 -0.8301373 2.692339 -0.7349713 -0.21837325 -0.0602815
3.2306085 1.0802342 0.8772206 2.2911353 -3.1710043 -0.26562217 -0.91165304 -3.528547
0.7401297 -2.1267676 1.2225672 -0.8589863 -0.10337118 0.27869228 0.20606619 -0.7820852
-3.8010082 0.7108561 0.98824203 -1.0291224 -1.0856708 5.749546 -0.50915897 -3.0026588
1.179189 0.8523714 -2.4362066 0.9637634 -2.4010904 -3.173722 -0.7349962 -0.06384756
0.29023656 2.4253051 1.7518603 -1.6965995 -0.4640526 -1.8033911 1.9898214 7.3298116
2.1173265 -0.7169392 -0.7943036 -2.3317738 -1.9261932 2.2790065 -2.694132 -1.7986335
-1.9415529 -0.5656812 2.643286 0.9801146 2.9213026 -1.4169095 1.8973718 -0.87368023
2.4166133 1.6557816 -0.7636313 0.93965507 5.425404 0.34557152 -1.2598846 -2.1773639
-1.5142255 1.748347 0.028510667 -0.7299548 1.7818727 -3.263008 2.0497878 1.01807
4.4455333 4.3188815 1.1024095 1.6044484 -0.99119145 -0.06840422 0.9043047 1.5771286
-0.6352109 -0.9173757 -0.3061334 0.28034043 -2.1339211 2.6148705 -0.56917983 1.8814498
0.082354695 1.9364406 0.08915421 -0.38408315 -0.010965777 0.26494405 -1.6495407 0.046571992
-0.011989735 0.57229084 0.28142193 -0.5249683 -0.6355689 3.8400328 1.9121908 -0.0088756
3.7644885 -0.68236905 -1.3462093 -2.8424306 -0.94154155 1.8210813 -1.6919203 -1.6884549
0.16891256 -1.6460828 -2.4665284 -0.9268517 1.1851801 1.6821406 -0.7763472 -2.6224117
0.21754089 2.229261 0.15582237 -2.0334096 0.6420523 -1.4771135 -0.57351285 -0.3387384
-2.3537006 2.5003495 -0.388727 2.2622213 -1.2806771 0.046056405 2.8846698 -1.7570288
0.0031812817 -0.15067959 0.33302456 1.021649 -1.635428 -1.4327273 1.338478 -2.3572345
0.36689362 -0.6672912 -0.045784973 -1.1712852 -0.69286436 1.574222 -0.49335018 -1.4519072
00000000: 6325 0ec0 7491 00c0 c428 e4be 2619 64be
00000010: 189e 82bf dea4 14bf bc79 2440 0a91 613f
00000020: 0b1b c63e 92d2 f53e 327e 9fbf c27c 733e
00000030: 44df 463f fb08 0ec0 755a 3240 85f8 ae40
00000040: d1b8 1c3f eb5e 9a3f 20f0 9dbf a0d4 db3f
00000050: 71d7 5abf a83a 0440 164f af40 2e25 2abe
00000060: 4f40 05c0 ffff 873f e868 6a40 2a70 72bf
00000070: c641 013f 6237 91c0 74e8 4040 ee3a 88bf
00000080: cb98 9bbe 7290 9ebf 2a29 f93f 658f 923e
00000090: e48e 5f40 b390 14c0 e014 b6bf a375 9fbe
000000a0: 555b 1dbe dd32 d8c0 33f2 0c40 185d b53e
000000b0: 904e 08c0 c605 06bf 5128 8fbd a547 ea3d
000000c0: ef7c 3840 86f4 fc3f 22e7 babe 13c6 d7c0
000000d0: 0cb9 8abf e12e 453d b415 3e3f f0b6 0d3d
000000e0: 4808 34c0 bded b1bf 1b97 203e 6926 e1bf
000000f0: 38c9 c3bf af90 34c0 d1fd 5e3d 560a b03f
00000100: 1afb 41c0 83ed 433e f308 2b3e f445 aabf
00000110: c049 bbbe 59d1 ff3e 98ed 45c0 6caf d6c0
00000120: a325 aec0 4d8f 6840 9c97 c93f 506c 2940
00000130: 8f2a eb3d 74ed 62be c084 d83e 348a a2bf
00000140: ad97 8ac0 e8ce 893d b417 65bf f9c4 1dc0
00000150: 0885 1ebf 8a80 743f 1abc 41bf edf7 8ec0
00000160: 8afe dd3e a433 37c0 16c9 debf 1c35 be3f
00000170: 6672 7740 6e73 2640 bb3f b2be b7ec 1040
00000180: 2794 02bf c9d4 1fc0 cde5 093f e183 54bf
00000190: 484f 2c40 1427 3cbf 3d9d 5fbe bce9 76bd
000001a0: 4ac2 4e40 1d45 8a3f 8791 603f f6a1 1240
000001b0: bcf1 4ac0 a1ff 87be 1862 69bf b7d3 61c0
000001c0: 2479 3d3f f61c 08c0 157d 9c3f 87e6 5bbf
000001d0: 45b4 d3bd c1b0 8e3e 0403 533e bc36 48bf
000001e0: b843 73c0 aafa 353f 6efd 7c3f 48ba 83bf
000001f0: 43f7 8abf 48fc b740 3e58 02bf 902b 40c0
00000200: aaef 963f 0335 5a3f cfea 1bc0 33b9 763f
00000210: 77ab 19c0 431e 4bc0 b628 3cbf 82c2 82bd
00000220: e399 943e 3338 1b40 f53c e03f 2c2a d9bf
00000230: 4d98 edbe 85d5 e6bf 78b2 fe3f d18d ea40
00000240: 4782 0740 5489 37bf 7b57 4bbf c83b 15c0
00000250: 808d f6bf 3edb 1140 a96c 2cc0 9f39 e6bf
00000260: ce84 f8bf 7cd0 10bf 992b 2940 cae8 7a3f
00000270: 9ff6 3a40 4a5d b5bf 14dd f23f 82a9 5fbf
00000280: cba9 1a40 a7f0 d33f 577d 43bf 3c8d 703f
00000290: e99c ad40 c0ee b03e e643 a1bf ee59 0bc0
000002a0: 24d2 c1bf d6c9 df3f 348f e93c 51de 3abf
000002b0: 6814 e43f 20d5 50c0 b92f 0340 1e50 823f
000002c0: cf41 8e40 4734 8a40 c11b 8d3f 915e cd3f
000002d0: b9be 7dbf 8317 8cbd 8380 673f 5adf c93f
000002e0: 2e9d 22bf 22d9 6abf 84bd 9cbe c888 8f3e
000002f0: 2a92 08c0 0a5a 2740 c5b5 11bf 59d3 f03f
00000300: 94a9 a83d 49dd f73f 7c96 b63d 8ca6 c4be
00000310: cda9 33bc bfa6 873e 2624 d3bf 46c2 3e3d
00000320: 9870 44bc a781 123f 8916 903e 5364 06bf
00000330: a5b4 22bf 19c3 7540 abc2 f43f f76a 11bc
00000340: 61ed 7040 bdaf 2ebf 9650 acbf 62ea 35c0
00000350: de08 71bf 3119 e93f d890 d8bf 4a1f d8bf
00000360: 6af7 2c3e d7b2 d2bf 9adb 1dc0 2746 6dbf
00000370: fbb3 973f 6250 d73f b1be 46bf 98d5 27c0
00000380: 0ac3 5e3e 36ac 0e40 e68f 1f3e 6223 02c0
00000390: 8a5d 243f 0e12 bdbf bdd1 12bf 1f6f adbe
000003a0: 08a3 16c0 ba05 2040 3a07 c7be 3cc8 1040
000003b0: 3aed a3bf a4a5 3c3d 6e9e 3840 52e6 e0bf
000003c0: 0d7d 503b c04b 1abe 3282 aa3e 65c5 823f
000003d0: b455 d1bf 9c63 b7bf 3f53 ab3f eedc 16c0
000003e0: 7bd9 bb3e 99d3 2abf 0689 3bbd acec 95bf
000003f0: 8f5f 31bf 1b80 c93f 6598 fcbe 18d8 b9bf

base.mlp.fc2.0.0.bias f4 [64]
-0.15543304 -0.9418713 1.9131924 -0.5537984 -2.9352415 0.12968048 -2.1741042 -1.0886757
-1.8235809 -0.8320495 -0.18246223 0.14577202 -1.0758042 -0.47296512 -3.350705 0.17918672
-2.601438 -0.42201027 -1.8588276 -0.038792234 -0.38130027 -1.7339522 -0.4493891 0.5650101
-2.5559576 -0.66638947 -0.4200852 -0.7545371 -1.7945564 -0.53731704 -3.3114035 0.6486431
-0.38058025 -0.4047144 -0.2396386 0.31537297 -2.1889355 -0.57963127 -1.7489394 -1.2437018
-0.71094865 -0.64582485 0.07907034 -0.32706589 -2.8667085 0.04428833 -0.41616303 -0.7962819
-1.9052594 -1.5343366 -2.584544 -2.2070599 0.07570722 -1.9327425 -0.49427798 -0.53649676
0.6759806 -1.7389425 -1.4909527 -0.0044823396 -3.6106534 -2.531194 -2.1877255 0.0012546964
00000000: d729 1fbe 7a1e 71bf 7de3 f43f bbc5 0dbf
00000010: ffda 3bc0 f6ca 043e 8624 0bc0 ba59 8bbf
00000020: 196b e9bf 3201 55bf 61d7 3abe 4345 153e
00000030: f4b3 89bf 7c28 f2be f371 56c0 b97c 373e
00000040: f67d 26c0 bb11 d8be 10ee edbf 9be4 1ebd
00000050: ca39 c3be 25f2 ddbf 5416 e6be 80a4 103f
00000060: cf94 23c0 8098 2abf 6815 d7be 5829 41bf
00000070: 06b4 e5bf 9c8d 09bf 09ee 53c0 790d 263f
00000080: 6adb c2be ba36 cfbe d263 75be 9178 a13e
00000090: 8517 0cc0 b762 14bf 3fdd dfbf 9f31 9fbf
000000a0: bb00 36bf c754 25bf a1ef a13d 2e75 a7be
000000b0: 2778 37c0 ae67 353d 5213 d5be 21d9 4bbf
000000c0: 8adf f3bf 2465 c4bf 2b69 25c0 7840 0dc0
000000d0: 630c 9b3d 1b64 f7bf 0112 fdbe da57 09bf
000000e0: 110d 2d3f ab95 debf 8ad7 bebf 97e0 92bb
000000f0: f214 67c0 15ff 21c0 b203 0cc0 a074 a43a

base.mlp.fc2.0.2.weight f4 [64]
0.060556512 0.87459415 -0.0011700715 0.72048014 0.40201232 -0.16093616 1.3028621e-35 0.11492075
-9.494901e-05 -0.1570889 -6.8964864e-26 0.6310467 -8.9585094e-13 0.5879756 0.6375116 1.0153465
0.44408906 0.051318895 0.61892444 -0.08634043 -0.03646541 0.15587506 0.7087465 0.6119286
0.3248558 0.72212595 0.09303618 0.08197164 -0.11101572 0.30987582 0.39919406 0.87964255
0.7458738 0.68383056 0.821222 0.055873077 0.39653754 -4.9802235e-10 -0.1864337 1.012194
-0.11405612 1.0190634 4.368255e-22 0.6982126 1.7193169e-18 0.0035874129 1.2745068e-15 0.85607547
0.37043324 -0.35129613 -0.32170436 -0.39189604 -5.292531e-15 -0.35930252 -0.096937366 0.8281365
-0.00027377214 -0.24843219 0.38369533 6.164105e-17 0.43186504 5.2264488e-05 0.0002461763 -0.004311999
00000000: 1b0a 783d 67e5 5f3f 165d 99ba 6371 383f
00000010: 8fd4 cd3e 73cc 24be 488b 8a05 925b eb3d
00000020: 5d1f c7b8 eadb 20be adbf aa95 478c 213f
00000030: dd28 7cab 9285 163f f633 233f e0f6 813f
00000040: a45f e33e c333 523d d571 1e3f 40d3 b0bd
00000050: c15c 15bd b69d 1f3e 6970 353f 5aa7 1c3f
00000060: 8053 a63e 3fdd 383f c189 be3d bfe0 a73d
00000070: 365c e3bd 0ba8 9e3e 2a63 cc3e 4130 613f
00000080: 96f1 3e3f 850f 2f3f 9b3b 523f 2bdb 643d
00000090: f806 cb3e 35e5 08b0 7ae8 3ebe 938f 813f
000000a0: 4196 e9bd ab70 823f bc05 041c 10be 323f
000000b0: f5b9 fd21 cd1a 6b3b 00ad b726 c327 5b3f
000000c0: 6da9 bd3e 16dd b3be 6fb6 a4be 99a6 c8be
000000d0: fcae bea7 80f6 b7be 1987 c6bd c100 543f
000000e0: 1389 8fb9 0265 7ebe b773 c43e 7422 8e24
000000f0: 6a1d dd3e 9136 5b38 3911 8139 ab4b 8dbb

base.mlp.fc2.0.2.bias f4 [64]
0.008886624 0.49040258 6.9588124e-05 0.1701647 0.24735186 0.13596748 1.1112398e-35 0.019766623
0.0014541115 -0.059471972 2.215066e-27 0.12645127 7.614516e-13 0.3422602 0.39738247 0.08949247
0.27477396 0.00029498021 0.35714573 -0.027910052 -0.0020123979 0.08205467 0.009583974 -0.0074071274
0.1858658 0.22985442 0.03720273 -0.089383446 -0.042365752 0.1629385 0.22155227 0.09831742
0.24986772 0.02528491 0.12228507 0.01054236 0.2448465 7.215774e-10 -0.051910266 0.0018038938
-0.053355616 0.050373103 -7.735621e-23 0.10163158 5.347545e-18 -0.013257766 -1.3917365e-14 0.25350985
0.21159905 -0.19956231 -0.18029876 -0.24348977 5.63664e-13 -0.2061028 0.030236976 0.07358848
0.0004364047 -0.0126392 0.23760574 1.675406e-15 0.24802323 5.393442e-05 0.00017503282 -0.014415309
00000000: 3499 113c 0c16 fb3e d7ef 9138 a83f 2e3e
00000010: ce49 7d3e 0f3b 0b3e a655 6c05 9ded a13c
00000020: e397 be3a e298 73bd e07e 2f13 717c 013e
00000030: 5f54 562b bb3c af3e b775 cb3e d447 b73d
00000040: 2caf 8c3e 93a7 9a39 cedb b63e 9fa3 e4bc
00000050: 6fe2 03bb 470c a83d 1a06 1d3c 7db7 f2bb
00000060: 9b53 3e3e f55e 6b3e e461 183d ab0e b7bd
00000070: b687 2dbd 5ad9 263e 99de 623e a55a c93d
00000080: 53dd 7f3e 4d22 cf3c 9870 fa3d ddb9 2c3c
00000090: 0ab9 7a3e 7f58 4630 dc9f 54bd a270 ec3a
000000a0: 6b8b 5abd 0754 4e3d 2d09 bb9a 3824 d03d
000000b0: 224a c522 1a37 59bc 85b6 7aa8 0bcc 813e
000000c0: 6cad 583e 105a 4cbe 3da0 38be 6255 79be
000000d0: 46a8 1e2b 9d0c 53be 89b3 f73c 8fb5 963d
000000e0: 3fcd e439 a614 4fbc eb4e 733e 9273 f126
000000f0: cdf9 7d3e a437 6238 0489 3739 302e 6cbc

v_out.weight f4 [1, 64]
-0.035148762 -0.22643065 0.0008534816 -0.32048595 -0.084835336 0.006024138 8.340976e-37 -0.024848988
8.6546264e-05 0.103952914 -5.905349e-26 -0.23782818 -7.2786754e-14 0.0646584 -0.08845213 -0.4751798
-0.070719555 -0.03554645 0.049376152 -0.013999578 0.018389339 0.020291356 -0.20112039 -0.096293874
0.030554874 -0.15702513 -0.030687798 0.0011766807 -0.048435535 -0.016802862 0.11525704 -0.34707743
-0.26458642 -0.26047403 -0.3440018 -0.016906517 -0.07182436 -4.6232346e-10 0.09433933 -0.33578292
0.06413686 -0.3469577 -2.566255e-22 -0.25295916 2.282609e-18 0.00244337 -1.4357938e-15 -0.36374414
0.11258134 -0.031913616 0.045681298 0.06764057 7.014178e-14 -0.015974132 -0.048695166 -0.39365324
0.00023470228 0.16584459 -0.027993208 4.1977238e-16 0.16774955 1.0197038e-05 -2.6648062e-05 0.005520509
00000000: 26f8 0fbd 70dd 67be 2ebc 5f3a bc16 a4be
00000010: 26be adbd 2266 c53b 13ea 8d03 1b90 cbbc
00000020: 2c80 b538 44e5 d43d 9935 9295 3b89 73be
00000030: b5e6 a3a9 a06b 843d 6426 b5bd c44a f3be
00000040: 6ad5 90bd 2899 11bd a63e 4a3d 7c5e 65bc
00000050: 3da5 963c 0f3a a63c 81f2 4dbe b935 c5bd
00000060: 374e fa3c 32cb 20be fa64 fbbc da3a 9a3a
00000070: 5764 46bd 28a6 89bc e20b ec3d 22b4 b1be
00000080: df77 87be da5c 85be 0121 b0be 897f 8abc
00000090: a618 93bd 3e2a feaf fb34 c13d bdeb abbe
000000a0: 305a 833d 71a4 b1be df1e 9b9b dd83 81be
000000b0: 446d 2822 f220 203b 71eb cea6 ac3c babe
000000c0: 0c91 e63d dab7 02bd 501c 3b3d 2487 8a3d
000000d0: fcf1 9d29 2fdc 82bc 9574 47bd eb8c c9be
000000e0: 6a1a 7639 2ad3 293e 0352 e5bc 78fb f125
000000f0: 8ac6 2b3e f213 2b37 478a dfb7 63e5 b43b
