ami_mujoco/ckpt/mujoco/Walker2d-v2_2x3/victim/actor.pt (torch, 25150 bytes, 13 tensors)

base.feature_norm.weight f4 [9]
0	0x3f80d4c8	1.0064936
1	0x3f7c2fc1	0.98510367
2	0x3f84397f	1.0330046
3	0x3f791b0a	0.97306883
4	0x3f8900e8	1.0703402
5	0x3f7fa655	0.9986318
6	0x3f882b6a	1.0638249
7	0x3f7754cc	0.96613765
8	0x3f856574	1.0421586

base.feature_norm.bias f4 [9]
0	0xbb7acc4a	-0.0038268738
1	0xbd3a23f5	-0.045444448
2	0x3c2781ab	0.010223786
3	0x3cb2eafd	0.021840567
4	0xbc92a8a5	-0.017902682
5	0x3c3330e4	0.010936949
6	0xbc4b721e	-0.012417344
7	0xbb26f8ed	-0.0025477961
8	0xbbd024d0	-0.0063520446

base.mlp.fc1.0.weight f4 [64, 9]
0	0x3dad42d9	0.08460016
1	0xbe0e08a3	-0.13870482
2	0x3d2572a4	0.040392533
3	0xbd50492a	-0.050851025
4	0x3d953b7d	0.07286737
5	0x3ead3c8f	0.33835265
6	0xbc9161ff	-0.017746923
7	0xbd89ce0c	-0.067287534
8	0x3cf7ebec	0.030263864
9	0x3e0f13e7	0.13972436
10	0xbe6bbbf3	-0.23020916
11	0x3e205a2f	0.15659402
12	0x3d6b0d6a	0.05738584
13	0x3eb0165d	0.34392062
14	0x3dbacb87	0.09120851
15	0x3ea45d3e	0.32102388
16	0xbe56776e	-0.20943996
17	0x3ed6e08c	0.4196819
18	0xbdd0a67d	-0.10188005
19	0x3e3708f8	0.17874515
20	0xbdc3b29d	-0.09555552
21	0x3db294b0	0.08719766
22	0x3ec0695f	0.37580392
23	0xbdc4c73a	-0.09608312
24	0xbcf0f7e3	-0.029415077
25	0xbe0eceb4	-0.13946038
26	0x3daef6e8	0.085431874
27	0xbe3518f5	-0.17685302
28	0x3dcfef5e	0.101530775
29	0xbd8759d9	-0.06608934
30	0xbcb11097	-0.021614356
31	0x3d90d177	0.07071202
32	0x3e44cc6f	0.1921861
33	0x3dcb9f1e	0.099424586
34	0xbe9046f4	-0.28179133
35	0xbe946935	-0.28986517
36	0xbd2e5c28	-0.042568356
37	0x3dca64db	0.09882518
38	0xbe81eda2	-0.25376612
39	0x3ce5b255	0.028039137
40	0xbc47b533	-0.012189197
41	0x3e844392	0.25832802
42	0xbca38320	-0.019959986
43	0x3daeb0e6	0.085298344
44	0xbe70190a	-0.23447052
45	0xbe0c5bd3	-0.13706903
46	0x3e307c61	0.17234947
47	0x3e005773	0.12533359
48	0x3e26e945	0.16299923
49	0x3e179127	0.14801465
50	0xbe42ac22	-0.19010976
51	0x3c0689c5	0.008211558
52	0xbd9bfdcd	-0.07616768
53	0xbdf53089	-0.11972148
54	0x3e6d8a5a	0.23197308
55	0x3cb697ff	0.022289274
56	0xbe87b123	-0.26502332
57	0x3df0ea9a	0.11763497
58	0xbdf90e2b	-0.121609055
59	0xbdcc1429	-0.09964783
60	0x3ead570d	0.33855477
61	0xbebf43c7	-0.37356398
62	0x3d37a41a	0.044834234
63	0xbc88e213	-0.016709363
64	0x3df150bb	0.11782976
65	0x3e75f576	0.24019417
66	0x3e92b138	0.28650832
67	0xbe99d730	-0.30046988
68	0xbdcaf17c	-0.09909341
69	0xbe1a4794	-0.15066367
70	0x3df99414	0.12186447
71	0x3e058b7d	0.13041492
72	0x3d878de9	0.06618864
73	0x3d9d3a56	0.07677142
74	0xbc796fa2	-0.015224369
75	0x3e933c1f	0.28756806
76	0xbc49bdb2	-0.012313293
77	0xbe7d5ae9	-0.2474171
78	0xbe01c077	-0.12671076
79	0xbd8dbdcd	-0.06920967
80	0x3dd75e7a	0.10516067
81	0xbc14415f	-0.009048789
82	0xbe12788e	-0.143038
83	0x3ddd356c	0.10801205
84	0xbd5ebe3c	-0.05438064
85	0xbe84c938	-0.25934768
86	0x3ea93dad	0.33054867
87	0x3b2ce0eb	0.0026379179
88	0xbebaa08c	-0.36450613
89	0x3dc6134a	0.09671648
90	0x3df78a0b	0.120868765
91	0xbd438ca8	-0.047741562
92	0x3d885484	0.06656745
93	0xbd85284d	-0.065018274
94	0x3ebe84d3	0.37210712
95	0xbc754903	-0.014971021
96	0xbca83cad	-0.020536745
97	0x3d35204b	0.04422025
98	0x3dfe9a67	0.12431794
99	0x3d0d60c0	0.034516096
100	0xbd91006a	-0.07080157
101	0xbdb63d34	-0.08898392
102	0x3e940cbc	0.28915966
103	0xbe40b477	-0.18818842
104	0xbe2c39a4	-0.16818863
105	0xbb54710b	-0.0032416012
106	0xbe645303	-0.22297291
107	0x3dcda414	0.10041061
108	0x3c8e543b	0.017374149
109	0x3e321ef9	0.17394628
110	0x3e68f8fe	0.22751233
111	0x3d56f176	0.05247637
112	0xbe8bac21	-0.2727976
113	0x3e43e3fe	0.19129941
114	0x3e823e6b	0.25438246
115	0x3e8f1c64	0.27951348
116	0xbd45defb	-0.048308354
117	0x3e494b1a	0.19657555
118	0xbda47daa	-0.08031781
119	0x3d8808c3	0.06642296
120	0xbe0a9397	-0.13532864
121	0xbeb4be0f	-0.35301253
122	0x3d9173d4	0.071021706
123	0xbdc82237	-0.09772151
124	0xbdef2de3	-0.11678674
125	0x3e5a50ce	0.21319887
126	0x3daadc83	0.083428405
127	0xbcc6e6dc	-0.024280004
128	0x3dac5a28	0.084156334
129	0x3d8b341b	0.06797048
130	0x3e81ba13	0.25337276
131	0x3dac6594	0.08417812
132	0x3e8e20da	0.2775944
133	0x3e0f453a	0.13991252
134	0xbe800f1e	-0.25011533
135	0xbe0928db	-0.13394491
136	0xbd2d2819	-0.04227457
137	0x3e316f1d	0.17327543
138	0x3d684198	0.05670318
139	0xbcb388f9	-0.0219159
140	0x3e14cbe7	0.14530908
141	0xbeb4ccff	-0.3531265
142	0xbdfb4909	-0.1226979
143	0xbc60da6a	-0.013723949
144	0x3dc64d36	0.096826956
145	0xbde06e9a	-0.109585956
146	0xbdfbd5ed	-0.122966625
147	0xbc908d89	-0.017645614
148	0x3e28ddc0	0.16490841
149	0x3e0253ab	0.1272723
150	0xbe92ff17	-0.28710243
151	0xbe7fd648	-0.24984086
152	0xbd31c60f	-0.043401774
153	0xbde6232c	-0.11237177
154	0x3df58acb	0.11989363
155	0x3d80cbab	0.062888466
156	0x3e3e0207	0.18555461
157	0x3e55f2b4	0.20893365
158	0x3e1c31ae	0.15253326
159	0x3e037505	0.12837608
160	0xbe82d85e	-0.255557
161	0xbd77edd1	-0.060529534
162	0xbbc7f974	-0.006102735
163	0xbc9e8863	-0.019352144
164	0xbd9d1059	-0.07669134
165	0x3e610dae	0.21977875
166	0xbf0f8109	-0.5605627
167	0xbc94f302	-0.018182281
168	0xbe0be501	-0.13661577
169	0x3b8c374d	0.0042790533
170	0x3eacc606	0.3374483
171	0x3d947ae4	0.07250002
172	0xbe0993ef	-0.13435338
173	0x3eb5d04c	0.3551048
174	0xbe3e79f9	-0.18601216
175	0xbe3c80fa	-0.18408576
176	0xbe09ec94	-0.13469154
177	0xbec14e68	-0.37755132
178	0xbe69d19f	-0.2283387
179	0xbe2b5f21	-0.16735508
180	0xbed69dd8	-0.419173
181	0xbe62a3bd	-0.22132774
182	0x3e36f373	0.17866306
183	0xbd6780f0	-0.05651945
184	0xbd5f73e3	-0.054553878
185	0x3e834302	0.2563706
186	0xbc006bd5	-0.007838209
187	0x3e7ff1bb	0.24994557
188	0xbe819649	-0.2530997
189	0xbcd47a76	-0.0259373
190	0xbe95262e	-0.2913069
191	0x3dc4bcd9	0.09606332
192	0xbdd099b6	-0.10185568
193	0xbd62a3df	-0.05533206
194	0xbd9edaaa	-0.077565506
195	0xbe269ccb	-0.1627075
196	0xbd818c8a	-0.06325634
197	0xbe3444ac	-0.17604321
198	0xbcde685b	-0.02714937
199	0x3e19f946	0.15036497
200	0x3de07367	0.10959511
201	0xbdff101a	-0.12454243
202	0xbc4f68cd	-0.012659264
203	0xbe973aad	-0.29536954
204	0xbdc4e4ba	-0.09613939
205	0x3d92f892	0.07176317
206	0xbe0c1866	-0.13681182
207	0xbe22efb1	-0.15911748
208	0xbe803587	-0.25040838
209	0xbd7aa2f5	-0.061190564
210	0x3e24f7eb	0.16110198
211	0x3e6c2e4e	0.23064539
212	0x3d43fce7	0.04784861
213	0x3db29f4e	0.08721791
214	0xbe7c67b1	-0.2464893
215	0x3c2b2213	0.010445136
216	0xbc7bd162	-0.015369745
217	0x3e41b243	0.18915658
218	0xbe3e9d6b	-0.18614738
219	0xbc542790	-0.012948886
220	0xbd177867	-0.03698006
221	0xbbb3181e	-0.0054655215
222	0xbe14c264	-0.14527279
223	0xbc6b9c96	-0.014380595
224	0x3ef8381d	0.4848031
225	0xbe25e254	-0.16199619
226	0xbe84545d	-0.25845614
227	0xbde08a39	-0.10963864
228	0x3e2f3831	0.17111279
229	0x3e0f9482	0.14021495
230	0x3de8f113	0.11374106
231	0xbe9919f0	-0.299026
232	0xbd530aed	-0.05152409
233	0xbd434257	-0.04767069
234	0x3c3b0d59	0.011416757
235	0xbd7a800b	-0.061157268
236	0xbdeeb56a	-0.11655696
237	0xbd71d00b	-0.059036296
238	0x3e6968cd	0.22793885
239	0x3d0c1dbb	0.03420804
240	0xbe534c00	-0.2063446
241	0x3b414638	0.0029491317
242	0xbca16581	-0.019701721
243	0x3ed94ec7	0.42442915
244	0xbe215779	-0.15756024
245	0x3db76f82	0.08956815
246	0x3cee86ce	0.029117014
247	0x3d17a5d9	0.0370234
248	0xbd5d6b33	-0.05405731
249	0xbd965b55	-0.07341639
250	0x3e03943e	0.12849519
251	0xbe68d7f1	-0.22738625
252	0xbe4c78a8	-0.19967902
253	0xbe7cfeb9	-0.24706544
254	0x3ec070fc	0.375862
255	0x3d3183b7	0.043338504

base.mlp.fc1.0.bias f4 [64]
0	0x3cb9e135	0.022690395
1	0xbc33ffa4	-0.010986242
2	0xbc015610	-0.007894054
3	0x3b6f2213	0.0036488816
4	0x3cd35b08	0.025800243
5	0xbcc6e80d	-0.024280572
6	0xbbbfbb24	-0.0058511663
7	0x3b21fcc0	0.00247173
8	0x3c009209	0.0078473175
9	0xbb371776	-0.0027937568
10	0x3c746c96	0.014918467
11	0x3b60d76c	0.003430809
12	0xbc4470cb	-0.011989783
13	0xba93fb67	-0.0011290134
14	0x3c391c2d	0.011298222
15	0x3c19afd3	0.009380299
16	0xbb7f31e5	-0.0038939652
17	0xbc2f4eca	-0.010699937
18	0x3cc9ba9d	0.024625117
19	0x3c4c272f	0.012460514
20	0x3aa79ed1	0.001278842
21	0x3b222777	0.002474276
22	0xbcbd730e	-0.023126151
23	0xbb82d60b	-0.003992801
24	0xbd5e0d9f	-0.05421221
25	0x3d389811	0.045066897
26	0x3c56b4d4	0.013104636
27	0x3c5fa521	0.01365021
28	0x3c81d44a	0.015848298
29	0xbbbd6579	-0.0057799187
30	0x3b2efcbc	0.0026700934
31	0x3cf71612	0.030161891
32	0x3b8472ba	0.004041997
33	0x3cba89ad	0.022770727
34	0xbc493ced	-0.012282592
35	0x3c8ac382	0.016938929
36	0xbc8ee07f	-0.017441032
37	0xbcc23e1e	-0.02371126
38	0x3bac442c	0.00525715
39	0xbad3af64	-0.0016150293
40	0x3ba834ae	0.005133233
41	0x3cb6bcf0	0.02230689
42	0xbc8de7be	-0.017322417
43	0xbbeb7b1b	-0.007186306
44	0xbd0ba78e	-0.03409534
45	0xbc8b8570	-0.017031401
46	0xbc63cb7b	-0.013903494
47	0x3c1e3d05	0.009658103
48	0xbc7a02ca	-0.015259454
49	0x3b8a16be	0.004214137
50	0x3c5ff110	0.013668314
51	0x3cca9dc6	0.024733435
52	0xbc424b4b	-0.011858772
53	0x3c3a3e72	0.011367427
54	0xbaf0f1dd	-0.0018382628
55	0xbc4df0b0	-0.012569591
56	0x3beed220	0.0072882324
57	0xbaa05d55	-0.0012234846
58	0xbbfce179	-0.007717308
59	0xbce9b5d7	-0.02852909
60	0x3bd7ba94	0.006583521
61	0xbc2e28de	-0.010629861
62	0xbc9355d9	-0.017985271
63	0xbcb4c33a	-0.022065748

base.mlp.fc1.2.weight f4 [64]
0	0x3f829ff3	1.0205063
1	0x3f7bddc9	0.9838529
2	0x3f81a264	1.0127683
3	0x3f808f69	1.0043765
4	0x3f84cc67	1.0374879
5	0x3f7a07ef	0.97668356
6	0x3f807229	1.0034839
7	0x3f7f0fc8	0.99633455
8	0x3f805ffd	1.0029293
9	0x3f7e1c23	0.99261683
10	0x3f7d5d04	0.98970056
11	0x3f766353	0.96245307
12	0x3f81a9aa	1.0129902
13	0x3f7f8ad5	0.99821216
14	0x3f838dc7	1.0277642
15	0x3f7c35ec	0.9851978
16	0x3f7dcc24	0.9913962
17	0x3f770794	0.9649594
18	0x3f801893	1.00075
19	0x3f805275	1.0025164
20	0x3f7f510a	0.9973303
21	0x3f7e25f6	0.99276674
22	0x3f7bc4ec	0.98347354
23	0x3f81a43c	1.0128245
24	0x3f7a54ca	0.9778563
25	0x3f847c63	1.035046
26	0x3f808f98	1.0043821
27	0x3f7d1736	0.9886354
28	0x3f857289	1.0425578
29	0x3f81ce98	1.0141172
30	0x3f82159f	1.0162848
31	0x3f79cd2c	0.9757869
32	0x3f7d2662	0.9888669
33	0x3f839869	1.0280887
34	0x3f811e31	1.0087339
35	0x3f81c3e1	1.0137902
36	0x3f77c83f	0.96789926
37	0x3f7a9a41	0.9789162
38	0x3f82da62	1.0222895
39	0x3f7aea9f	0.98014253
40	0x3f8133d8	1.0093946
41	0x3f7d1035	0.98852855
42	0x3f7d806d	0.9902409
43	0x3f7e2ad0	0.99284077
44	0x3f7950c9	0.97388893
45	0x3f8108b2	1.0080779
46	0x3f76552a	0.962237
47	0x3f813c83	1.0096592
48	0x3f7ca8b7	0.9869494
49	0x3f7fc556	0.99910486
50	0x3f81845c	1.0118518
51	0x3f810f7b	1.0082849
52	0x3f7e45e7	0.9932541
53	0x3f81738a	1.0113385
54	0x3f795f47	0.97411007
55	0x3f7f99ea	0.9984423
56	0x3f7edd4a	0.9955641
57	0x3f7b9e18	0.98288107
58	0x3f831bbf	1.0242842
59	0x3f7e8746	0.9942516
60	0x3f841f9a	1.0322144
61	0x3f805aa9	1.0027667
62	0x3f7d5a66	0.9896606
63	0x3f7ebba4	0.99505067

base.mlp.fc1.2.bias f4 [64]
0	0x3c3f3961	0.011671395
1	0xbc397b68	-0.011320926
2	0xbafe2995	-0.0019391055
3	0xbba6a183	-0.0050851717
4	0x3c5cf60e	0.013486398
5	0xba868252	-0.0010262227
6	0xbb78b8e9	-0.0037952012
7	0x3cbd8461	0.023134412
8	0xbbceefc6	-0.0063152043
9	0xbb1d0c51	-0.002396364
10	0x3c8c2b77	0.01711057
11	0x3ce33359	0.027734445
12	0xbd0d9007	-0.034561183
13	0xbb0b0140	-0.0021210462
14	0xbcf18055	-0.029480139
15	0x3c872196	0.016495507
16	0xbc4c4d9d	-0.012469676
17	0x3c5e89a7	0.013582624
18	0x3ce241af	0.027619211
19	0x3c2eb8c2	0.010664167
20	0xbbe4b984	-0.006980123
21	0x3c3f80ca	0.011688421
22	0xbcb72851	-0.022358092
23	0xbc4c258e	-0.012460126
24	0x3bc5a5c8	0.0060317256
25	0x3cb84b3c	0.022496812
26	0x3b03ca6f	0.0020109673
27	0x3c8a05be	0.016848441
28	0x3c0f35c4	0.008740846
29	0xbca5c502	-0.020235542
30	0x3c35c7df	0.011095016
31	0x3d5e37f1	0.05425257
32	0x3b850f65	0.004060673
33	0x3baab2c3	0.0052092983
34	0xbca2d7ab	-0.01987823
35	0x3c2b4247	0.0104528135
36	0x39a828f8	0.0003207398
37	0xbc931ad6	-0.017957132
38	0xbc8d4c8b	-0.017248413
39	0xbc52c6f8	-0.012864821
40	0xbc3e822b	-0.011627714
41	0x3cb208dd	0.021732742
42	0xbc13cb1a	-0.009020591
43	0x3b8946fb	0.0041893697
44	0xbcb627a0	-0.022235692
45	0xbc913355	-0.017724672
46	0x3a71fd03	0.0009231122
47	0x3bef8b99	0.0073103425
48	0xbc86eec9	-0.016471284
49	0x3a9745d6	0.0011541198
50	0x3bf60ace	0.0075086122
51	0x3d166b69	0.036723528
52	0x3957dde1	0.00020586654
53	0x3c4709c9	0.012148329
54	0x3c8e26c0	0.017352462
55	0xbc377b16	-0.01119878
56	0x3c0a31d0	0.008434728
57	0x3b904288	0.0044024624
58	0xbc95d876	-0.018291693
59	0xbc874d16	-0.01651625
60	0xbcbbca88	-0.022923723
61	0xbc687935	-0.014189054
62	0xbc9ba260	-0.018998325
63	0xbc856813	-0.016284978

base.mlp.fc2.0.0.weight f4 [64, 64]
0	0xbeac8b68	-0.3370011
1	0x3dd64275	0.104618944
2	0x3cc70165	0.024292657
3	0x3d1fea38	0.039041728
4	0xbdf276cb	-0.11839064
5	0x3d21f2a0	0.039538026
6	0xbd8d27e7	-0.068923764
7	0xbcfe561e	-0.031046923
8	0xbdeb895e	-0.1150081
9	0xbe9d8df8	-0.30772376
10	0xbe755d20	-0.23961306
11	0xbdb7d6eb	-0.08976539
12	0x3cc5a5e9	0.024126964
13	0xbebd54f7	-0.36978886
14	0x3d8e6ce8	0.06954366
15	0x3e1d956d	0.15389033
16	0xbe461373	-0.19343357
17	0x3e0c1092	0.13678196
18	0x3dd70cb5	0.105004705
19	0x3c16f75b	0.009214248
20	0x3e00fa6b	0.12595527
21	0xbd9d4719	-0.076795764
22	0xbda5e773	-0.08100786
23	0x3da0a0df	0.07843184
24	0x3d548471	0.05188412
25	0xbe098b9a	-0.1343216
26	0x3f0144a0	0.5049534
27	0xbc3604e9	-0.011109569
28	0x3dce9ee1	0.100888975
29	0xbea5d4bd	-0.3238887
30	0xbdc9e1c0	-0.098575115
31	0x3dbe0fad	0.09280334
32	0x3de2c3cf	0.11072504
33	0x3d982542	0.07428981
34	0x3d7d9ba5	0.061916012
35	0x3e972c77	0.2952611
36	0x3d899b4d	0.067190744
37	0xbe2026c3	-0.15639786
38	0xbe6c121a	-0.2305378
39	0xbe1aaa59	-0.15104045
40	0xbc5c8bdb	-0.0134610785
41	0x3df5ea51	0.12007583
42	0x3d895d6b	0.06707271
43	0xbdee0ab0	-0.11623132
44	0xbea786f0	-0.32720137
45	0x3db66ac5	0.089070834
46	0x3e1df905	0.15427025
47	0xbea283db	-0.31741223
48	0xbe404528	-0.18776381
49	0x3e9e99ed	0.3097681
50	0xbd9a1948	-0.07524353
51	0x3ce12579	0.027483689
52	0xbdbf290d	-0.09334002
53	0xbdfa7072	-0.122284785
54	0xbd61a701	-0.055090908
55	0x3ec6c547	0.38822386
56	0xbdd8dcee	-0.10589014
57	0x3d5a9170	0.053361356
58	0xbe8c2472	-0.27371556
59	0xbdea634f	-0.11444723
60	0x3e20fecb	0.15722196
61	0x3e9e1f5c	0.308833
62	0x3e0ae69c	0.13564533
63	0xbde99cae	-0.114068374
64	0x3dc85838	0.097824514
65	0xbdf6942e	-0.12039982
66	0xbed1f2d9	-0.4100559
67	0x3da229a9	0.07918102
68	0x3e39ddf8	0.1815108
69	0xbcfe52a6	-0.03104527
70	0x3ea9df45	0.33178154
71	0xbe67d4a6	-0.22639713
72	0x3d8a242b	0.0674518
73	0x3e1c9c9a	0.15294114
74	0xbe02dac8	-0.12778771
75	0xbcc91dd1	-0.02455035
76	0x3ef7feb2	0.48436505
77	0xbe15f4e6	-0.14644203
78	0xbd27dc14	-0.040981367
79	0x3e701747	0.2344638
80	0xbd6a6b7b	-0.057231408
81	0x3d9bf9b9	0.0761599
82	0x3d3c2d43	0.045941602
83	0xbe1cb94b	-0.15305059
84	0xbddaab30	-0.10677183
85	0xbe2d1b55	-0.16904958
86	0xbcc47d11	-0.023985418
87	0x3d5c9691	0.05385453
88	0x3e05d44e	0.13069269
89	0x3e03b573	0.12862186
90	0x3d49b6f8	0.04924676
91	0x3eccf411	0.40029958
92	0x3e5e4b2a	0.2170836
93	0xbdd76208	-0.10516745
94	0x3da28d55	0.07937113
95	0xbe043869	-0.12912144
96	0x3d9ea84c	0.07746944
97	0xbebe2d12	-0.3714376
98	0x3d6f5487	0.05843022
99	0xbd49be77	-0.049253907
100	0x3e15bd76	0.14623055
101	0xbd592b7a	-0.053019978
102	0xbe68b185	-0.22723968
103	0x3ddc8eac	0.107694
104	0xbe4d8cd7	-0.20073257
105	0xbd6cbf7c	-0.0577998
106	0x3db94333	0.0904602
107	0x3d5c9113	0.05384929
108	0xbd8e6bf2	-0.06954183
109	0x3dc491b2	0.09598102
110	0x3c6a4bc9	0.014300295
111	0x3c07a26c	0.0082784705
112	0x3ea0bff8	0.3139646
113	0xbd73fed9	-0.059569214
114	0xbdce2226	-0.10065107
115	0xbe7270a2	-0.23675779
116	0x3eb03e62	0.34422594
117	0xbde23836	-0.11045878
118	0x3ce38371	0.027772637
119	0xbd193975	-0.03740831
120	0x3ca544c8	0.020174399
121	0x3d33fbe2	0.043941386
122	0xbe76af82	-0.24090388
123	0x3e48ecdb	0.19621603
124	0x3df09efd	0.117490746
125	0x3e1223f2	0.14271525
126	0xbea73e6f	-0.3266482
127	0x3e1c36a7	0.15255223
128	0xbdb9b05d	-0.09066842
129	0xbe77ac6c	-0.24186867
130	0x3dcca833	0.09993019
131	0x3e18303c	0.1486215
132	0xbe21a242	-0.15784553
133	0x3e36bdae	0.17845795
134	0x3d78f46a	0.060779966
135	0xbe97a1fd	-0.29615775
136	0x3df0af75	0.11752216
137	0x3e2c6605	0.16835792
138	0x3c9bd716	0.01902346
139	0x3eaed66c	0.34147966
140	0x3e1b9220	0.15192461
141	0x3db5ccd8	0.088769615
142	0x3e838eab	0.25694785
143	0x3e930a44	0.2871877
144	0xbde4169d	-0.11137126
145	0xbe8032b1	-0.25038674
146	0xbe19eecf	-0.15032504
147	0x3e82d692	0.2555433
148	0x3e27c4b8	0.16383636
149	0x3e0ebcd3	0.13939218
150	0xbe60c1a1	-0.21948864
151	0x3d0a97dd	0.033836234
152	0x3e1a20d5	0.15051587
153	0xbec40b82	-0.3829003
154	0x3bb4c7ad	0.0055169673
155	0xbe0fced5	-0.14043744
156	0xbd56fca9	-0.05248705
157	0xbe488360	-0.19581366
158	0xbe142aa4	-0.14469391
159	0x3ccce384	0.025010832
160	0xbd9d8dbe	-0.07693051
161	0x3ca43332	0.020043943
162	0xbcc31b25	-0.023816654
163	0xbd5ffcaf	-0.054684337
164	0x3e0c7fc9	0.13720621
165	0xbe5c0c2a	-0.21489015
166	0x3e9ac040	0.302248
167	0xbca0fc6a	-0.01965161
168	0x3dcce475	0.10004512
169	0x3e963a80	0.29341507
170	0xbea83cc1	-0.32858852
171	0xbe296e00	-0.16545868
172	0x3e90dbf5	0.28292814
173	0x3e515dc9	0.20445932
174	0xbe14c805	-0.14529426
175	0x3d882355	0.06647364
176	0x3e1f518d	0.15558453
177	0x3cb08ff2	0.021553013
178	0xbc60f366	-0.013729906
179	0xbce8d939	-0.028423892
180	0x3e06b490	0.13154817
181	0x3b51426a	0.0031930455
182	0xbe4de8eb	-0.20108382
183	0xbe18e628	-0.14931548
184	0xbcb1153b	-0.021616569
185	0x3e757809	0.23971571
186	0x3d46ba9b	0.048517805
187	0xbd932d2a	-0.07186349
188	0x3e5ae4a1	0.21376278
189	0x3e2db252	0.16962555
190	0x3df1a5c7	0.11799198
191	0x3b6b18c5	0.0035872918
192	0x3e5caead	0.21551009
193	0xbeba5c26	-0.3639843
194	0x3e68e6ac	0.22744244
195	0x3e10ac7c	0.14128298
196	0x3db6d6f8	0.08927721
197	0xbdbada79	-0.091237016
198	0xbc881d9f	-0.016615687
199	0xbe1b62da	-0.15174428
200	0x3e8d4e82	0.2759896
201	0x3d2aba57	0.041681614
202	0xbe87ef80	-0.26549911
203	0xbe1f9bdf	-0.15586804
204	0xbd5d3436	-0.05400487
205	0xbe598826	-0.21243343
206	0xbdad349d	-0.08457301
207	0xbe0c0b26	-0.13676128
208	0xbeb02d52	-0.34409577
209	0x3e590d00	0.21196365
210	0x3e6bcabb	0.23026554
211	0x3e65cb4e	0.22440836
212	0xbd8b7ee0	-0.06811309
213	0x3dc6f2cb	0.09714278
214	0x3dfc7981	0.123278625
215	0x3db132f9	0.086523004
216	0xbd78d9c3	-0.06075455
217	0xbe7f11e8	-0.24909174
218	0xbd4d5250	-0.050127327
219	0x3d75bfc0	0.05999732
220	0xbdd78c20	-0.105247736
221	0xbe256329	-0.16151108
222	0x3bf37456	0.00742964
223	0x3d79d3f4	0.06099315
224	0xbe18edb0	-0.1493442
225	0xbdd91551	-0.10599769
226	0x3e5bff24	0.21484047
227	0x3db0d152	0.08633675
228	0xbe29f3d2	-0.16596916
229	0x3e059ffa	0.13049307
230	0xbe1ea7b5	-0.15493663
231	0x3ea9f0b1	0.33191445
232	0xbeb076cd	-0.34465638
233	0x3cc35969	0.023846345
234	0xbd502703	-0.050818454
235	0x3c158758	0.009126507
236	0x3dfbd8fd	0.122972466
237	0x3e0c2b27	0.13688336
238	0x3c895bbd	0.016767377
239	0xbdac8b87	-0.0842505
240	0xbe10e44f	-0.14149593
241	0x3e5a54e6	0.21321449
242	0xbe799cbb	-0.24376194
243	0x3e415921	0.18881656
244	0x3d8736e4	0.066022664
245	0xbcda1c7c	-0.02662491
246	0x3e332f30	0.1749847
247	0xbb586910	-0.0033021607
248	0x3e90a7a0	0.28252888
249	0x3e53714e	0.20648691
250	0x3eb7b1f3	0.35877952
251	0xbea2d89a	-0.3180588
252	0xbe46e8fb	-0.19424812
253	0xbdbe3f09	-0.09289367
254	0xbe5ee76b	-0.21767966
255	0xbd8a753a	-0.067606404

base.mlp.fc2.0.0.bias f4 [64]
0	0x3caa5a41	0.02079499
1	0xbc921e96	-0.01783685
2	0xbd1a6562	-0.037694342
3	0xba361c7a	-0.00069469924
4	0xbcd05b36	-0.025434118
5	0xbbee54f4	-0.007273311
6	0xbb479a9d	-0.0030457147
7	0x3c9fd63a	0.01951133
8	0xbd053905	-0.03252508
9	0xbce4a467	-0.027910424
10	0xba2f7120	-0.0006692577
11	0xbbaf3a0c	-0.005347496
12	0xbbfc48b8	-0.0076990984
13	0x3c697988	0.014250167
14	0xbc41ac7f	-0.011820911
15	0xbb9a6ae3	-0.004712449
16	0x3c5214c8	0.012822337
17	0x3c4fec01	0.012690545
18	0x3c1714f7	0.009221307
19	0xbd04ce5b	-0.03242336
20	0xbc431e5c	-0.011909094
21	0x3cef0630	0.029177755
22	0xbbb2350e	-0.0054384535
23	0x3c255147	0.010090179
24	0xba34e750	-0.00069009233
25	0xbcbfce9f	-0.023413954
26	0x3c9046fd	0.017611975
27	0x3c9687c6	0.018375289
28	0x3c8d5ec5	0.017257104
29	0xbba728b4	-0.0051012877
30	0xbbbac2d1	-0.0056994935
31	0xbd283132	-0.04106254
32	0x3cbc4464	0.02298183
33	0x3cfc51c2	0.030800704
34	0xbb9d4a92	-0.0048001492
35	0x3b3fee3b	0.0029286284
36	0xbc0b2e1f	-0.008494883
37	0x3cba41b9	0.022736417
38	0xbc623441	-0.013806404
39	0xbc18edd9	-0.009334051
40	0x3c93055e	0.017946895
41	0xbc963fbc	-0.018340938
42	0xbbb30255	-0.0054629245
43	0xbb25c144	-0.0025292197
44	0xbc60b46c	-0.013714891
45	0x3c24693a	0.010034854
46	0xbb00b7b1	-0.0019640739
47	0xbbff63d4	-0.007793883
48	0xbad73618	-0.001641932
49	0xbd4287dc	-0.047492847
50	0xbc2746a6	-0.010209715
51	0xbc211307	-0.009831197
52	0xbc062c93	-0.008189338
53	0xbcbd6a4d	-0.023121977
54	0x3c452a0a	0.012033949
55	0xb9073ca5	-0.00012897195
56	0x3bc69d13	0.006061205
57	0x3c486fe4	0.012233708
58	0xbc86407d	-0.016388172
59	0xbc79d27d	-0.015247938
60	0x3c14de19	0.009086155
61	0x3c330db3	0.010928559
62	0x3c91d24a	0.017800469
63	0x3c0ebfc5	0.008712714

base.mlp.fc2.0.2.weight f4 [64]
0	0x3f86dd29	1.0536243
1	0x3f85715a	1.0425217
2	0x3f867b3d	1.0506359
3	0x3f869d8b	1.0516828
4	0x3f85ef3f	1.0463637
5	0x3f865589	1.0494853
6	0x3f85cbdd	1.0452839
7	0x3f853454	1.0406594
8	0x3f8935cf	1.0719546
9	0x3f87b147	1.0600976
10	0x3f87bf82	1.0605319
11	0x3f863e23	1.0487713
12	0x3f8441b2	1.0332549
13	0x3f889679	1.0670921
14	0x3f891656	1.0709941
15	0x3f8682ff	1.0508727
16	0x3f8a21c2	1.0791552
17	0x3f850e91	1.039507
18	0x3f83195b	1.0242113
19	0x3f890061	1.0703241
20	0x3f8a96f3	1.0827316
21	0x3f83e3a6	1.0303848
22	0x3f830e31	1.0238706
23	0x3f8a12be	1.078697
24	0x3f842001	1.0322267
25	0x3f86f4a0	1.0543404
26	0x3f89f6da	1.0778458
27	0x3f8468f2	1.0344527
28	0x3f86f7e6	1.0544403
29	0x3f8beac6	1.0931022
30	0x3f88a5d3	1.0675606
31	0x3f830800	1.0236816
32	0x3f89b9b7	1.0759801
33	0x3f8620e3	1.0478786
34	0x3f888400	1.0665283
35	0x3f8526f3	1.0402511
36	0x3f841e09	1.0321666
37	0x3f85f58d	1.0465561
38	0x3f86c69b	1.052936
39	0x3f8284d0	1.0196781
40	0x3f86e3f4	1.0538316
41	0x3f8981eb	1.0742773
42	0x3f85347f	1.0406646
43	0x3f82879d	1.0197636
44	0x3f84fafd	1.0389096
45	0x3f84fa81	1.0388948
46	0x3f8842aa	1.0645344
47	0x3f855451	1.0416356
48	0x3f89c5a7	1.0763444
49	0x3f83816c	1.0273871
50	0x3f845ae5	1.0340239
51	0x3f856aa9	1.0423175
52	0x3f818319	1.0118133
53	0x3f87aaba	1.0598977
54	0x3f847c26	1.0350387
55	0x3f87ae26	1.0600021
56	0x3f84c44a	1.0372403
57	0x3f867765	1.0505186
58	0x3f825aba	1.0183938
59	0x3f87714c	1.058145
60	0x3f888023	1.0664104
61	0x3f845fd1	1.0341741
62	0x3f8b719c	1.0894046
63	0x3f87c0dc	1.0605731

base.mlp.fc2.0.2.bias f4 [64]
0	0xbc9ec432	-0.019380663
1	0xbbc6fd17	-0.006072651
2	0x3bc3c932	0.005974912
3	0xbc774fd5	-0.015094717
4	0x3c025f5b	0.007957305
5	0xbaa9cce9	-0.0012954745
6	0xbb90aed6	-0.0044153733
7	0xbc3a26e2	-0.011361809
8	0x3c9b0943	0.018925315
9	0x3c85f5d6	0.016352575
10	0x3c729752	0.014806585
11	0xbc7dde4e	-0.015494896
12	0x3bd1ebb4	0.006406272
13	0xbc20e08e	-0.009819163
14	0x3bd0883f	0.006363898
15	0xbb53e76c	-0.0032333983
16	0xbc126db8	-0.008937292
17	0xbbcd9f8b	-0.0062751225
18	0xbc368b50	-0.011141613
19	0x3c87e660	0.016589344
20	0xbbc262c2	-0.005932183
21	0xbc419979	-0.011816376
22	0xbc35116e	-0.011051519
23	0x3b8cb00c	0.0042934474
24	0x3b023211	0.0019866268
25	0x3c710c94	0.0147124715
26	0x3c26fe61	0.010192485
27	0xbbbb3de1	-0.0057141636
28	0xbcb0edaf	-0.021597711
29	0xbc1e6e86	-0.0096699055
30	0x3c872be6	0.016500425
31	0x3b1d88d7	0.0024037862
32	0x3bbcdce2	0.005763636
33	0xbb8228f9	-0.0039721695
34	0x3bc135fd	0.0058963285
35	0xbbcd314b	-0.0062619797
36	0x3c8fe5bc	0.0175656
37	0xbc9b0ade	-0.01892608
38	0xbc52615b	-0.012840594
39	0x3c73c388	0.014878161
40	0xbc9002dc	-0.017579488
41	0x3cad39e2	0.021145765
42	0xbc7763e9	-0.015099504
43	0x3b96fe25	0.004607933
44	0xbc59f6eb	-0.013303499
45	0xbc8de9a3	-0.01732332
46	0xbc7ae206	-0.015312677
47	0xbacb1129	-0.0015492785
48	0x3c81c8e0	0.015842855
49	0x3c8b0a13	0.016972577
50	0xbc1b3cdf	-0.009474962
51	0x3c021a79	0.007940882
52	0xbc833ded	-0.01602074
53	0xbc1239ef	-0.008924945
54	0x3c164b7e	0.009173272
55	0x3c1b7c67	0.009490109
56	0x3c6574a0	0.014004856
57	0xbc0c0d40	-0.008548081
58	0xbb324fd1	-0.0027208219
59	0xbc13dcf8	-0.009024851
60	0x3b19d53d	0.0023473047
61	0xbbe902a9	-0.007110913
62	0xbc27d296	-0.010243079
63	0xbc0f46f1	-0.008744941

act.action_out.log_std f4 [3]
0	0x3f949819	1.1608917
1	0x3f91052f	1.1329707
2	0x3f957e0b	1.167909

act.action_out.fc_mean.weight f4 [3, 64]
0	0xbcc2eede	-0.023795541
1	0x3b8aba7a	0.0042336555
2	0x3ca7c60c	0.020480178
3	0x3c25087e	0.0100728255
4	0xbcf5d9db	-0.030011108
5	0xbd08d4d4	-0.033406094
6	0xbcf554ba	-0.029947627
7	0x3b84ad4b	0.0040489784
8	0x3cf3f606	0.029780399
9	0xbcad06dc	-0.021121435
10	0x3d3590be	0.04432749
11	0xbc789154	-0.015171368
12	0xbcf0fc42	-0.02941716
13	0xbc85acd5	-0.016317764
14	0xbc5647da	-0.013078654
15	0xbc62dccb	-0.013846586
16	0xbbd044b8	-0.006355848
17	0xbd03ba64	-0.032160178
18	0xbb9e01e2	-0.004822002
19	0x3ab3cb4a	0.0013717201
20	0xbce9d66c	-0.028544627
21	0xbc02b8da	-0.007978642
22	0xbc6ef6f8	-0.014585249
23	0x3d042135	0.03225823
24	0x3c3f1745	0.011663263
25	0xbb2f769e	-0.0026773582
26	0x3c47ebec	0.012202244
27	0xbc2c2888	-0.01050771
28	0xbc3ba9d8	-0.011454068
29	0xbc7dec08	-0.015498169
30	0x3bf94eda	0.007608277
31	0x3b979d22	0.004626886
32	0x3d25352b	0.040333908
33	0xbc4609d7	-0.012087307
34	0xbca3114c	-0.019905709
35	0xbc4a9577	-0.012364737
36	0x3c5baa3b	0.013407285
37	0xbc8624eb	-0.016375026
38	0x3b922137	0.004459526
39	0x3be095f6	0.0068538142
40	0xbd22ddd1	-0.03976232
41	0x3cc435a1	0.023951354
42	0x3c22ebc9	0.009943911
43	0xbc044c4f	-0.008074834
44	0xbd1bfcea	-0.038082995
45	0xbcdcb4ed	-0.02694174
46	0xbcfa035f	-0.030519186
47	0xbb1700d1	-0.0023041258
48	0x3d0d9336	0.03456422
49	0x3c475221	0.012165577
50	0x3b8b405c	0.0042496156
51	0x3ccf4d4a	0.025305409
52	0xbbe01918	-0.006838929
53	0xbc58d140	-0.013233483
54	0x3cf3b039	0.029747115
55	0x3d205b39	0.039149497
56	0x3ccb00b2	0.024780605
57	0x3b7dd0a6	0.00387291
58	0xbc23f3ec	-0.010006886
59	0xbc71d53d	-0.014760313
60	0x3c805bdb	0.0156688
61	0xbca278be	-0.019832965
62	0x3aa05ee0	0.0012235306
63	0xbcd7aa77	-0.026326401
64	0x3d409f8f	0.047027167
65	0x3d3038c7	0.043022897
66	0x3d2322eb	0.039828222
67	0x3c8825e7	0.016619636
68	0xbb7b9162	-0.0038386215
69	0x3b81681f	0.00394918
70	0x3d1c0d2d	0.038098503
71	0xbd0cf3e1	-0.03441227
72	0xbd862530	-0.06550062
73	0xbce02528	-0.027361467
74	0x3c825802	0.015911106
75	0x3d38f63c	0.045156702
76	0x3be19e57	0.0068853307
77	0xbca3b902	-0.01998568
78	0xbd8ae1f9	-0.06781382
79	0x3d4a06ce	0.049322896
80	0xbd367572	-0.0445456
81	0xbc982ed5	-0.018577019
82	0xbb4946c9	-0.0030712357
83	0xbd6ad226	-0.05732932
84	0xbadc628c	-0.0016814037
85	0xbc8d6fd4	-0.017265238
86	0xbc0e46f8	-0.008683912
87	0x3d49db0e	0.049281172
88	0x3ce455f3	0.027873015
89	0xbd107937	-0.03527185
90	0xbd515910	-0.051110327
91	0xbcb69510	-0.022287875
92	0x3d563c22	0.05230344
93	0xbb9c50e3	-0.0047703846
94	0xbd31d78d	-0.043418456
95	0x3ca42fbb	0.02004229
96	0x3d733b27	0.059382584
97	0xbd3d73e6	-0.046253107
98	0x3cceb5d9	0.025233196
99	0xbd008649	-0.031378064
100	0xbcf22b52	-0.029561672
101	0x3d071aba	0.032984473
102	0x3d4d1591	0.050069395
103	0xbc66c34c	-0.014084648
104	0x3cba88ed	0.02277037
105	0xbd90633d	-0.07050178
106	0xbcf2efe7	-0.02965541
107	0xbc0f2222	-0.008736165
108	0x3b8523bb	0.0040630973
109	0x3cbf968d	0.023387218
110	0x3d693062	0.056930907
111	0x3cfe02c1	0.031007173
112	0xbd2942c0	-0.041323423
113	0xbc856736	-0.016284566
114	0xbc9ac8a2	-0.018894497
115	0x3d00b7d8	0.031425327
116	0x3abe8e42	0.0014538246
117	0xbcda4f44	-0.026649125
118	0x3c27d700	0.010244131
119	0xbcb18150	-0.021668106
120	0xbbb05b82	-0.0053820023
121	0x3b8a9e1c	0.004230274
122	0x3c79a03b	0.015235956
123	0xbd06afb1	-0.032882396
124	0x3d6efeb4	0.058348373
125	0xbca44335	-0.020051578
126	0x3c9be334	0.019029237
127	0xbbc3939a	-0.005968523
128	0x3c2596f4	0.010106791
129	0xbc26d50d	-0.010182631
130	0xbcb9b7d3	-0.022670662
131	0x3d4c13c3	0.049823534
132	0x3d0462dc	0.032320842
133	0xbd1ca20b	-0.038240474
134	0xbbac08a9	-0.005250056
135	0x3c61156c	0.0137380175
136	0x3c368418	0.011139892
137	0x3d466c0a	0.048442878
138	0xbd1cb26d	-0.038256098
139	0x3ca76a6a	0.020436484
140	0x3c69bccc	0.014266204
141	0xbd78516e	-0.060624532
142	0xbc98c5fd	-0.018649096
143	0x3bbec464	0.0058217514
144	0xbd8055fc	-0.062664
145	0xbc6903aa	-0.014222065
146	0xbcaca8ca	-0.021076579
147	0x3d1fd0c6	0.03901746
148	0xbd9ec9a2	-0.07753302
149	0xbca204af	-0.019777624
150	0xbc8aea77	-0.016957505
151	0x3d64412b	0.05572621
152	0xbb2c26a1	-0.0026268142
153	0x3d20942a	0.0392038
154	0xbd73d13c	-0.059525713
155	0xbccf8cb7	-0.025335653
156	0x3bd15c49	0.006389175
157	0xbdb9fbc4	-0.090812236
158	0x3d4e8fa5	0.05042996
159	0x3c218af6	0.009859791
160	0xbcb68a1a	-0.022282649
161	0xbc104c19	-0.008807206
162	0x3d656409	0.056003604
163	0xbcc68c31	-0.02423677
164	0xbb9db826	-0.004813212
165	0x3cd57ac3	0.026059514
166	0xbc8c440b	-0.01712229
167	0xbc4f91f5	-0.012669076
168	0x3cd75d6d	0.026289666
169	0x3c5f1bf6	0.013617506
170	0xbcc217ed	-0.02369305
171	0xbc83959f	-0.016062556
172	0x3c65e761	0.014032216
173	0xbc6fe896	-0.014642855
174	0xbb8ee356	-0.0043605966
175	0x3cda874e	0.026675846
176	0x3d5b03e9	0.053470526
177	0xbca0c351	-0.019624384
178	0x3cdf69ea	0.027272183
179	0xbbe45553	-0.0069681793
180	0x3c281195	0.010258098
181	0x3d53b0e5	0.05168237
182	0xbc45db1c	-0.0120761655
183	0x3d235b2c	0.03988187
184	0xbcdc36b8	-0.02688156
185	0xbd4fa2e9	-0.050692473
186	0xbb18b2b9	-0.0023299886
187	0x3d359ee6	0.04434099
188	0x3ceef2df	0.029168544
189	0xbc92256c	-0.01784011
190	0xbdb4128c	-0.087926
191	0x3d5eecc9	0.054425035

act.action_out.fc_mean.bias f4 [3]
0	0x3c325b7a	0.0108860675
1	0xbbd07c1c	-0.0063624512
2	0x3bf1a80f	0.0073747705
