ami_mujoco/ckpt/mujoco/Walker2d-v2_2x3/victim/critic.pt (torch, 26433 bytes, 11 tensors)

base.feature_norm.weight f4 [17]
6.6376204 10.016352 8.945418 5.472763 4.3036375 8.890037 5.1244187 3.6733603
4.9405346 3.025662 2.235121 1.1885597 0.6082835 0.1831351 1.1036841 0.60000443
0.100483105
00000000: 6367 d440 fa42 2041 6f20 0f41 e020 af40
00000010: 66b7 8940 973d 0e41 3dfb a340 5618 6b40
00000020: dc18 9e40 72a4 4140 390c 0f40 b922 983f
00000030: 78b8 1b3f c587 3b3e 8545 8d3f e499 193f
00000040: 16ca cd3d

base.feature_norm.bias f4 [17]
-0.48537832 0.43046206 0.095351346 0.35230696 -0.26327085 0.12270282 0.45305115 -0.23533918
-0.5403837 -0.009086509 -0.14218564 0.15175483 -0.11437834 -0.0077700536 0.29122514 -0.35629246
0.0815362
00000000: 8283 f8be 8665 dc3e 9147 c33d 9461 b43e
00000010: 70cb 86be 9e4b fb3d 52f6 e73e c1fc 70be
00000020: 9656 0abf 95df 14bc 1d99 11be 9e65 1b3e
00000030: 313f eabd ef9b febb 761b 953e f76b b6be
00000040: 74fc a63d

base.mlp.fc1.0.weight f4 [64, 17]
4.9071283 -2.153117 3.423283 -1.1180558 -4.0196233 -1.3164068 -0.18320481 -1.3300196
-4.661908 4.0546594 -1.23964 5.818009 1.6924754 3.9362068 -2.8442657 -0.31702456
0.7031704 4.0327415 4.3355536 -3.8357031 -3.1311913 1.2657702 -0.7871004 -2.36195
0.7528234 -3.5924125 1.5855807 0.89296275 -0.4738764 -0.2898176 1.4577873 -0.71681434
-0.18927906 0.21206108 3.1954844 -1.513907 -2.0623353 1.3018888 1.8116146 0.08990467
2.3141584 0.8929232 -4.3103094 1.2514867 7.1363974 -5.621188 -5.441965 0.5583435
-4.9477286 -3.967601 -0.12142784 -9.63643 1.5989964 -0.14975536 -0.76044476 8.011998
-0.49085662 -1.1137577 6.0206904 1.558261 0.48391008 -0.5414335 -0.16716525 -0.927369
-0.15915911 0.30887082 -0.43352327 -0.16898663 1.813758 1.1939408 -5.1955657 -6.5277967
0.24310474 2.135795 5.719856 4.2556458 -2.3032176 1.1927539 1.847903 -1.6546445
-0.6169525 -0.816024 0.11918016 0.4421847 0.21145004 5.974847 7.1132684 -6.448219
3.3918717 0.51388884 -4.804725 2.4655268 -4.1459684 -2.7676265 -5.3526382 3.2882926
-1.6037904 0.13358048 1.4781777 0.4835288 0.30413112 -0.26747185 -1.8893158 -1.3278563
0.9052487 1.1922413 3.8450122 1.0147686 -4.4719687 -0.45990843 -0.27125117 5.356321
3.4522386 -0.661447 -2.1289775 0.8901604 -2.9982994 -0.39903826 0.31250262 2.6992776
-1.6430166 5.9224043 5.985911 1.8419386 -7.3126802 -3.9114456 -0.9030764 -1.9904432
-0.032679394 0.27312592 0.97273594 1.2896843 1.4090104 -0.97215533 0.5041807 -0.7109129
-7.1004047 -5.083791 3.8983915 -1.3772417 6.342582 0.81319827 1.4903663 4.986346
2.7919118 -1.783463 -0.005139418 -0.77709234 -0.99949753 -0.347222 -0.3762968 -1.2551624
-0.5373557 0.6083525 -7.9399796 1.767787 5.4391847 -1.8104593 6.6350694 -0.07225979
-2.178854 -0.9775702 -2.9909043 -0.31326643 0.21463777 1.6948689 0.15712325 1.2106771
2.5372307 0.34966886 1.3663843 -2.612379 -1.0517702 0.7486347 -1.1327239 3.4138827
-1.950046 3.313549 -5.921584 7.152614 -1.3642544 -1.8370101 -1.3493052 -0.38587815
2.4399092 -2.8308787 -0.48465326 -1.3583547 -4.741146 5.089683 -0.94416386 -2.8510098
2.095423 3.2189631 3.0868227 -7.292959 3.3521557 0.43310818 0.30883092 0.5651128
0.32130706 -0.5360628 1.0264202 -1.1836112 -9.203426 -1.1801479 1.6490059 3.2737765
0.027736032 2.0652106 2.7294004 0.325906 1.8233043 1.1988276 -4.238923 -2.0737927
1.7478411 0.32747552 -1.6083914 1.5432485 0.06777818 4.640903 -3.5227294 -0.052685473
-2.081225 0.99332845 0.62027055 -0.18348472 -0.004267893 0.7436668 1.8267906 1.0615183
-0.7733571 -1.4977772 0.2904346 -0.46604723 -0.18872568 0.09551492 0.24753423 -3.3963277
6.075428 8.313576 1.6348913 -3.5059578 -5.010209 -0.32133424 -3.9561265 0.15457076
1.4148763 0.21826051 0.92456454 0.24839817 -1.4569349 -0.3899971 -0.55733275 1.9302953
00000000: 3207 9d40 abcc 09c0 1217 5b40 741c 8fbf
00000010: c1a0 80c0 0580 a8bf 0b9a 3bbe 153e aabf
00000020: 5a2e 95c0 c5bf 8140 86ac 9ebf 212d ba40
00000030: 09a3 d83f d0ea 7b40 7308 36c0 0b51 a2be
00000040: fa02 343f 380c 8140 dbbc 8a40 297c 75c0
00000050: 7065 48c0 c204 a23f 697f 49bf 302a 17c0
00000060: 09b9 403f 16ea 65c0 4ff4 ca3f 3599 643f
00000070: ed9f f2be f962 94be c698 ba3f 2581 37bf
00000080: 5fd2 41be 8a26 593e d182 4c40 b4c7 c1bf
00000090: 4dfd 03c0 4ba4 a63f fde2 e73f f11f b83d
000000a0: 2c1b 1440 9d96 643f 0eee 89c0 b730 a03f
000000b0: 5e5d e440 c6e0 b3c0 9424 aec0 9aef 0e3f
000000c0: cb53 9ec0 2ded 7dc0 29af f8bd d12e 1ac1
000000d0: eaab cc3f 7859 19be 82ac 42bf 2531 0041
000000e0: 8f51 fbbe 9d8f 8ebf 7fa9 c040 1975 c73f
000000f0: 10c3 f73e 639b 0abf 5e2d 2bbe 0e68 6dbf
00000100: 9bfa 22be 5124 9e3e c3f6 ddbe d50a 2dbe
00000110: 3929 e83f 0dd3 983f 1342 a6c0 b6e3 d0c0
00000120: 73f0 783e deb0 0840 0f09 b740 402e 8840
00000130: eb67 13c0 29ac 983f 1688 ec3f 64cb d3bf
00000140: 99f0 1dbf f3e6 50bf ba14 f43d 0866 e23e
00000150: 5c86 583e f231 bf40 e59f e340 cf57 cec0
00000160: 6d14 5940 388e 033f 4fc0 99c0 31cb 1d40
00000170: c6ab 84c0 cb20 31c0 d048 abc0 6373 5240
00000180: 0149 cdbf 52c9 083e ed34 bd3f 1691 f73e
00000190: 13b7 9b3e 12f2 88be 1ad5 f1bf 32f7 a9bf
000001a0: 61be 673f 5d9b 983f ae14 7640 f0e3 813f
000001b0: 5e1a 8fc0 1e79 ebbe 6fe1 8abe fb66 ab40
000001c0: 7af1 5c40 9754 29bf 2b41 08c0 8de1 633f
000001d0: 23e4 3fc0 be4e ccbe 5800 a03e f7c0 2c40
000001e0: 5e4e d2bf 5684 bd40 958c bf40 a5c4 eb3f
000001f0: 7a01 eac0 2055 7ac0 0430 67bf d8c6 febf
00000200: d4da 05bd 29d7 8b3e 3905 793f 6014 a53f
00000210: 745a b43f 2cdf 78bf fd11 013f 63fe 35bf
00000220: 8436 e3c0 6aae a2c0 3f7f 7940 7549 b0bf
00000230: 6ff6 ca40 c32d 503f 53c4 be3f 2590 9f40
00000240: afae 3240 8448 e4bf 9068 a8bb 86ef 46bf
00000250: 12df 7fbf 15c7 b1be f9a9 c0be 29a9 a0bf
00000260: 2590 09bf fdbc 1b3f 5014 fec0 d846 e23f
00000270: cd0d ae40 21bd e7bf 7d52 d440 f1fc 93bd
00000280: 5872 0bc0 0a42 7abf fa6a 3fc0 7564 a0be
00000290: 01ca 5b3e 77f1 d83f ebe4 203e 78f7 9a3f
000002a0: fd61 2240 cc07 b33e aee5 ae3f 3831 27c0
000002b0: 68a0 86bf 86a6 3f3f 19fd 90bf 0e7d 5a40
000002c0: 1b9b f9bf 3011 5440 9e7d bdc0 37e2 e440
000002d0: e39f aebf 2623 ebbf 08b6 acbf d291 c5be
000002e0: 7927 1c40 1e2d 35c0 7924 f8be 91de adbf
000002f0: 78b7 97c0 afde a240 b9b4 71bf f276 36c0
00000300: 691b 0640 7e03 4e40 818e 4540 ec5f e9c0
00000310: b889 5640 5bc0 dd3e 161f 9e3e 3cab 103f
00000320: 5c82 a43e 693b 09bf bd61 833f 9280 97bf
00000330: 3c41 13c1 160f 97bf a012 d33f 8e85 5140
00000340: ad36 e33c 692c 0440 7fae 2e40 27dd a63e
00000350: 0962 e93f 2f73 993f 42a5 87c0 05b9 04c0
00000360: 42b9 df3f dfaa a73e c5df cdbf 2b89 c53f
00000370: 49cf 8a3d 4782 9440 6674 61c0 b9cc 57bd
00000380: ca32 05c0 c64a 7e3f 0dca 1e3f 6be3 3bbe
00000390: aed9 8bbb f360 3e3f 46d4 e93f d5df 873f
000003a0: bbfa 45bf 2ab7 bfbf d8b3 943e be9d eebe
000003b0: 4e41 41be 549d c33d 9d79 7d3e 6f5d 59c0
000003c0: e869 c240 6804 0541 1e44 d13f 9d61 60c0
000003d0: a253 a0c0 ec85 a4be 2d31 7dc0 cc47 1e3e
000003e0: ab1a b53f af7f 5f3e 43b0 6c3f 175c 7e3e
000003f0: d87c babf b3ad c7be 5cad 0ebf eb13 f73f

base.mlp.fc1.0.bias f4 [64]
-1.3425016 2.9785905 0.11806727 -0.92347074 2.8398407 -4.2925477 0.3273822 1.8832197
3.1044505 -0.8215085 -1.0890049 -4.2947907 -4.545268 5.025747 -0.81372184 -4.7900233
-0.6529006 0.46611503 -3.3787396 -2.1886473 -1.3910896 -4.7407036 1.4176762 5.3730936
-0.6817623 -0.030745395 -1.2064716 -4.5575075 -4.3925753 -0.9437622 0.8455043 3.619239
-1.0566493 -4.1117005 6.4406853 1.1739361 -3.5252962 1.7637901 -4.164451 -2.3536325
1.0461308 1.2852528 -3.3825486 -2.7624383 0.17945541 -4.8247375 0.12444206 -6.554853
2.8819149 -0.61227995 -1.6857408 0.61038846 -5.9204335 2.8108873 3.655627 0.2648323
-2.7814057 3.4138315 2.4998703 -2.0171323 -2.447973 1.0021693 0.042098816 1.3042858
00000000: 18d7 abbf 3aa1 3e40 41cd f13d 9468 6cbf
00000010: f3bf 3540 8d5c 89c0 a49e a73e 580d f13f
00000020: 51af 4640 624e 52bf 8364 8bbf ed6e 89c0
00000030: d672 91c0 ebd2 a040 1350 50bf df47 99c0
00000040: 7e24 27bf a1a6 ee3e 453d 58c0 cc12 0cc0
00000050: 390f b2bf d8b3 97c0 6a76 b53f 62f0 ab40
00000060: f987 2ebf c4dd fbbc a96d 9abf 1ad7 91c0
00000070: fa8f 8cc0 669a 71bf f872 583f 9da1 6740
00000080: 4940 87bf 0d93 83c0 181a ce40 8a43 963f
00000090: 749e 61c0 e0c3 e13f 2f43 85c0 eaa1 16c0
000000a0: 9de7 853f 2a83 a43f ad7b 58c0 cacb 30c0
000000b0: 29c3 373e 4064 9ac0 7bdb fe3d 5bc1 d1c0
000000c0: 4b71 3840 61be 1cbf 5bc6 d7bf 6b42 1c3f
000000d0: 3174 bdc0 94e5 3340 cbf5 6940 1998 873e
000000e0: 8d02 32c0 377c 5a40 e0fd 1f40 b218 01c0
000000f0: 97ab 1cc0 1547 803f cf6f 2c3d d6f2 a63f

base.mlp.fc1.2.weight f4 [64]
2.293802 1.3042753 3.4328501 6.4243927 2.6492052 1.15468 -1.6964016 3.6707308
2.105363 7.312514 2.3973405 6.5516105 5.5117483 2.521242 7.7414107 3.6484869
1.4147772 1.0022961 3.961652 7.6748066 2.9747264 4.87951 2.247231 2.6283607
4.0866213 6.1647234 1.9500722 4.366088 4.2019615 2.986072 6.7562447 3.7453206
3.2220001 5.6849174 1.1790864 1.3130115 4.057009 4.414795 4.5027075 4.2114987
5.712341 4.3363905 3.6333773 -3.3121974 1.9131166 2.1545677 5.243409 4.8729568
1.728162 6.3292446 8.510753 0.55259514 5.4848385 4.1053896 0.8440741 1.9367527
3.6666093 2.321839 1.7407353 6.3728137 -5.113687 3.6662745 2.6641753 4.2885113
00000000: a7cd 1240 7ef2 a63f d1b3 5b40 a094 cd40
00000010: 948c 2940 8ecc 933f b023 d9bf 41ed 6a40
00000020: 44be 0640 1d00 ea40 076e 1940 cba6 d140
00000030: 3e60 b040 075c 2140 a3b9 f740 cf80 6940
00000040: 6b17 b53f 3d4b 803f b58b 7d40 0498 f540
00000050: eb61 3e40 f224 9c40 a2d2 0f40 1037 2840
00000060: 9ac5 8240 6a45 c540 f79b f93f feb6 8b40
00000070: 7876 8640 ce1b 3f40 2833 d840 55b3 6f40
00000080: 4035 4e40 d8ea b540 4eec 963f c310 a83f
00000090: 05d3 8140 0046 8d40 2e16 9040 99c4 8640
000000a0: 7fcb b640 b6c3 8a40 4189 6840 0bfb 53c0
000000b0: 01e1 f43f 70e4 0940 02ca a740 43ef 9b40
000000c0: 6a34 dd3f 2c89 ca40 0b2c 0841 e076 0d3f
000000d0: cc83 af40 5a5f 8340 3d15 583f 83e7 f73f
000000e0: baa9 6a40 0399 1440 6ad0 de3f 17ee cb40
000000f0: 53a3 a3c0 3ea4 6a40 d981 2a40 7c3b 8940

base.mlp.fc1.2.bias f4 [64]
-0.22942911 -2.2463746 0.8035877 0.25637528 -2.8739674 0.496582 1.0257659 1.5118016
-1.1542932 0.8635194 0.20009007 1.5189751 2.1893516 -3.2787352 2.757231 1.798898
-3.6558607 -0.32544044 1.0293876 3.4322748 -0.8955796 1.7173045 -0.26525688 0.3094689
2.2188764 1.9772016 0.12344742 0.71446687 0.6061631 0.899586 1.9966831 -3.1168356
-0.25980672 2.7041776 -1.4022347 -1.4750041 0.5796083 0.4361352 2.2449133 2.957333
0.89212 -0.23732299 1.6239946 -0.15219136 0.3862991 0.33864158 2.3256924 4.036605
-0.49317566 2.5372627 1.3261608 -0.8130613 2.604918 -3.4641163 -0.9550589 -1.6214949
1.1821185 -1.8928194 -0.7142719 -1.2110951 -2.686701 -1.0047128 -3.2071016 1.5692174
00000000: 77ef 6abe 9ac4 0fc0 ecb7 4d3f 9f43 833e
00000010: 15ef 37c0 ff3f fe3e 4c4c 833f b782 c13f
00000020: e1bf 93bf 9b0f 5d3f 69e4 4c3e c76d c23f
00000030: 561e 0c40 ccd6 51c0 7976 3040 4a42 e63f
00000040: 9ff9 69c0 21a0 a6be f9c2 833f 64aa 5b40
00000050: b444 65bf a2d0 db3f c0cf 87be b572 9e3e
00000060: 1202 0e40 f114 fd3f 00d2 fc3d 4de7 363f
00000070: 812d 1b3f 454b 663f 5093 ff3f 3c7a 47c0
00000080: 6305 85be 3f11 2d40 6d7c b3bf efcc bcbf
00000090: 3661 143f 1d4d df3e a9ac 0f40 f244 3d40
000000a0: fa61 643f cc04 73be 0edf cf3f 0dd8 1bbe
000000b0: ffc8 c53e 6e62 ad3e 25d8 1440 de2b 8140
000000c0: 8581 fcbe 8362 2240 a3bf a93f c924 50bf
000000d0: fab6 2640 15b4 5dc0 bd7e 74bf 258d cfbf
000000e0: a94f 973f e847 f2bf 86da 36bf 2a05 9bbf
000000f0: e9f2 2bc0 6e9a 80bf 2741 4dc0 1edc c83f

base.mlp.fc2.0.0.weight f4 [64, 64]
2.7805545 -1.5232142 -1.3622808 0.91835517 3.037158 -0.43465117 -0.10878939 -2.5932617
-0.1311477 4.1228943 4.841564 0.7328207 -0.032287657 3.1926384 -1.5744911 -2.3550277
2.639682 -4.7615185 -6.015954 4.7480836 -5.6682663 4.765745 0.7998021 1.6673846
5.4212494 -1.3904829 6.974248 4.558557 1.2308502 3.057593 -1.1235578 -7.289029
3.1245413 -1.6981213 -0.826776 1.541567 6.8562107 2.604794 3.1597333 -0.48425788
-1.227836 6.418154 -0.99805444 -1.3329923 -2.560144 3.4609253 -11.177642 3.1239483
3.4028223 -1.8306204 -1.905978 0.7532545 -3.030258 3.0670247 -0.07562701 -1.3247582
-2.7476733 -1.5402075 1.9644727 -8.7531395 3.6835763 0.44299066 -8.210846 -2.7954247
-2.0023487 -1.8648762 -3.2392046 -0.39160988 4.2656074 -2.5774949 -1.6492729 -6.5890403
2.1063375 0.4642886 -1.6783218 0.008397406 -0.85956943 1.7773875 0.9815915 -2.4595833
1.49276 0.6478623 0.1931473 -0.24656434 -2.1695101 1.928427 1.1252075 -0.024732394
0.7956992 1.1619753 -3.5628505 0.42545736 -1.1503549 2.8745482 0.8175331 -3.416098
2.9887133 1.077609 2.2918253 1.5029933 0.11356013 2.7435827 -4.6704006 1.6147192
1.5054562 -0.1611266 2.9535902 -1.1500064 0.61040074 0.01714859 -0.36567718 -1.5707514
0.1966022 0.14677043 2.2968974 1.7417359 1.5452836 2.1311305 0.8430027 -0.14182511
5.4753623 -5.017816 0.8600516 -0.31247547 -1.980435 1.2835194 -0.40290654 1.7454146
-0.30438918 -5.153193 -1.9392474 1.8327266 -1.530177 0.75378436 -1.829016 -2.6688783
2.591414 15.928371 -3.0472245 9.499909 -5.527891 -3.5551617 5.993217 1.0479456
2.721102 -0.6850563 2.0589907 1.1096572 -3.557132 8.490505 -1.60865 -3.9992425
0.20807657 1.5513241 -0.57635456 -0.22979501 2.9017947 2.892919 5.8719406 -6.2294636
0.92562574 0.56647533 -3.0007937 -0.5251409 0.7056585 -3.3764677 0.31686687 -0.39033416
11.762055 2.5090458 0.52809685 -1.9955065 -2.964496 1.6221498 6.8386583 1.4390252
-0.23249196 3.6279116 12.238286 -2.538172 -1.4179618 -0.10984295 1.6305345 -1.9311116
-1.604963 0.72935367 -1.2418733 1.819488 3.0762844 -2.32697 0.443074 5.371279
-1.397916 0.20791747 5.966371 -1.3970097 1.0646377 7.348873 0.9895706 -0.67540336
-0.30922776 -0.5851842 1.2525654 -6.9353 1.5522916 -1.602435 -4.1747394 4.797331
-0.40812796 5.5846496 8.859472 -4.19603 2.2389364 -6.1214795 1.0876994 5.7728944
1.2090098 -5.500776 -1.5645566 -0.89221287 -6.299142 -6.074635 -4.4407377 4.6069517
-4.076191 6.388077 5.4058385 -4.781292 -4.0255876 -1.7254751 -0.6810778 4.254575
1.5198278 -0.958172 4.446833 3.687754 1.8458604 -3.244595 -2.7898834 -6.8637414
-6.2845607 -6.369047 -2.5273767 -1.3588301 3.341134 -0.47039458 0.5912846 -3.920872
3.127317 4.6760955 1.9978424 -0.91337836 1.171804 0.4222411 2.808796 0.23009478
00000000: 9bf4 3140 aff8 c2bf 385f aebf 5319 6b3f
00000010: cc60 4240 998a debe f9cc debd 00f8 25c0
00000020: 954b 06be c0ee 8340 18ee 9a40 239a 3b3f
00000030: 1040 04bd 3054 4c40 ed88 c9bf c6b8 16c0
00000040: 8df0 2840 5c5e 98c0 b282 c0c0 4df0 9740
00000050: 7062 b5c0 fc80 9840 d5bf 4c3f dc6c d53f
00000060: e07a ad40 58fb b1bf 0a2d df40 b3df 9140
00000070: 808c 9d3f 9baf 4340 bed0 8fbf ba3f e9c0
00000080: 7cf8 4740 0a5c d9bf 98a7 53bf 1152 c53f
00000090: 1466 db40 f2b4 2640 1239 4a40 a6f0 f7be
000000a0: bb29 9dbf 8461 cd40 7f80 7fbf 7e9f aabf
000000b0: 66d9 23c0 cd7f 5d40 9fd7 32c1 c5ee 4740
000000c0: d7c7 5940 c551 eabf 16f7 f3bf 49d5 403f
000000d0: bfef 41c0 224a 4440 55e2 9abd ad91 a9bf
000000e0: e1d9 2fc0 8525 c5bf d773 fb3f dc0c 0cc1
000000f0: b7bf 6b40 accf e23e a05f 03c1 3de8 32c0
00000100: 7b26 00c0 43b4 eebf 214f 4fc0 1781 c8be
00000110: db7f 8840 adf5 24c0 601b d3bf 6bd9 d2c0
00000120: 3cce 0640 3cb7 ed3e 40d3 d6bf 4695 093c
00000130: be0c 5cbf 6f81 e33f 9549 7b3f d069 1dc0
00000140: c212 bf3f 4eda 253f 68c8 453e 5d7b 7cbe
00000150: 41d9 0ac0 b2d6 f63f cd06 903f 979b cabc
00000160: f1b2 4b3f 9bbb 943f be05 64c0 8cd5 d93e
00000170: d43e 93bf 99f8 3740 d949 513f 5aa1 5ac0
00000180: 1447 3f40 17ef 893f 44ad 1240 1662 c03f
00000190: 3792 e83d dc96 2f40 ec73 95c0 1eaf ce3f
000001a0: cab2 c03f 5ffe 24be 9f07 3d40 6933 93bf
000001b0: 3943 1c3f 337b 8c3c 0a3a bbbe 620e c9bf
000001c0: 1652 493e fd4a 163e 5e00 1340 34f1 de3f
000001d0: dacb c53f 7164 0840 06cf 573f 9a3a 11be
000001e0: 2b36 af40 f391 a0c0 572c 5c3f c9fc 9fbe
000001f0: e57e fdbf 5d4a a43f c449 cebe bf69 df3f
00000200: e6d8 9bbe f5e6 a4c0 4239 f8bf c996 ea3f
00000210: d7dc c3bf 03f8 403f 321d eabf e7ce 2ac0
00000220: bad9 2540 9cda 7e41 ba05 43c0 a1ff 1741
00000230: 7ce4 b0c0 c587 63c0 6fc8 bf40 1523 863f
00000240: 8926 2e40 da5f 2fbf 81c6 0340 3f09 8e3f
00000250: 0da8 63c0 1cd9 0741 3ee8 cdbf 97f3 7fc0
00000260: 0612 553e ca91 c63f f98b 13bf 624f 6bbe
00000270: 01b7 3940 9625 3940 f0e6 bb40 c457 c7c0
00000280: cff5 6c3f 8704 113f 010d 40c0 a26f 06bf
00000290: 09a6 343f 0c18 58c0 603c a23e e1d9 c7be
000002a0: 6131 3c41 3594 2040 5b31 073f c26c ffbf
000002b0: 4dba 3dc0 9ba2 cf3f 4ad6 da40 fa31 b83f
000002c0: 5f12 6ebe b42f 6840 05d0 4341 6971 22c0
000002d0: c67f b5bf 57f5 e0bd 5bb5 d03f aa2e f7bf
000002e0: 6d6f cdbf ecb6 3a3f b4f5 9ebf fce4 e83f
000002f0: d8e1 4440 14ed 14c0 98da e23e 84e1 ab40
00000300: e9ee b2bf 51e8 543e 83ec be40 37d1 b2bf
00000310: 0c46 883f f829 eb40 8054 7d3f 3ce7 2cbf
00000320: 1a53 9ebe a2ce 15bf 1054 a03f faed ddc0
00000330: 7eb1 c63f 971c cdbf 7797 85c0 bc83 9940
00000340: 26f6 d0be 73b5 b240 66c0 0d41 e145 86c0
00000350: bc4a 0f40 29e3 c3c0 bc39 8b3f 8dbb b840
00000360: d5c0 9a3f 5b06 b0c0 6443 c8bf 1068 64bf
00000370: 9292 c9c0 6963 c2c0 861a 8ec0 266c 9340
00000380: 2870 82c0 206b cc40 a1fc ac40 5800 99c0
00000390: 9dd1 80c0 5edc dcbf 1d5b 2ebf 7a25 8840
000003a0: b889 c23f c34a 75bf 754c 8e40 2904 6c40
000003b0: 2745 ec3f 72a7 4fc0 738d 32c0 c5a3 dbc0
000003c0: 1f1b c9c0 3ccf cbc0 8ac0 21c0 25ee adbf
000003d0: 24d5 5540 8fd7 f0be 6d5e 173f 91ef 7ac0
000003e0: f625 4840 93a2 9540 4db9 ff3f 2ad3 69bf
000003f0: acfd 953f fc2f d83e 50c3 3340 f79d 6b3e

base.mlp.fc2.0.0.bias f4 [64]
1.2743481 0.21736678 -1.8448514 -2.7581217 -3.805858 -1.077434 -4.4822674 -0.61271435
-1.4789668 0.33919245 -2.4900048 -1.7598443 0.5891389 2.869351 -2.7046597 -0.40828833
-1.6329956 -1.820446 -4.004637 -2.11828 -1.8253418 0.6382288 -0.013474725 1.3419893
-2.099435 -0.023983372 -2.7352827 -0.99571437 -0.7017319 -0.033549726 -0.9993216 -2.3535314
-1.8471308 -0.76773787 -1.5904363 -0.6877672 0.92754805 -0.47602612 -2.0982616 -0.92620546
-5.3721857 -4.340361 -1.139632 -0.413618 -0.7479039 -0.23620526 0.08159227 -3.3781316
-1.5444082 -4.168561 -3.5192714 1.4213494 -3.0416484 -1.6460087 0.31842896 -5.4835253
2.1447024 -2.797222 -0.24505277 -3.4187603 -3.7299373 0.71713454 -1.8739095 -1.0598959
00000000: d71d a33f 6695 5e3e 1724 ecbf 1185 30c0
00000010: 2d93 73c0 5be9 89bf bc6e 8fc0 d9da 1cbf
00000020: c94e bdbf a2aa ad3e 3d5c 1fc0 9442 e1bf
00000030: cfd1 163f 72a3 3740 2519 2dc0 2b0b d1be
00000040: 0006 d1bf 6004 e9bf fc25 80c0 e691 07c0
00000050: cda4 e9bf f662 233f 18c5 5cbc 4ec6 ab3f
00000060: 255d 06c0 c778 c4bc df0e 2fc0 23e7 7ebf
00000070: b4a4 33bf 706b 09bd 8ad3 7fbf 42a0 16c0
00000080: c86e ecbf 788a 44bf 6b93 cbbf 8311 30bf
00000090: ca73 6d3f b2b9 f3be eb49 06c0 cd1b 6dbf
000000a0: f2e8 abc0 3de4 8ac0 76df 91bf bdc5 d3be
000000b0: a176 3fbf cbdf 71be d919 a73d 4f33 58c0
000000c0: 2baf c5bf da64 85c0 be3b 61c0 c7ee b53f
000000d0: 5eaa 42c0 6ab0 d2bf 1f09 a33e 0a79 afc0
000000e0: ce42 0940 af05 33c0 1def 7abe f8cc 5ac0
000000f0: 4bb7 6ec0 2196 373f 44dc efbf abaa 87bf

base.mlp.fc2.0.2.weight f4 [64]
-8.241263e-09 -0.30463865 -0.07411 1.2698478e-09 1.2039207e-05 0.36744443 1.2445955 0.00083062256
0.5581551 -0.116509095 -0.27003214 -0.41228008 0.15431015 1.2761808e-12 1.5389214 -0.13045006
0.12433181 0.6382658 0.003979403 -8.139306e-06 0.22119553 -0.102633454 0.057095185 -1.4098744e-08
0.09522825 0.6540517 0.5189071 -7.053853e-09 -0.00057170156 0.014727338 -0.012027971 1.14598
0.42103052 -1.1320276e-08 5.593288e-07 -0.0007715565 -0.057553418 0.06801962 -0.1437766 0.15463543
-0.6332827 -0.66053903 0.07814485 1.6687398e-05 5.4882705e-05 0.24962418 -2.1194415e-24 -0.26733804
-0.001551296 2.6059232 0.46709082 4.5964685e-10 0.04672164 4.1420764e-05 0.5458399 0.002220265
-2.8418876e-06 1.2464119 2.7316887e-08 -0.47299078 0.44511423 0.0005523158 3.4085033e-14 0.77716565
00000000: 7595 0db2 99f9 9bbe fcc6 97bd cc86 ae30
00000010: 00fc 4937 ad21 bc3e e84e 9f3f 23be 593a
00000020: 41e3 0e3f 529c eebd a741 8abe 6016 d3be
00000030: 7b03 1e3e 429b b32b 60fb c43f b394 05be
00000040: ada1 fe3d 6365 233f a765 823b 0e8e 08b7
00000050: 1581 623e 7d31 d2bd a4dc 693d ef36 72b2
00000060: 0707 c33d ef6f 273f 19d7 043f 595e f2b1
00000070: 3ede 15ba ef4a 713c f810 45bc 79af 923f
00000080: 5091 d73e 1a7b 42b2 c824 1635 4842 4aba
00000090: 22bd 6bbd df4d 8b3d 2c3a 13be c058 1e3e
000000a0: d11e 22bf 1619 29bf 680a a03d eafb 8b37
000000b0: db31 6638 7b9d 7f3e ddfb 2398 88e0 88be
000000c0: db54 cbba 72c7 2640 8726 ef3e 8bb1 fc2f
000000d0: 315f 3f3d 35bb 2d38 2abc 0b3f de81 113b
000000e0: 42b7 3eb6 6d8a 9f3f 78a6 ea32 d92b f2be
000000f0: 03e6 e33e 49c9 103a 5e81 1929 54f4 463f

base.mlp.fc2.0.2.bias f4 [64]
-9.551126e-09 -0.16753836 -0.05787323 -2.1591922e-09 4.672916e-06 0.21609347 0.6735495 0.00046161877
0.23139293 -0.010225999 -0.10833354 -0.20643306 0.003065903 5.609028e-13 0.88575196 -0.042095054
0.034130275 0.34768432 0.0021339206 1.15085676e-07 0.1210329 0.07698878 0.017476708 1.5998279e-09
-0.0629861 0.27776134 0.23927893 9.198394e-09 0.00086682534 -0.0037188795 0.012939784 0.66775525
0.23936234 -1.8875976e-08 -6.478287e-07 -0.00044042844 -0.008576386 -0.053605918 0.041168433 0.071328245
-0.35175145 -0.33177713 -0.081111215 -6.3023967e-06 6.7491414e-06 0.0498881 -2.4295755e-22 -0.11386826
0.0011145516 1.495743 0.26202643 -3.2197134e-11 0.038267996 -3.6255908e-05 0.07231897 0.0010755286
7.0001033e-07 0.678997 -5.7550654e-08 -0.26246476 0.2637141 -0.00012265546 -1.07354894e-13 0.35604826
00000000: 4c16 24b2 2d8f 2bbe 7b0c 6dbd e960 14b1
00000010: 0bcc 9c36 9b47 5d3e bd6d 2c3f 6c05 f239
00000020: 45f2 6c3e f38a 27bc fadd ddbd 3063 53be
00000030: 51ed 483b 4ee1 1d2b a4c0 623f dd6b 2cbd
00000040: 30cc 0b3d ae03 b23e 3fd9 0b3b 0525 f733
00000050: 19e0 f73d 4bac 9d3d 502b 8f3c f1e0 db30
00000060: dbfe 80bd bc36 8e3e 8905 753e f706 1e32
00000070: aa3b 633a 72b8 73bb 6301 543c 02f2 2a3f
00000080: 671b 753e b624 a2b2 73e6 2db5 4ee9 e6b9
00000090: f883 0cbc e191 5bbd 3ba0 283d 8b14 923d
000000a0: c418 b4be b1de a9be a31d a6bd 2d79 d3b6
000000b0: af76 e236 7757 4c3d dcdb 929b c333 e9bd
000000c0: 2516 923a 8274 bf3f 5428 863e c09a 0dae
000000d0: e7be 1c3d 7c11 18b8 f81b 943d c0f8 8c3a
000000e0: 58e8 3b35 bfd2 2d3f 9d2d 77b3 c861 86be
000000f0: 8905 873e 139d 00b9 e2bd f1a9 f54b b63e

v_out.weight f4 [1, 64]
7.90311e-09 0.038631905 0.0047997376 1.0869147e-09 4.9195343e-08 0.09532053 -0.38571712 0.0002532116
-0.19082563 0.021824181 0.14494568 -0.0973786 0.09923787 9.887947e-13 -0.28220287 0.050711267
-0.045618333 -0.21482724 6.680899e-05 4.4987414e-06 -0.08173324 0.058388982 0.03176874 7.494216e-09
-0.034472324 -0.27437383 0.22310808 3.5644927e-09 -0.0003473067 -0.009354968 -0.004073586 -0.13243447
0.0012294955 -1.4768344e-08 3.3912426e-07 -0.00042385235 0.03281676 -0.01105406 -0.09395541 0.016818913
0.12464133 -0.2826561 -0.056074116 -9.786574e-06 3.3723893e-05 -0.17205922 4.0954847e-23 -0.06157979
0.00082406885 -1.4033058 0.045613695 2.8163025e-10 0.0048064655 -7.902131e-06 -0.3105567 -6.7058296e-05
-1.7307744e-06 -0.37864047 -4.421619e-09 -0.14054784 -0.044518992 0.00028616842 -1.890983e-13 -0.34192118
00000000: 3fc6 0732 7d3c 1e3d 1e47 9d3b 6962 9530
00000010: da4a 5333 6937 c33d b77c c5be 7cc1 8439
00000020: cb67 43be a0c8 b23c a46c 143e 6e6e c7bd
00000030: 393d cb3d 1529 8b2b e57c 90be 9eb6 4f3d
00000040: 4ada 3abd acfb 5bbe ce1b 8c38 e5f3 9636
00000050: c263 a7bd 4929 6f3d f01f 023d e9bf 0032
00000060: da32 0dbd ba7a 8cbe 7276 643e 38f3 7431
00000070: b716 b6b9 9445 19bc b77b 85bb e79c 07be
00000080: 0627 a13a ddb7 7db2 e210 b634 8038 deb9
00000090: de6a 063d 171c 35bc b26b c0bd d1c7 893c
000000a0: f443 ff3d 4db8 90be f9ad 65bd 0431 24b7
000000b0: c172 0d38 4b30 30be a50b 461a 173b 7cbd
000000c0: 5306 583a 869f b3bf 6dd5 3a3d efd3 9a2f
000000d0: 8e7f 9d3b 6593 04b7 4a01 9fbe a6a1 8cb8
000000e0: f54c e8b5 2add c1be f9ec 97b1 c6eb 0fbe
000000f0: 8c59 36bd e008 9639 e0e7 54aa 4b10 afbe
