ami_mujoco/ckpt/mujoco/Walker2d-v2_6x1/victim/actor.pt (torch, 24894 bytes, 11 tensors)

base.feature_norm.weight f4 [10]
1.0229744 1.0059658 1.0178223 0.9888093 0.96713036 0.9809422 1.022197 0.9205028
1.0050915 1.0336506
00000000: d3f0 823f 7dc3 803f 0048 823f 9b22 7d3f
00000010: db95 773f 071f 7b3f 5ad7 823f 12a6 6b3f
00000020: d7a6 803f aa4e 843f

base.feature_norm.bias f4 [10]
-0.008660667 0.0067086215 0.018662509 0.0016440704 0.002201568 -0.0037134946 -0.01664864 -0.030411826
0.011787077 -0.014823235
00000000: 78e5 0dbc ffd3 db3b 1ee2 983c d97d d73a
00000010: 2f48 103b 1a5e 73bb bb62 88bc 3922 f9bc
00000020: 961e 413c 27dd 72bc

base.mlp.fc1.0.weight f4 [64, 10]
0.08001126 0.18700208 0.2747213 -0.2587597 -0.14514506 -0.06336415 0.11985812 0.024458287
-0.017074581 0.10333187 -0.0024805046 0.28537822 0.04479082 -0.20167679 -0.08297046 0.07255263
0.12076638 -0.08179848 -0.20785198 0.11355414 -0.06507842 -0.28011125 0.23533729 0.027714428
-0.42915717 0.1009296 0.20774625 -0.076318465 -0.040167402 0.09404598 0.35022795 -0.046446722
-0.08681792 0.10846555 0.06314108 -0.049646307 -0.04131655 -0.13101307 0.34495306 -0.19467933
-0.15353948 -0.026251482 -0.1939189 0.07440002 0.07469627 0.10580043 0.1585863 0.03126822
-0.30204368 0.07498289 0.20536262 0.19608852 -0.051015593 0.24097203 -0.09953282 0.06983955
-0.13652007 -0.38382712 0.120415054 -0.105920784 -0.13801177 0.32557598 0.15834819 -0.057793416
0.09040049 0.087683305 0.19309273 0.06292078 0.310325 -0.012129657 -0.31578627 -0.095390506
-0.008525167 0.1275405 0.031202583 -0.07320576 0.01785979 -0.2672393 0.006564589 -0.10694768
0.11472214 -0.12080582 -0.09035016 0.013316506 0.061355744 0.10181888 -0.19394735 -0.16957593
-0.04035845 -0.105161354 0.15022741 0.02117691 0.1935027 0.20024928 0.06617241 0.103876494
-0.19020565 -0.08763553 -0.07718893 0.044683564 -0.15211302 0.2895735 -0.46875784 -0.011744625
-0.012808052 -0.05043832 0.29356676 0.006474118 -0.098250784 0.2379026 -0.30617198 -0.07634048
-0.10868605 -0.3919229 -0.1644629 -0.036829296 -0.45014018 -0.1625017 0.16253157 -0.10488691
0.09212341 0.20169917 0.0337279 0.25916284 -0.31234902 -0.0047676675 -0.19910464 0.09205338
-0.14632015 0.19916369 -0.08525783 -0.10526481 -0.062433325 -0.13443974 -0.053068638 0.18852158
0.08158071 -0.104078576 -0.035593454 -0.29530895 -0.17381616 0.1146607 -0.15180503 -0.14619805
-0.10991456 0.048789974 0.062886946 0.29025653 0.08421985 0.10664347 -0.2046868 -0.043114904
-0.014490909 0.16692185 -0.1464803 0.001372311 -0.13712655 0.07171041 -0.087092355 0.06134194
0.49975476 -0.21977939 -0.29199445 -0.07922934 0.10153942 0.24052374 0.123447604 -0.16574858
-0.13095951 0.0018573379 0.02973258 -0.050721355 -0.13432363 -0.013418244 0.17463118 -0.0034219173
-0.17000048 0.12828666 0.049768634 0.4613714 -0.17602429 0.16788039 0.023255222 -0.0013742952
0.013844007 0.015603764 0.046666104 -0.19721147 -0.20414749 -0.3166475 0.3140178 -0.09181832
-0.0017024586 -0.13789934 0.12789658 -0.06742564 -0.27367678 0.059436694 -0.052125733 -0.10759682
-0.08059269 0.08999949 0.2145245 0.22150636 0.12438015 0.5062939 -0.48714262 -0.12952775
-0.0047780382 0.3036262 0.35756308 0.08073613 0.02899886 0.13897568 -0.13740888 0.17748846
-0.14577593 0.042176105 -0.00017081155 -0.17091131 -0.042744882 0.010722712 -0.2710463 0.16957934
0.19520886 0.1649425 0.2910043 0.047127225 -0.018162906 0.012770918 -0.108330294 -0.30731845
-0.37465817 0.15244985 -0.38677782 -0.050107207 0.059544235 0.30350745 0.40490586 -0.091533795
0.108663514 0.11488471 0.0351853 0.037075803 -0.2285202 0.06258777 -0.016798582 -0.16555806
0.081919424 0.17664213 -0.024957925 -0.011165342 -0.13351445 0.1431303 -0.07040397 -0.075218946
00000000: f2dc a33d 797d 3f3e 45a8 8c3e 277c 84be
00000010: e8a0 14be 10c5 81bd 2d78 f53d bf5c c83c
00000020: fedf 8bbc a99f d33d f68f 22bb 181d 923e
00000030: 9476 373d 5c84 4ebe 6bec a9bd 7996 943d
00000040: 5d54 f73d f685 a7bd 26d7 54be 138f e83d
00000050: d647 85bd be6a 8fbe 42fc 703e 5e09 e33c
00000060: 7dba dbbe 2eb4 ce3d 6fbb 543e db4c 9cbd
00000070: 9386 24bd 2e9b c03d 1451 b33e eb3e 3ebd
00000080: 98cd b1bd 3023 de3d 1c50 813d ed59 4bbd
00000090: 8b3b 29bd 4a28 06be b09d b03e 055a 47be
000000a0: 7439 1dbe 590d d7bc ad92 46be 0a5f 983d
000000b0: 5cfa 983d e5ad d83d 7264 223e 1b13 003d
000000c0: 78a5 9abe a190 993d 944a 523e 6ecb 483e
000000d0: baf5 50bd 5fc1 763e ddd7 cbbd 0a08 8f3d
000000e0: ebcb 0bbe fd84 c4be 2b9c f63d ffec d8bd
000000f0: f552 0dbe e5b1 a63e 0726 223e cab8 6cbd
00000100: e423 b93d 4e93 b33d 1aba 453e 9cdc 803d
00000110: ebe2 9e3e 78bb 46bc bdae a1be 195c c3bd
00000120: 24ad 0bbc fa99 023e 8f9c ff3c e7ec 95bd
00000130: b24e 923c 97d3 88be c41b d73b 6307 dbbd
00000140: 71f3 ea3d 0b69 f7bd 8109 b9bd 792d 5a3c
00000150: 2950 7b3d 6b86 d03d 229a 46be 50a5 2dbe
00000160: e74e 25bd d65e d7bd 37d5 193e 337b ad3c
00000170: 9225 463e 260e 4d3e 6785 873d 33bd d43d
00000180: 45c5 42be 427a b3bd 3b15 9ebd 1d06 373d
00000190: 84c3 1bbe fa42 943e 0701 f0be 876c 40bc
000001a0: ddd8 51bc 6998 4ebd 624e 963e d724 d43b
000001b0: b537 c9bd bd9c 733e 93c2 9cbe 6658 9cbd
000001c0: cb96 debd 1eaa c8be f668 28be 51da 16bd
000001d0: c678 e6be d866 26be ad6e 263e f3ce d6bd
000001e0: 33ab bc3d 3a8a 4e3e 4426 0a3d feb0 843e
000001f0: 36ec 9fbe 183a 9cbb 16e2 4bbe 7c86 bc3d
00000200: f3d4 15be 91f1 4b3e a89b aebd 1495 d7bd
00000210: 16ba 7fbd 92aa 09be 805e 59bd cd0b 413e
00000220: ca13 a73d 2627 d5bd 71ca 11bd bc32 97be
00000230: ddfc 31be 3bd3 ea3d c772 1bbe f1b4 15be
00000240: e31a e1bd ffd7 473d dfca 803d 819c 943e
00000250: 757b ac3d e467 da3d 6b99 51be 4199 30bd
00000260: 476b 6dbc 90ed 2a3e effe 15be 1edf b33a
00000270: e76a 0cbe e8dc 923d 7a5d b2bd b041 7b3d
00000280: dbdf ff3e d90d 61be 4c80 95be fe42 a2bd
00000290: e6f3 cf3d db4b 763e 19d2 fc3d ffb9 29be
000002a0: 401a 06be eb71 f33a bd91 f33c 32c1 4fbd
000002b0: 228c 09be 32d8 5bbc 84d2 323e 3f42 60bb
000002c0: 9b14 2ebe 945d 033e 32da 4b3d df38 ec3e
000002d0: b63f 34be d6e8 2b3e bc81 be3c b221 b4ba
000002e0: f9d1 623c eea6 7f3c f524 3f3d cef1 49be
000002f0: 0a0c 51be 9f1f a2be f1c6 a03e 3e0b bcbd
00000300: 0825 dfba 7c35 0dbe 52f7 023e 7416 8abd
00000310: 5d1f 8cbe e473 733d cb81 55bd b95b dcbd
00000320: c80d a5bd a751 b83d 4fac 5b3e 90d2 623e
00000330: 05bb fe3d 7a9c 013f c26a f9be eca2 04be
00000340: 1791 9cbb e574 9b3e 8212 b73e fc58 a53d
00000350: 048f ed3c a44f 0e3e eab4 0cbe 89bf 353e
00000360: 4946 15be dac0 2c3d e01b 33b9 6003 2fbe
00000370: 4215 2fbd 50ae 2f3c 95c6 8abe 35a6 2d3e
00000380: d5e4 473e b0e6 283e 84fe 943e 7a08 413d
00000390: 60ca 94bc 1d3d 513c 46dc ddbd d858 9dbe
000003a0: 32d3 bfbe d01b 1c3e be07 c6be 373d 4dbd
000003b0: a8e4 733d 5465 9b3e d24f cf3e 1276 bbbd
000003c0: fa8a de3d ad48 eb3d 761e 103d ccdc 173d
000003d0: 3301 6abe 042e 803d 2e9d 89bc 0d88 29be
000003e0: 5fc5 a73d ade1 343e 9074 ccbc d7ee 36bc
000003f0: 03b8 08be c090 123e f52f 90bd 640c 9abd

base.mlp.fc1.0.bias f4 [64]
-0.0012074205 0.0026366916 0.004397962 0.016472047 -0.02790252 0.017006962 3.3147633e-05 0.0077336035
-0.009807744 0.009697797 -0.0032133197 0.03742515 -0.041827764 -0.016887197 -0.031937238 -0.022661414
-0.003628185 -0.012807313 -0.013879456 -0.018825961 0.02669659 -0.01756986 0.010629351 -0.017762884
-0.009575922 -0.01626647 0.026242843 0.0076193465 -0.027330438 0.049838066 0.0077465517 -0.0017437063
-0.011783935 0.0076178266 0.0083168335 0.0073920283 -0.004483548 0.007877461 -0.028425764 -0.003909815
0.0039588544 -0.0031724265 -0.0007316821 -0.032484777 0.008504223 0.007618483 -0.020080406 -0.014373098
0.012891998 -0.0011670658 -0.037167743 -0.03475758 0.008588086 -0.014406865 0.025274267 -0.0062044435
-0.014189967 -0.0038542629 0.0053737406 -0.001891974 -0.009489501 0.010158175 -0.0070758616 0.014815354
00000000: 4f42 9eba 58cc 2c3b c71c 903b 63f0 863c
00000010: d393 e4bc 2f52 8b3c 0008 0b38 2b6a fd3b
00000020: a9b0 20bc 82e3 1e3c 8f96 52bb 1d4b 193d
00000030: 9753 2bbd 0557 8abc 9fd0 02bd 6ea4 b9bc
00000040: d8c6 6dbb c4d5 51bc a866 63bc e738 9abc
00000050: cfb2 da3c abee 8fbc bb26 2e3c 7883 91bc
00000060: 54e4 1cbc 4341 85bc 3bfb d63c b6ab f93b
00000070: 15e4 dfbc 0023 4c3d c9d6 fd3b 138d e4ba
00000080: 6811 41bc f69e f93b 5443 083c d438 f23b
00000090: baea 92bb 7710 013c 26dd e8bc e81d 80bb
000000a0: 47b9 813b 7ce8 4fbb 5bce 3fba c20e 05bd
000000b0: 4c55 0b3c 78a4 f93b aa7f a4bc 247d 6bbc
000000c0: f538 533c 3bf8 98ba 343d 18bd f75d 0ebd
000000d0: 0bb5 0c3c c60a 6cbc fb0b cf3c a54e cbbb
000000e0: 097d 68bc cd97 7cbb 3416 b03b 1dfc f7ba
000000f0: da79 1bbc 796e 263c a1dc e7bb 19bc 723c

base.mlp.fc1.2.weight f4 [64]
1.0165083 1.0440502 1.0386633 1.0245326 1.0303156 0.9751384 1.0154262 0.9786444
0.9900964 1.034054 1.0761518 1.0305824 1.0237956 0.9856926 0.9763599 1.0021954
0.981691 0.9911856 0.9930688 0.98096716 1.0031848 0.97702694 0.98534226 0.9958706
0.96153104 0.98181856 1.0292203 1.006338 0.9860154 1.0278543 1.001339 1.0075078
1.023236 1.0051135 0.9940822 0.9743206 1.0129913 0.9852863 0.99215966 1.0232087
0.9777244 1.015732 1.0050336 0.9787891 0.95188814 1.0047959 1.000389 0.9982677
0.99689496 0.991122 0.971211 1.0218136 1.0000083 0.9805684 0.96199363 1.003297
0.978698 0.97408676 1.010183 0.9812482 0.989731 1.000199 1.034932 0.99297184
00000000: f21c 823f 70a3 853f ebf2 843f e223 833f
00000010: 62e1 833f aca2 793f 7cf9 813f 7088 7a3f
00000020: f576 7d3f e25b 843f 58bf 893f 20ea 833f
00000030: bc0b 833f 5a56 7c3f b9f2 793f f047 803f
00000040: 1a50 7b3f 57be 7d3f c239 7e3f aa20 7b3f
00000050: 5c68 803f 701e 7a3f 643f 7c3f 60f1 7e3f
00000060: e626 763f 7658 7b3f 7ebd 833f afcf 803f
00000070: 816b 7c3f bb90 833f e02b 803f 04f6 803f
00000080: 66f9 823f 8fa7 803f 2c7c 7e3f 136d 793f
00000090: b3a9 813f b93b 7c3f 2dfe 7d3f 81f8 823f
000000a0: 254c 7a3f 8203 823f f1a4 803f ec91 7a3f
000000b0: f1ae 733f 279d 803f bf0c 803f 798e 7f3f
000000c0: 8234 7f3f 2cba 7d3f 49a1 783f caca 823f
000000d0: 4600 803f 8806 7b3f 3745 763f 096c 803f
000000e0: f48b 7a3f c05d 793f ad4d 813f 1533 7b3f
000000f0: 035f 7d3f 8506 803f a778 843f 6733 7e3f

base.mlp.fc1.2.bias f4 [64]
-0.009125299 0.0019435051 -0.02244762 0.0331911 -0.056648042 0.0063138194 -0.028963488 0.017581105
-0.010464157 -0.010437507 -0.0044501936 0.011562722 -0.062793806 -0.0019112609 0.0034635607 -0.026054382
0.01239123 -0.0016337269 -0.011718012 -0.010492683 0.019150319 -0.011325031 0.02451715 0.0019984094
0.0011678278 0.007011511 0.015776275 -0.016508892 -0.017445022 0.029319668 0.010219745 -0.0071668583
-0.012190271 0.0058379243 0.0033816409 0.01153971 -0.002450122 0.013129374 -0.032640368 -0.0069309263
0.023286428 -0.024545683 0.007281188 -0.0020904168 0.049665928 -0.013937655 -0.021292537 0.0002071624
0.025961438 0.024198193 0.00017586468 -0.018303009 0.0005586178 0.0031345799 0.05473232 0.0001701711
-0.013964818 -0.00611399 0.0045115203 -0.0023000983 -0.0016889981 -0.006272579 -0.009623261 0.02382854
00000000: 4782 15bc 36bd fe3a 12e4 b7bc 64f3 073d
00000010: c707 68bd 28e4 ce3b d644 edbc 4006 903c
00000020: db71 2bbc 1402 2bbc eed2 91bb 9271 3d3c
00000030: 0a9a 80bd 4683 faba e8fc 623b 0070 d5bc
00000040: 9604 4b3c c722 d6ba e8fc 3fbc 81e9 2bbc
00000050: 21e1 9c3c 9f8c 39bc 31d8 c83c bff7 023b
00000060: cc11 993a d1c0 e53b 3f3d 813c a83d 87bc
00000070: dde8 8ebc cd2f f03c b870 273c f7d7 eabb
00000080: b4b9 47bc 0f4c bf3b 859e 5d3b 0d11 3d3c
00000090: 3a92 20bb 961c 573c e8b1 05bd d31c e3bb
000000a0: 2ec3 be3c 0714 c9bc 0897 ee3b 60ff 08bb
000000b0: 806e 4b3d c35a 64bc b06d aebc bc39 5939
000000c0: 15ad d43c 4a3b c63c 5168 3839 31f0 95bc
000000d0: 3570 123a 866d 4d3b ff2e 603d f56f 3239
000000e0: b1cc 64bc de57 c8bb 60d5 933b 3fbd 16bb
000000f0: 5f61 ddba 358a cdbb e2aa 1dbc 1234 c33c

base.mlp.fc2.0.0.weight f4 [64, 64]
-0.05104848 -0.1794796 0.07385754 0.218781 -0.14895757 0.15768623 0.09006977 -0.3130861
0.09892859 0.21685722 -0.03906962 0.32307735 0.1553608 0.10631962 0.18482548 0.32936922
-0.09229107 -0.1785069 -0.12577567 0.23699279 0.09529779 0.10495651 -0.28348437 0.014798622
0.15580276 -0.4077091 -0.030137192 -0.13614595 -0.043189764 -0.23381728 -0.13644384 -0.025440846
-0.09875987 0.04355115 0.00259234 0.037053414 0.09984477 -0.19647436 0.29787445 -0.043298483
0.103775404 0.31807762 -0.37889746 -0.13769959 0.28915745 0.21137089 -0.20358977 -0.052067064
0.061604034 -0.07180791 -0.017600523 -0.02251147 0.012787372 -0.107573375 -0.15472771 -0.2565144
0.04976274 0.24656633 0.16185062 0.067617506 -0.06177547 -0.17787296 0.102292284 -0.15806718
0.24775997 -0.35415086 0.2404417 0.13133986 0.11542973 -0.042008027 -0.0736606 -0.13422602
0.29669324 0.114915475 -0.2547602 -0.17263386 -0.076891005 -0.17928584 -0.13842146 -0.094382554
-0.298656 0.24849825 0.2416864 0.17829996 0.013194252 0.09576451 0.13419758 0.10428515
-0.063017465 -0.26372412 0.020119434 0.04104424 -0.061125256 -0.16908756 0.06050062 0.039555065
-0.11563491 -0.029681215 0.14254867 0.063420065 -0.14492854 0.13497868 -0.13720152 0.22815186
-0.3752387 0.016783297 -0.0017353384 -0.022738572 0.10199792 0.13376847 -0.032208942 0.008829151
0.015764182 0.35179952 -0.24960762 0.0947598 0.11249724 0.09461861 0.062202014 0.22435458
0.18788666 0.09890541 -0.13992983 -0.24761781 0.03242042 0.19481908 -0.20119059 -0.41297877
-0.324806 -0.1259215 -0.027492797 -0.18973373 0.15777399 0.12942746 -0.019420017 0.058545727
0.0670915 0.13526832 0.26841787 0.15826212 -0.048589293 -0.059068356 -0.19275856 -0.0061356085
-0.114155054 0.05599414 -0.30840975 0.22544074 0.0751229 0.06778252 -0.11764568 0.091808826
-0.0768963 -0.070581935 0.22628538 -0.035180017 0.19591182 -0.12004021 0.028862488 -0.2844426
-0.032631293 -0.29021546 0.1902079 0.099441215 -0.047204554 0.17115049 0.15284185 0.38528383
0.1674025 -0.08353159 0.2991143 -0.21742526 0.1637619 0.12009883 0.46337065 0.2400691
-0.3003286 0.14143863 0.0916793 -0.0865506 0.049142014 0.25528818 -0.09932643 -0.019330531
0.087919 -0.016629662 -0.117058165 -0.028709264 0.24454802 0.10847625 0.17983036 0.30978957
0.003527894 0.20328228 -0.20303339 0.12818427 -0.12056518 0.020397428 -0.12257696 -0.24809445
0.34333354 0.27855176 -0.028775688 0.23813635 0.23647465 0.025746536 0.03812387 0.1183122
-0.09515269 0.4053603 -0.052291654 0.02105921 -0.06732205 0.030151654 -0.020380229 -0.31911168
-0.11046136 -0.036561064 0.023272391 0.067271136 -0.21650052 -0.4543643 -0.07693617 -0.16870779
-0.3125728 0.1960232 0.036281355 -0.055101275 -0.09965216 0.057833076 -0.16079804 -0.12717307
-0.042557213 -0.26248175 -0.09049213 0.06860332 -0.10707313 -0.23547773 0.30013427 0.093470834
-0.032002453 -0.22251813 -0.03841556 -0.013155258 -0.05934466 -0.11905411 -0.04937598 0.2853458
-0.09215218 -0.40501618 -0.106967114 0.26106876 0.10776309 -0.09250689 -0.16017804 0.06831403
00000000: 3618 51bd 80c9 37be 9f42 973d 2008 603e
00000010: 5588 18be 8078 213e 8076 b83d d24c a0be
00000020: 139b ca3d d20f 5e3e 7707 20bd 656a a53e
00000030: e716 1f3e 1abe d93d e442 3d3e 15a3 a83e
00000040: 1a03 bdbd 83ca 36be 56cb 00be 3dae 723e
00000050: 7d2b c33d 70f3 d63d dd24 91be eb75 723c
00000060: c28a 1f3e 3fbf d0be 46e2 f6bc d869 0bbe
00000070: c0e7 30bd cc6d 6fbe efb7 0bbe 5269 d0bc
00000080: 9d42 cabd b162 323d 40e4 293b 52c5 173d
00000090: 6a7b cc3d 9330 49be 0083 983e c059 31bd
000000a0: 3388 d43d 12db a23e d9fe c1be 1f01 0dbe
000000b0: 720c 943e 9c71 583e d679 50be 4644 55bd
000000c0: 8354 7c3d 0710 93bd f92e 90bc f969 b8bc
000000d0: 2082 513c 6e4f dcbd f170 1ebe db55 83be
000000e0: 04d4 4b3d e27b 7c3e 2bbc 253e 0c7b 8a3d
000000f0: 4608 7dbd 5424 36be 9e7e d13d 5ddc 21be
00000100: cab4 7d3e 4353 b5be 5936 763e f57d 063e
00000110: 6c66 ec3d 9c10 2cbd 5edb 96bd 8c72 09be
00000120: 2de8 973e ce58 eb3d ee6f 82be eec6 30be
00000130: 0879 9dbd b596 37be 5bbe 0dbe a44b c1bd
00000140: 70e9 98be 5376 7e3e a47c 773e 4494 363e
00000150: b42c 583c 2f20 c43d 176b 093e 7493 d53d
00000160: 4d0f 81bd d906 87be 83d1 a43c 011e 283d
00000170: 7a5e 7abd 4a25 2dbe 80cf 773d 7e04 223d
00000180: ffd1 ecbd 0526 f3bc 47f8 113e 61e2 813d
00000190: 2668 14be da37 0a3e 8e7e 0cbe a4a0 693e
000001a0: 491f c0be 207d 893c 4b74 e3ba 3e46 babc
000001b0: 49e4 d03d 9afa 083e 86ed 03bd 25a8 103c
000001c0: e323 813c 111f b43e 2499 7fbe 6d11 c23d
000001d0: f464 e63d 67c7 c13d 8ac7 7e3d 35bd 653e
000001e0: 5c65 403e eb8e ca3d c449 0fbe 868f 7dbe
000001f0: 46cb 043d a77e 473e e804 4ebe f471 d3be
00000200: f94c a6be 91f1 00be 9338 e1bc 8f49 42be
00000210: 818f 213e a288 043e ba16 9fbc a5cd 6f3d
00000220: 4567 893d c783 0a3e 116e 893e 770f 223e
00000230: 9105 47bd a9f1 71bd 8062 45be 370d c9bb
00000240: 20ca e9bd 1d5a 653d e2e7 9dbe f0d9 663e
00000250: 09da 993d 90d1 8a3d 38f0 f0bd 4406 bc3d
00000260: cf7b 9dbd 438d 90bd 5bb7 673e ec18 10bd
00000270: 1c9d 483e a4d7 f5bd 0671 ec3c 76a2 91be
00000280: 64a8 05bd 1f97 94be dcc5 423e d6a7 cb3d
00000290: 9059 41bd 1342 2f3e 9382 1c3e ec43 c53e
000002a0: 906b 2b3e 9c12 abbd 8225 993e baa4 5ebe
000002b0: 33b1 273e 60f6 f53d eb3e ed3e add4 753e
000002c0: acc4 99be 4ad5 103e 5bc2 bb3d 7141 b1bd
000002d0: 2349 493d 22b5 823e a86b cbbd 105b 9ebc
000002e0: e00e b43d ee3a 88bc 31bc efbd b12f ebbc
000002f0: cc6a 7a3e cc28 de3d 7325 383e bd9c 9e3e
00000300: 3d34 673b 3b29 503e fce7 4fbe bd42 033e
00000310: e1ea f6bd 8218 a73c a109 fbbd 790c 7ebe
00000320: 6ac9 af3e 569e 8e3e feba ebbc 04da 733e
00000330: 6926 723e 66ea d23c c627 1c3d ab4d f23d
00000340: 6adf c2bd 638b cf3e c62f 56bd 5d84 ac3c
00000350: 25e0 89bd 9a00 f73c 70f4 a6bc 9b62 a3be
00000360: 9139 e2bd 0ec1 15bd bea5 be3c 73c5 893d
00000370: 50b2 5dbe 70a2 e8be b690 9dbd bcc1 2cbe
00000380: 8b09 a0be 4eba 483e c29b 143d e0b1 61bd
00000390: 6f16 ccbd 60e2 6c3d 3ea8 24be a839 02be
000003a0: 7950 2ebd 0264 86be f053 b9bd e67f 8c3d
000003b0: 2849 dbbd 1321 71be 33ab 993e a36d bf3d
000003c0: 0115 03bd cbdb 63be a259 1dbd 2789 57bc
000003d0: 6313 73bd a4d2 f3bd 783e 4abd d818 923e
000003e0: 48ba bcbd 485e cfbe 9311 dbbd ceaa 853e
000003f0: e5b2 dc3d 4174 bdbd b605 24be 3ae8 8b3d

base.mlp.fc2.0.0.bias f4 [64]
-0.023150144 -0.011877092 -0.009025626 -0.010833633 -0.015742877 -0.020011978 -0.018285165 0.015394469
0.0057173274 -0.0070573585 -0.03951073 -0.02744281 -0.0075459094 0.0012791482 -0.0018587088 -0.033369504
0.0009745863 -0.003676666 -0.005458395 0.02422929 -0.021905188 -0.0037146884 -0.026687572 0.026589856
-0.013329537 -0.015577082 -0.020010011 -0.047834568 -0.006068416 0.0076758806 -0.025325403 -0.029415883
-0.02192733 0.01808494 -0.024868594 -0.026222438 -0.045116764 -0.010267653 -0.018533703 -0.010611792
-0.016276091 -0.017246427 -0.014971933 -0.012673235 -0.0372775 0.02345548 -0.031571064 -0.017889392
-0.0117841195 0.0075825104 -0.0011625314 -0.03307799 -0.015101156 -0.030781036 -0.029357124 -0.009060071
-0.004574298 -0.0052657463 -0.008858367 -0.008737177 -0.028304249 -0.0119332075 -0.04428062 -0.019157698
00000000: 5fa5 bdbc 2298 42bc 38e0 13bc 8d7f 31bc
00000010: 35f7 80bc 29f0 a3bc c5ca 95bc 1539 7c3c
00000020: 6b58 bb3b 6a41 e7bb 01d6 21bd becf e0bc
00000030: ad43 f7bb 17a9 a73a eb9f f3ba 76ae 08bd
00000040: 617b 7f3a 38f4 70bb 56dc b2bb 817c c63c
00000050: 8272 b3bc 2172 73bb e59f dabc f8d2 d93c
00000060: 2164 5abc 0437 7fbc 09ec a3bc 2eee 43bd
00000070: 90d9 c6bb f485 fb3b 3877 cfbc 94f9 f0bc
00000080: f2a0 b3bc de26 943c 39b9 cbbc 70d0 d6bc
00000090: 5bcc 38bd a839 28bc fed3 97bc 15dd 2dbc
000000a0: 7055 85bc 6148 8dbc d74c 75bc 66a3 4fbc
000000b0: 4bb0 18bd b525 c03c a950 01bd c68c 92bc
000000c0: 2e12 41bc b576 f83b 1560 98ba c97c 07bd
000000d0: d76a 77bc 8328 fcbc 5a7e f0bc b170 14bc
000000e0: fee3 95bb 488c acbb af22 11bc 6026 0fbc
000000f0: 50de e7bc 8083 43bc 985f 35bd 9bf0 9cbc

base.mlp.fc2.0.2.weight f4 [64]
1.0311381 1.0240842 1.0554429 1.025842 1.0298278 1.0173174 1.0085255 1.0271615
1.019181 1.057185 1.0098664 1.0292093 1.0359162 1.0313662 1.0410933 1.0274516
1.0596192 1.026865 1.0253637 1.0204278 1.0146681 1.0143489 1.0152853 1.0467288
1.0270562 1.0306089 1.0460482 1.0223851 1.0586709 1.0181462 1.0176194 1.0347668
1.0472782 1.0447409 1.0241153 1.0159998 1.0068556 1.0450118 1.0111569 1.0509244
1.0234097 1.0237898 1.020583 1.0326009 1.0249346 1.0364366 1.0292641 1.009231
1.0124779 1.0288326 1.0156188 1.0166148 1.0177913 1.0445658 1.0168685 1.0413842
1.0546905 1.0480398 1.0431715 1.0859604 1.0273514 1.045414 1.0088792 1.0109167
00000000: 55fc 833f 3115 833f c118 873f ca4e 833f
00000010: 66d1 833f 7537 823f 5d17 813f 077a 833f
00000020: 8674 823f d751 873f 4d43 813f 21bd 833f
00000030: e798 843f cf03 843f 8c42 853f 8983 833f
00000040: 9aa1 873f 5070 833f 1e3f 833f 619d 823f
00000050: a5e0 813f 2fd6 813f def4 813f 36fb 853f
00000060: 9476 833f feea 833f e8e4 853f 84dd 823f
00000070: 8782 873f 9d52 823f 5a41 823f 3d73 843f
00000080: 360d 863f 12ba 853f 3616 833f 480c 823f
00000090: a5e0 803f f2c2 853f 976d 813f b184 863f
000000a0: 17ff 823f 8b0b 833f 77a2 823f 442c 843f
000000b0: 0f31 833f f4a9 843f edbe 833f 7b2e 813f
000000c0: e098 813f c9b0 833f ccff 813f 6f20 823f
000000d0: fc46 823f 55b4 853f bf28 823f 144c 853f
000000e0: 1900 873f 2b26 863f a586 853f c000 8b3f
000000f0: 4080 833f 20d0 853f f422 813f b865 813f

base.mlp.fc2.0.2.bias f4 [64]
-0.033081166 0.026289817 -0.02635297 -0.022678008 0.027896335 -0.025492597 -0.034560565 0.026405377
0.012356429 -0.026291061 -0.026139243 -0.028619472 0.027251782 0.024358753 -0.026874665 -0.03358065
-0.027254429 -0.02696096 0.003783458 0.02388772 -0.04038915 0.017140856 0.027167633 0.027157698
-0.0279172 0.026277767 -0.028238999 -0.020124158 0.015745807 0.025087094 -0.029608138 -0.028589604
-0.027540686 0.02767524 0.026826197 -0.027029002 0.024214653 0.016234348 -0.02353299 -0.02810279
0.026941985 -0.027612515 -0.0257899 0.026158595 -0.028212925 0.024205185 0.027317448 -0.023885591
0.011540516 -0.024061052 0.027093792 -0.027248595 -0.021355528 0.0005636078 -0.02606441 -0.0268442
0.007582427 0.026804572 -0.027759138 -0.027779497 -0.027519094 -0.027311172 0.033685837 0.025746817
00000000: 1e80 07bd be5d d73c 2fe2 d7bc 3bc7 b9bc
00000010: db86 e43c dad5 d0bc 618f 0dbd 1750 d83c
00000020: 9f72 4a3c 5a60 d7bc f721 d6bc 6273 eabc
00000030: 213f df3c 028c c73c 4228 dcbc dd8b 09bd
00000040: ae44 dfbc 3bdd dcbc e4f3 773b 2eb0 c33c
00000050: 186f 25bd fb6a 8c3c a88e de3c d279 de3c
00000060: 9db2 e4bc 7944 d73c 7955 e7bc 6bdb a4bc
00000070: 5afd 803c 7383 cd3c c48c f2bc bf34 eabc
00000080: 019d e1bc 2fb7 e23c 9dc2 db3c ed6b ddbc
00000090: cf5d c63c e5fd 843c 42c8 c0bc d237 e6bc
000000a0: 70b5 dc3c a433 e2bc 5745 d3bc 8d4a d63c
000000b0: cb1e e7bc f449 c63c d7c8 df3c b7ab c3bc
000000c0: 6f14 3d3c af1b c5bc cdf3 dd3c 7238 dfbc
000000d0: caf1 aebc 14bf 133a 0885 d5bc 5ee8 dbbc
000000e0: 0276 f83b 4395 db3c 2267 e3bc d491 e3bc
000000f0: b96f e1bc aebb dfbc 29fa 093d fdea d23c

act.action_out.fc_mean.weight f4 [1, 64]
0.02930783 0.023671757 -0.053865686 -0.026828663 0.026628572 -0.015183471 0.0034772174 0.027066255
0.017318018 -0.05360179 -0.009138386 -0.024613839 0.033863638 0.026752522 -0.03992226 0.023395758
-0.057041556 -0.024014771 0.019054214 0.018796097 0.00864713 0.0057555004 0.010585484 0.045018133
-0.02432677 0.027880376 -0.04136059 0.017069846 -0.054832526 0.017529318 -0.009425184 -0.030212255
-0.0445253 0.0425822 0.022527546 -0.011639592 0.0006024256 -0.040856853 -0.010045236 -0.046914246
-0.020750068 -0.02207653 -0.017758219 0.033076487 -0.02213277 0.0338496 0.026948836 -0.0003431077
0.00058482116 -0.022861619 0.013354537 0.009986812 -0.016029874 -0.04087373 -0.017467318 -0.04032064
0.05413639 0.045234427 -0.03941651 -0.081254326 -0.025384637 -0.043037537 -0.0048632496 0.009785891
00000000: f916 f03c 46eb c13c 44a2 5cbd c9c7 dbbc
00000010: 2a24 da3c 18c4 78bc 07e2 633b 0dba dd3c
00000020: 84de 8d3c 8d8d 5bbd 2bb9 15bc f6a2 c9bc
00000030: 99b4 0a3d 1b28 db3c 8685 23bd 76a8 bf3c
00000040: 68a4 69bd a0ba c4bc 9517 9c3c 46fa 993c
00000050: b1ac 0d3c a398 bc3b bd6e 2d3c ef64 383d
00000060: ef48 c7bc 6365 e43c b969 29bd 10d6 8b3c
00000070: 1298 60bd a599 8f3c 166c 1abc b17f f7bc
00000080: 2960 36bd ac6a 2e3d b08b b83c fdb3 3ebc
00000090: 19ec 1d3a 8459 27bd c694 24bc 2729 40bd
000000a0: 0cfc a9bc d7d9 b4bc af79 91bc 367b 073d
000000b0: c84f b5bc e1a5 0a3d cec3 dc3c 23e3 b3b9
000000c0: af4e 193a 4a48 bbbc fdcc 5a3c ba9f 233c
000000d0: 1551 83bc 366b 27bd 9f17 8fbc 4127 25bd
000000e0: 1fbe 5d3d bc47 393d 3573 21bd ab68 a6bd
000000f0: 71f3 cfbc 2148 30bd e55b 9fbb 0055 203c
