ami_mujoco/ckpt/mujoco/Walker2d-v2_6x1/victim/critic.pt (torch, 26433 bytes, 11 tensors)

base.feature_norm.weight f4 [17]
0	0x4025cf64	2.590783
1	0x40dc6ee6	6.8885374
2	0x40d3705c	6.6074657
3	0x409f90f0	4.9864426
4	0x403399f4	2.8062716
5	0x40a48b4e	5.142005
6	0x407a4f70	3.9110985
7	0x40022b7f	2.0339048
8	0x40acd9a1	5.401566
9	0x4016a2b4	2.3536806
10	0x40231aef	2.548519
11	0x3fa8cbbb	1.3187174
12	0x3efb46aa	0.4907735
13	0xbda6ed09	-0.081506796
14	0x3fca95df	1.5826987
15	0x3f36465d	0.71201116
16	0x3e0a7f16	0.13525042

base.feature_norm.bias f4 [17]
0	0xbe6e83b0	-0.23292422
1	0x3eeb1293	0.45912609
2	0x3ea9aa9d	0.3313798
3	0x3ebf3aa6	0.37349433
4	0x3d93185e	0.07182382
5	0x3eca2442	0.39480788
6	0x3e75c1d8	0.23999727
7	0xbdebd247	-0.115147166
8	0x3e773f49	0.24145235
9	0x3e5f40e5	0.21802099
10	0xbd2ea1f7	-0.04263493
11	0x3e9740d0	0.29541636
12	0xbb00a214	-0.0019627856
13	0xbd8e8a94	-0.069600254
14	0x3e2c8fc1	0.16851713
15	0x39653d1c	0.00021861907
16	0xbc504697	-0.012712142

base.mlp.fc1.0.weight f4 [64, 17]
0	0xc0309326	-2.7589812
1	0xbeff7452	-0.49893433
2	0x3fa411a3	1.2817882
3	0x3f1bcc7c	0.60858893
4	0xbf14c1d2	-0.58108246
5	0x3f125cc2	0.5717279
6	0x3f8b8ae8	1.0901766
7	0xbed4ad21	-0.41538337
8	0xbf01906f	-0.50611013
9	0xbf606873	-0.87659377
10	0x3e7a9082	0.24469188
11	0xbeaf7402	-0.34268194
12	0x3f9649e8	1.1741304
13	0xbcabdd73	-0.020979619
14	0x3e26fb85	0.16306885
15	0x3f8198bd	1.0124737
16	0xbe189435	-0.14900286
17	0x404b7c99	3.1794798
18	0xbfbdc4e4	-1.4825711
19	0x4049ff8b	3.156222
20	0xc01bf7f6	-2.4370093
21	0xc0beeb3e	-5.966216
22	0xbe826132	-0.2546478
23	0x3f38ae73	0.7214119
24	0xbe56cbef	-0.20976232
25	0xbf3b472c	-0.73155475
26	0x40891ebf	4.285003
27	0xbe1ab7e7	-0.15109216
28	0xc02b05ec	-2.6722364
29	0xc01b2da7	-2.4246614
30	0x3e824ca9	0.25449112
31	0x4019001a	2.3906312
32	0x3fdff009	1.7495128
33	0xbf39f287	-0.7263569
34	0xbe2ba973	-0.16763858
35	0xc027f730	-2.6244621
36	0x40414a1a	3.0201478
37	0x3f849268	1.035718
38	0xbef081d7	-0.4697406
39	0x4013d9b1	2.3101618
40	0x4018bcd1	2.3865244
41	0x3f49e0c0	0.78858566
42	0xc0c836c9	-6.2566876
43	0x3e74e996	0.23917231
44	0x40827f8b	4.078069
45	0xc003fa26	-2.0621428
46	0xbf2a702f	-0.6657743
47	0x3f784770	0.96984005
48	0xc0440f95	-3.063451
49	0xbf8a692e	-1.0813348
50	0x3ea08fc4	0.31359684
51	0x3fd908a3	1.6955761
52	0x3fc639e5	1.5486418
53	0x4017fa66	2.374658
54	0x3fd29917	1.6452969
55	0xc0eb45b5	-7.352259
56	0x4004a486	2.0725417
57	0x3ed8593e	0.42255586
58	0xbf285ef7	-0.65769905
59	0xc009dcb7	-2.1540964
60	0xc035b599	-2.8392088
61	0x3fbd3178	1.4780722
62	0xc04283d5	-3.0392964
63	0xc0084bd1	-2.1296275
64	0x3ee3a48b	0.44461474
65	0x3ff1d4a9	1.8893024
66	0x400080a6	2.007852
67	0x403fe24b	2.9981868
68	0x403ec09c	2.980506
69	0xbc3a000f	-0.011352553
70	0x404956f3	3.145932
71	0x3fdf5c8f	1.7450122
72	0xbfb2a069	-1.3955203
73	0xc09d27e2	-4.9111185
74	0xc04d8e60	-3.2118149
75	0x3f7db63c	0.9910619
76	0x3f9653f6	1.1744373
77	0x3c62b721	0.013837607
78	0xbe143c38	-0.14476097
79	0x3fc3f3e1	1.5308801
80	0x3f929699	1.1452209
81	0xbda348a7	-0.07972842
82	0xbfbe2bb6	-1.485709
83	0xbfc20633	-1.5158142
84	0x3ebfd43e	0.37466615
85	0xc0c95eec	-6.292837
86	0xc08710b9	-4.2207913
87	0x4035da05	2.8414319
88	0xbd388022	-0.045044072
89	0x3f9a9162	1.2075617
90	0x40347150	2.819416
91	0x4008bc35	2.1364872
92	0x3f1340ee	0.5752095
93	0xbf69d425	-0.9133933
94	0x3f2c04af	0.67194647
95	0x3f492078	0.7856517
96	0xbe0a7f1e	-0.13525054
97	0x3e206160	0.15662146
98	0x3de40559	0.111338325
99	0xbf156398	-0.58355093
100	0xbe68e282	-0.22742656
101	0x3eadaaa0	0.3391924
102	0x3ecfcff6	0.4058835
103	0xbff30e0a	-1.8988659
104	0x404f0c67	3.235132
105	0x4027a85b	2.6196506
106	0xbe901602	-0.2814179
107	0x3f0d065a	0.55087817
108	0x3fb9549a	1.4478943
109	0x3f4b0e41	0.79318625
110	0xc0df7257	-6.9827075
111	0x3e74ce2f	0.23906778
112	0x40849264	4.14287
113	0xc03142b3	-2.769696
114	0xbfa51e0b	-1.2899793
115	0xbf197fec	-0.5996082
116	0xc00d5260	-2.2081528
117	0xbf052019	-0.520021
118	0xbf34b266	-0.70584714
119	0x3f93b742	1.1540301
120	0x4086d812	4.213876
121	0xc0b6d205	-5.713137
122	0xc036edfe	-2.858276
123	0xbf3ce0a9	-0.73780304
124	0x3f9ac603	1.2091678
125	0x3f9b72fb	1.2144464
126	0x3f5decb9	0.86689335
127	0x3f822eb0	1.0170498
128	0x4016c57b	2.3558033
129	0xbf762d26	-0.9616264
130	0x3f885499	1.0650817
131	0x3f806d41	1.0033342
132	0x3e2d3994	0.16916496
133	0x3eb45a1a	0.35224992
134	0x3e131f4a	0.14367405
135	0x3e848b09	0.25887325
136	0xbe4fe3c6	-0.20301732
137	0x3f85bb26	1.0447738
138	0x3f886bb0	1.0657864
139	0xbe1d7a7d	-0.15378757
140	0xc0d71250	-6.7209854
141	0xbbc3cb1d	-0.0059751407
142	0x3eff2a67	0.49837038
143	0x3fd57757	1.6677045
144	0x3ead907f	0.33899304
145	0xbfc4783d	-1.5349194
146	0x3feefadb	1.8670305
147	0xc01217b6	-2.2826972
148	0x3e967a07	0.29389974
149	0x3f549841	0.8304482
150	0x3ee1c12a	0.44092685
151	0x3fe0d8f7	1.7566212
152	0x3f85ae9e	1.0443914
153	0xc0bb450a	-5.8521776
154	0x404f4c74	3.2390413
155	0xbee65b14	-0.44991362
156	0x3e114fc0	0.14190578
157	0xc0032a00	-2.0494385
158	0xbf901f48	-1.1259546
159	0x3fdc4547	1.7208642
160	0xc03c41e4	-2.9415216
161	0x3fd3aded	1.6537453
162	0xbee6a798	-0.4504974
163	0xbe05b01f	-0.13055466
164	0x3f85f97d	1.0466763
165	0x3ec0ef9d	0.3768281
166	0xbdf94ffe	-0.121734604
167	0xbf61f078	-0.8825755
168	0xbfa9375d	-1.322002
169	0x3ff9e918	1.952426
170	0xc05d1662	-3.4544911
171	0xc008809b	-2.1328495
172	0x405fcde0	3.4969406
173	0xc0508876	-3.258329
174	0xbc725563	-0.014790866
175	0x3f707f07	0.9394383
176	0x3fb25941	1.3933488
177	0xbfc66dde	-1.5502279
178	0x3f440b15	0.7657941
179	0x3f832b45	1.024758
180	0x3fc9bb65	1.5760313
181	0xc05d870c	-3.4613676
182	0xc093ce59	-4.618939
183	0x3e276e7c	0.1635074
184	0xbfa3b586	-1.2789772
185	0xbfc4f79f	-1.5388068
186	0xc0169d92	-2.3533673
187	0xbf982e8e	-1.1889207
188	0xbfd0916d	-1.629438
189	0x3ee1b384	0.44082272
190	0x3f41f19e	0.75759304
191	0x3f894ab4	1.0725923
192	0x3f2491ea	0.6428515
193	0x3f001935	0.5003846
194	0x3e92a9e3	0.28645238
195	0xc02572b2	-2.5851254
196	0xbec0eeb6	-0.37682122
197	0xbf7d96fd	-0.99058515
198	0xbe64e19f	-0.22351693
199	0x3f3ed6e7	0.74546665
200	0xbec4b2db	-0.38417706
201	0x3f139ced	0.57661325
202	0x3f1e3b66	0.61809385
203	0x3f412568	0.754477
204	0xbfdbb6c5	-1.7165152
205	0x3d77fcb7	0.060543742
206	0x3f05feaf	0.5234174
207	0x403c89ef	2.9459188
208	0x3f482d50	0.7819414
209	0x3f906c29	1.1283008
210	0x3e4a9d69	0.1978661
211	0xbcbbcdbf	-0.022925256
212	0xc0c135cc	-6.037817
213	0x3f8f5ccc	1.1200194
214	0x402eb42e	2.7297473
215	0xbf91a39c	-1.1378055
216	0x3f9af504	1.2106023
217	0x3f5b3232	0.85623467
218	0xbf0edf34	-0.5580933
219	0x3f3b3414	0.7312634
220	0x3c523e2f	0.012832209
221	0x408470a7	4.1387515
222	0x3f509c0f	0.81488127
223	0x3fa0d1db	1.2564043
224	0xc0054eea	-2.0829415
225	0xc0e68e7b	-7.2048926
226	0xbf16ad11	-0.5885783
227	0xbf74adcc	-0.95577693
228	0x4026a647	2.6038988
229	0x3fd2ca25	1.646794
230	0x40018f51	2.0243723
231	0xbe1de150	-0.15417981
232	0x3ef2804c	0.47363508
233	0x3dda8b12	0.10671057
234	0xbe3c6365	-0.18397291
235	0xbec253bf	-0.37954518
236	0xbf78ed38	-0.9723697
237	0xbe33918c	-0.1753599
238	0xc09833c9	-4.7563214
239	0xc0586a8e	-3.3815036
240	0x406fa76c	3.7445936
241	0xc0385a93	-2.8805282
242	0xbf77f0b3	-0.9685165
243	0x3f16f7be	0.58971775
244	0x3ef9ec29	0.48812988
245	0xbe712cdc	-0.23552269
246	0x403b596c	2.9273329
247	0x40850cf8	4.157833
248	0xbf472a43	-0.7779886
249	0x3f2a1ceb	0.66450375
250	0xbecb3ef4	-0.39696467
251	0x3ea92ded	0.3304285
252	0xbf0ea2fa	-0.5571743
253	0xbf96b8a7	-1.1775101
254	0xbf109fe5	-0.5649398
255	0xbfcd2fd7	-1.6030225

base.mlp.fc1.0.bias f4 [64]
0	0xbfe3822a	-1.7774098
1	0x3f0c84f0	0.54890347
2	0x3ead3c63	0.33835134
3	0xbf9f5571	-1.244795
4	0x40213a75	2.519193
5	0xc021ea48	-2.5299244
6	0x3eb9c03b	0.36279473
7	0xbe85f37c	-0.26162326
8	0xbfde7bcb	-1.7381529
9	0xc05c0670	-3.437893
10	0x3d0aaef7	0.033858266
11	0xbf7de561	-0.9917813
12	0xbf0d6aa0	-0.5524082
13	0x3f9b3ce7	1.2127961
14	0xc0006dc1	-2.0066988
15	0xc02e67bb	-2.7250812
16	0xbf9d955d	-1.2311207
17	0x3fd39d47	1.6532372
18	0x3f515452	0.8176929
19	0xbf88fd54	-1.070231
20	0xbf6bb578	-0.92073774
21	0xc03b60bf	-2.92778
22	0x3fad1b03	1.3523868
23	0x3f90b3af	1.1304835
24	0xc05e9b7d	-3.4782403
25	0x3ff0e86b	1.8820928
26	0xbfb8f29e	-1.4449041
27	0xbec3d44d	-0.3824791
28	0xbfb5878a	-1.4181988
29	0xc03206d0	-2.7816658
30	0xbf450d64	-0.7697356
31	0xc01d70cd	-2.4600098
32	0xc010a6aa	-2.2601724
33	0xbf59a95a	-0.85024035
34	0xbffa7fea	-1.9570286
35	0xc047beb2	-3.121014
36	0xc00a0c06	-2.1569839
37	0xbfa1f296	-1.2652156
38	0xc05ef8b8	-3.4839306
39	0xbf434130	-0.76271343
40	0x3f47062b	0.77743787
41	0xbf9c40e4	-1.2207303
42	0xbf1a132f	-0.6018552
43	0xc07c0678	-3.9378948
44	0xc04f9001	-3.2431643
45	0x400a1c93	2.157994
46	0xc029e1a0	-2.654396
47	0xbf27df8e	-0.6557549
48	0xbe04c0df	-0.129642
49	0xbf9ed57f	-1.2408904
50	0xbf14ccb3	-0.58124846
51	0x3ea90eaa	0.33019
52	0xbfae140d	-1.3599869
53	0xc05fc8b6	-3.4966254
54	0xbfc9ca80	-1.5764923
55	0x3f9226f4	1.1418138
56	0xbeb4d883	-0.35321435
57	0x3ff8aeb1	1.9428312
58	0x3ec1d736	0.37859505
59	0xc023b846	-2.5581222
60	0xbff1e8d0	-1.8899174
61	0xbfe3fc57	-1.7811383
62	0xbe8a6726	-0.2703182
63	0xbf60ae58	-0.8776603

base.mlp.fc1.2.weight f4 [64]
0	0x3feabba3	1.8338512
1	0x4003b3cc	2.057849
2	0x400f7a0c	2.2418242
3	0x40572bff	3.3620603
4	0x3fc3b022	1.5288126
5	0x40393172	2.893643
6	0x4022f143	2.5459754
7	0x40ac8719	5.3914914
8	0x400e7980	2.2261658
9	0x405c5a24	3.4430017
10	0x404cbf06	3.1991591
11	0x3f67058c	0.9024284
12	0x4000ca93	2.0123641
13	0x3ffe90e6	1.988797
14	0x403f37d9	2.9877837
15	0xbfcdd649	-1.608102
16	0x3f991d10	1.1961994
17	0xbf66226f	-0.8989629
18	0x40a576c9	5.17075
19	0x4045390b	3.0816066
20	0x402ce896	2.701696
21	0x4022060f	2.5316198
22	0x3fa846e2	1.3146632
23	0x400b5e65	2.1776364
24	0x4021bf0b	2.5272853
25	0x407692a7	3.852701
26	0x3fc31dfb	1.5243524
27	0x4041e4cc	3.0295897
28	0x3fc5e43a	1.5460274
29	0x3fd5ec8c	1.6712813
30	0x406f4b2f	3.7389638
31	0x403acb4d	2.9186585
32	0x40973de6	4.726306
33	0x3ef29193	0.4737669
34	0x40840591	4.1256795
35	0x40370db9	2.8602126
36	0xbfcbcce8	-1.5921907
37	0x3fe687df	1.8010215
38	0x3fd6f83f	1.6794509
39	0x3fc39e4e	1.5282686
40	0x40862cfc	4.1929913
41	0x3f8f9a5c	1.1218982
42	0x4035496b	2.832606
43	0x3fd524a7	1.665181
44	0x40667e84	3.601472
45	0x3f9bd9e7	1.2175874
46	0x404bba49	3.183245
47	0x400d0368	2.203333
48	0x3fac3ff5	1.3457018
49	0x405e41d6	3.4727683
50	0xbec76cfb	-0.38950333
51	0x3fd17967	1.6365174
52	0x3f66a606	0.9009708
53	0x3fbe50d8	1.4868422
54	0x4039ac6f	2.9011495
55	0x3fb6ddd3	1.4286445
56	0x404648ec	3.0982008
57	0x3f5bfd5a	0.8593346
58	0x405c2f3a	3.4403825
59	0x40310941	2.7661898
60	0x4008a33a	2.1349626
61	0x40a605c1	5.1882024
62	0x405ce9c3	3.4517677
63	0x3f98aaba	1.1927102

base.mlp.fc1.2.bias f4 [64]
0	0x3f874867	1.056897
1	0x3f65f278	0.898231
2	0x3f78f68b	0.97251195
3	0x3fb523aa	1.4151509
4	0xbfead0ae	-1.8344934
5	0x3eadc343	0.33938035
6	0x3fc8f8b1	1.5700895
7	0x3ecf187f	0.40448377
8	0x3fc6130b	1.5474561
9	0x3f898ba6	1.0745742
10	0x3f912c60	1.1341667
11	0x3f286774	0.65782857
12	0x3fab2f7a	1.3373864
13	0x3eb39313	0.35073146
14	0x3faf73df	1.3707236
15	0xbf889ee2	-1.0673487
16	0x3ee36654	0.44414008
17	0x3fd6a859	1.6770126
18	0xc03b47f8	-2.9262676
19	0x3e92649b	0.2859238
20	0x3ead15c8	0.3380568
21	0x3fa17a58	1.2615461
22	0xbf9a87aa	-1.2072651
23	0xc02381b0	-2.5547905
24	0x3fa70997	1.3049802
25	0xbf8c09eb	-1.0940527
26	0x3eb9a14c	0.36255872
27	0xbf9848c5	-1.1897207
28	0x3f5298c7	0.8226437
29	0x3faa835d	1.3321339
30	0x401ff7a3	2.4994895
31	0x3ee972af	0.4559531
32	0x401402f0	2.3126793
33	0xbe2b6d98	-0.16741025
34	0xbef087b4	-0.46978533
35	0x3fc2f18f	1.5229968
36	0xbf4a34e3	-0.7898695
37	0x3f40a0f2	0.75245583
38	0x3f7e4011	0.9931651
39	0x3f25f121	0.6482106
40	0x4024528c	2.5675383
41	0x3f5ecf41	0.87034994
42	0x3e345fe5	0.17614706
43	0xbd99cf7a	-0.07510276
44	0x3f476714	0.7789166
45	0xbfd2a53f	-1.6456679
46	0x3fa77223	1.3081707
47	0x3f868a95	1.0511042
48	0x3f6d93f9	0.92803913
49	0x3e170505	0.14748009
50	0x3e28b6ec	0.16476029
51	0xbfe1e880	-1.7649078
52	0x3f8b8352	1.0899451
53	0x3ffd3b2c	1.9783683
54	0x3f28dc99	0.65961605
55	0xbfd4a40f	-1.6612567
56	0x3eda4b95	0.4263579
57	0xbfd5522a	-1.66657
58	0x3f3844c7	0.71979946
59	0x3f910261	1.1328851
60	0x3fa280d2	1.2695563
61	0x3fea9874	1.8327775
62	0xbffe5a90	-1.9871387
63	0x3f7ade23	0.97995204

base.mlp.fc2.0.0.weight f4 [64, 64]
0	0x3ce65d83	0.028120762
1	0xbf59ba6e	-0.85050094
2	0x3fc4b879	1.5368797
3	0xbf8911b0	-1.0708523
4	0x3f7fc26c	0.9990604
5	0x3ccd3c5b	0.025053194
6	0x3f60a37d	0.87749463
7	0xbe6ee711	-0.23330332
8	0x3e5c1727	0.21493207
9	0x3dffbeb1	0.124875434
10	0x3ef9457e	0.4868583
11	0xbf4b126e	-0.79324996
12	0xbf53d156	-0.82741296
13	0x3fad265d	1.3527333
14	0x3f44661a	0.76718295
15	0x3c514abd	0.012774167
16	0xbfae0afa	-1.35971
17	0x3f00aad9	0.5026069
18	0x3eff8051	0.49902585
19	0x3cf94792	0.030429635
20	0xbf9c688f	-1.2219409
21	0x3f126947	0.5719189
22	0x3df2d415	0.11856858
23	0xbe0f0300	-0.13965988
24	0xbebe659d	-0.371869
25	0xc08523c2	-4.160615
26	0xbed96dd8	-0.42466617
27	0xbf9539dd	-1.1658283
28	0x3e9c470c	0.30522954
29	0x3e736678	0.23769557
30	0x402d34b6	2.7063422
31	0x3f10820c	0.56448436
32	0x3e3c6d52	0.18401077
33	0xbe3caf3f	-0.18426226
34	0x3eb5006c	0.35351884
35	0x3f569bad	0.8383129
36	0xbddc7701	-0.10764886
37	0x3d36d695	0.044638235
38	0xc0494b49	-3.14522
39	0xbe382742	-0.17983726
40	0x3fc04412	1.5020773
41	0x3d3e3fde	0.046447627
42	0x3ecbc049	0.3979514
43	0xbf7e48a8	-0.99329615
44	0x3ff9454f	1.9474276
45	0xbf9dae86	-1.2318885
46	0xbe5eb7ca	-0.21749797
47	0x3ee8ea5d	0.45491305
48	0xbf0f80dd	-0.56056005
49	0x3e3096db	0.17245047
50	0xbfabde21	-1.3427163
51	0x3fa0f4e0	1.257473
52	0xbd8f45a0	-0.06995702
53	0xbfbe1faa	-1.4853413
54	0xbf8cc24a	-1.0996792
55	0xbf306b23	-0.6891348
56	0x3f8293bf	1.0201339
57	0xbefdfa9e	-0.49605268
58	0x4048bfd4	3.1367083
59	0x3f0526d6	0.52012384
60	0x3f505fb9	0.8139606
61	0x3e4b15d4	0.19832546
62	0x3f1df390	0.6169977
63	0xbe7db829	-0.24777283
64	0xbef717a7	-0.48260233
65	0xbf36cf03	-0.71409625
66	0x3f6de43c	0.92926383
67	0xbf4c875d	-0.7989405
68	0x3fde6651	1.7374974
69	0x3e02e610	0.12783074
70	0x3ee8bcfe	0.4545669
71	0xbee14504	-0.43997967
72	0xc027e476	-2.6233191
73	0xbf6f8888	-0.93567705
74	0x3f6ae62f	0.9175748
75	0x3de8048c	0.11328992
76	0xbe8bd52d	-0.27311078
77	0x3f4407a4	0.7657416
78	0x3d8b0a3f	0.06789064
79	0xbfaecf58	-1.3657026
80	0x3f3743f2	0.7158805
81	0x3f442817	0.7662367
82	0x3f9c0b3c	1.2190928
83	0x3fb45374	1.4087968
84	0x3eb80f08	0.35948968
85	0xbfaa9808	-1.3327646
86	0xbf87cca1	-1.0609323
87	0x3fd9faac	1.7029624
88	0xbf4fb3b1	-0.8113356
89	0xbf34b721	-0.7059193
90	0xbf37e5b5	-0.7183488
91	0xbf8d6440	-1.1046219
92	0xbede23bd	-0.4338664
93	0xbefd7054	-0.49499762
94	0xc0071a7a	-2.110991
95	0x3f410286	0.75394475
96	0xbee067a8	-0.43829083
97	0x3de71ace	0.112844095
98	0x3f43ea70	0.765296
99	0x3f004792	0.5010921
100	0x3e8a85a7	0.27055094
101	0x3e90f54f	0.28312156
102	0x3e7660e5	0.240604
103	0x3f0deea0	0.5544224
104	0xc041b1e9	-3.0264838
105	0xc031b4b5	-2.7766545
106	0xbe5394b1	-0.2066219
107	0x4011f217	2.280401
108	0x3f559e39	0.83444554
109	0x3fd81cc5	1.688378
110	0xbf03615c	-0.51320434
111	0x3e5d8d22	0.21635869
112	0x3dcbb4f0	0.099466205
113	0x3f22ea7b	0.6363904
114	0x3e31303c	0.17303556
115	0xbf9dbfeb	-1.2324194
116	0x3e6c8db5	0.23100932
117	0xbf6c7aa0	-0.9237461
118	0xbf473220	-0.7781086
119	0x3eb79cd4	0.35861838
120	0x3e97327d	0.29530707
121	0x3fa69ca2	1.301655
122	0xc04103f7	-3.015867
123	0xbf590454	-0.8477223
124	0x40156061	2.3340075
125	0x3e2496d1	0.16073157
126	0x3f823e36	1.0175235
127	0xbee5b16e	-0.4486193
128	0x3f2bebf9	0.6715694
129	0x400bf823	2.18702
130	0x3f18ea18	0.597322
131	0x3ee7aa45	0.45247093
132	0xbdba106b	-0.09085163
133	0xbcaa2a1f	-0.020772038
134	0xbec603ac	-0.38674676
135	0x3f5bae63	0.8581297
136	0xc00ae535	-2.1702397
137	0xbf181346	-0.5940441
138	0x3f9cb81e	1.2243688
139	0xbd86ea92	-0.065877095
140	0xbf0a9d8b	-0.5414664
141	0x4015679b	2.3344486
142	0xbf360871	-0.7110663
143	0x3ed188bd	0.40924636
144	0xbd190eaf	-0.03736752
145	0x3f815ab4	1.0105805
146	0xc08df02d	-4.4355683
147	0x3fc5433c	1.5411143
148	0xbf054dc7	-0.52071804
149	0x3f082e3d	0.53195554
150	0x3f14b9fc	0.5809629
151	0xbf1b52ab	-0.60673016
152	0x3c42e8fe	0.01189637
153	0x40227b64	2.5387812
154	0x3ec94a7a	0.39314634
155	0x3fb5318d	1.4155747
156	0xbd123dfe	-0.03570365
157	0xbf3da977	-0.7408671
158	0xbf8ac94a	-1.0842679
159	0xbd657014	-0.05601509
160	0xc00bb623	-2.1829917
161	0xbdeee11e	-0.116640314
162	0xbfd936e6	-1.6969879
163	0xbddd8ae0	-0.10817504
164	0xbdaab9b9	-0.08336205
165	0x3e1c0997	0.15238033
166	0xbf612d4e	-0.87959754
167	0x3e718fe2	0.23590043
168	0x4016153f	2.3450468
169	0xbfa28b00	-1.269867
170	0xc0076c6e	-2.115993
171	0xbf38df89	-0.7221609
172	0xc0103fb4	-2.2538881
173	0x3ef0a807	0.47003195
174	0x3fd638cb	1.6736082
175	0xbf31d5ec	-0.69467044
176	0xbe32badc	-0.17454094
177	0xbf56bdcc	-0.8388336
178	0xbf322f1b	-0.6960313
179	0x3f4602f3	0.7734825
180	0x3eeeece8	0.4666512
181	0x3dab1af1	0.08354748
182	0xbf03a659	-0.514257
183	0x3f7f2620	0.9966755
184	0x3ef517ef	0.47869822
185	0x3ebadec1	0.36498073
186	0x4013469e	2.3011851
187	0x3e6fb863	0.23410182
188	0x3f0ebc53	0.5575611
189	0xbfb303ac	-1.3985496
190	0xc02fec51	-2.7487986
191	0xbd5aa270	-0.05337757
192	0x3ec5da0a	0.38642913
193	0x3f04847f	0.51764673
194	0xbf460559	-0.7735191
195	0x4023b9eb	2.5582225
196	0xbe45806a	-0.19287267
197	0x408ada90	4.33918
198	0xbef8392b	-0.48481116
199	0xbf0961e4	-0.53664994
200	0x3fa61fe5	1.2978483
201	0xc011e165	-2.279382
202	0xc01e0cb7	-2.469526
203	0x3eb0f243	0.3455983
204	0xbd82359d	-0.06357882
205	0x3f83774a	1.0270779
206	0xbfdc459f	-1.7208747
207	0xbf408c65	-0.75214225
208	0xbeccd627	-0.40007135
209	0x3df04831	0.117325194
210	0xbfe05729	-1.7526599
211	0x3fa399c7	1.2781304
212	0x3f375fa9	0.7163034
213	0xbfdd4e94	-1.7289605
214	0xc09e250b	-4.942022
215	0xbf327923	-0.6971609
216	0xbfb1560f	-1.3854388
217	0x3fced2b9	1.6158057
218	0xbf0c55bb	-0.54818314
219	0xbe8b2623	-0.27177534
220	0x3d60a4fc	0.05484484
221	0xbf70afb9	-0.9401813
222	0xbee99f12	-0.45629174
223	0x3f9b63c9	1.2139827
224	0xbfc95c50	-1.5731297
225	0xbf1ae753	-0.6050922
226	0x3f56eece	0.8395814
227	0xbf2d83e2	-0.6777936
228	0x3ed2d5bb	0.41178688
229	0xbe573509	-0.21016325
230	0xbd9c4006	-0.07629399
231	0x3ececd37	0.40390942
232	0xbf38618a	-0.7202383
233	0x3f908b5a	1.1292527
234	0xbf840cd5	-1.0316416
235	0x3f9a7bde	1.2069051
236	0x405e6177	3.4746988
237	0xbf3b45be	-0.73153293
238	0xc0085489	-2.1301596
239	0xbef0dd55	-0.47043863
240	0xbeb2d676	-0.34929246
241	0x3f247c1e	0.6425189
242	0x3f094f66	0.5363678
243	0xc032815c	-2.7891455
244	0x3da7a11b	0.08185025
245	0x3fa96576	1.3234088
246	0x40451281	3.0792544
247	0x408c0d4d	4.3766236
248	0xbd06b28d	-0.032885123
249	0x400f777e	2.2416682
250	0xc0c6a214	-6.207285
251	0x40050651	2.0785105
252	0x402d2145	2.7051556
253	0xbecb69ab	-0.39729056
254	0xbf77736c	-0.96660495
255	0x3e00eec9	0.1259109

base.mlp.fc2.0.0.bias f4 [64]
0	0xbf7eecb4	-0.9957993
1	0xbf9e17e0	-1.2351036
2	0xbd1b11a0	-0.037858605
3	0xbfa4afd0	-1.2866154
4	0xbfe95e70	-1.8231945
5	0xbe91e1ca	-0.28492576
6	0xbf29cb68	-0.66326
7	0xc010ca32	-2.262341
8	0xbedd442d	-0.43216076
9	0xbffac0cd	-1.9590088
10	0xbf38e466	-0.7222351
11	0xc00556cb	-2.0834224
12	0xc0047959	-2.0699065
13	0xbe3ea6bc	-0.18618292
14	0xbfb1bdec	-1.3886085
15	0xbf1c943a	-0.61163676
16	0xbfc717f5	-1.5554186
17	0xbffe5894	-1.9870782
18	0xbf987606	-1.1911018
19	0x3fca7cf2	1.581938
20	0xbf0a76a4	-0.5408728
21	0xc00c8263	-2.1954582
22	0x3ee83ebf	0.4536037
23	0xbe30d1f1	-0.17267586
24	0xbd953ed0	-0.07287371
25	0xbf9a7011	-1.206545
26	0xbfcf216f	-1.6182078
27	0x3d473edf	0.048643943
28	0xbfb3115e	-1.3989675
29	0x3efc2d96	0.4925353
30	0xbf367cd1	-0.71284205
31	0xbf716503	-0.94294757
32	0xbfa4d063	-1.2876095
33	0xbff3a30e	-1.9034135
34	0xbe6eaf56	-0.23309073
35	0xbf22bb50	-0.63567066
36	0xbe2d15af	-0.16902803
37	0x3b8ff122	0.004392759
38	0xbf7e5370	-0.99346066
39	0xbf4a5d0f	-0.79048246
40	0xc003dce9	-2.0603583
41	0xbe2a7a3a	-0.16648188
42	0xbf8816c8	-1.0631952
43	0x3f72d144	0.94850564
44	0xbb8330ec	-0.0040036347
45	0xbe83daa5	-0.2575275
46	0xbf31a618	-0.69394064
47	0x3daa7838	0.08323711
48	0xc02c8d13	-2.6961105
49	0x3ec6c5fa	0.3882292
50	0xbfb027f3	-1.3762192
51	0x3eb0e8bf	0.3455257
52	0x3eb9d815	0.3629767
53	0x3b28c831	0.002575409
54	0xbfec28ad	-1.8449913
55	0xbf971a05	-1.1804816
56	0xbf1b765d	-0.60727483
57	0xbf6de966	-0.9293426
58	0xc0881668	-4.252735
59	0xbf837f6c	-1.0273261
60	0xbda2e5d9	-0.07953996
61	0xbe318549	-0.17336
62	0x3f095ba2	0.53655446
63	0xbf3af3ca	-0.7302824

base.mlp.fc2.0.2.weight f4 [64]
0	0x00004c08	2.7275e-41
1	0x343e9a34	1.7751228e-07
2	0x8040bc88	-5.945104e-39
3	0x3e7e7a3d	0.24851318
4	0xb30cedda	-3.2812615e-08
5	0xb3444abf	-4.5702787e-08
6	0x00010f70	9.7373e-41
7	0x3fa6efde	1.3041952
8	0x00004264	2.3816e-41
9	0xabf8f74c	-1.7690099e-12
10	0x80012360	-1.04526e-40
11	0xb38f82a1	-6.682718e-08
12	0x3fa5a410	1.2940693
13	0x0026c918	3.561888e-39
14	0xb794bbac	-1.7730366e-05
15	0x80005158	-2.918e-41
16	0x3789fd45	1.644961e-05
17	0xb095efc0	-1.0909318e-09
18	0x3fa9384d	1.3220307
19	0x00007b00	4.4124e-41
20	0x00004240	2.3766e-41
21	0xb4130579	-1.3692433e-07
22	0x3d72611d	0.059174646
23	0x3c803a5e	0.015652832
24	0x80fffe5c	-2.3509298e-38
25	0x30f3ea3c	1.774715e-09
26	0x38acbf4a	8.2372295e-05
27	0x8c7f8d63	-1.9687032e-31
28	0x38e57979	0.00010942197
29	0x8000e874	-8.3388e-41
30	0x3ea8baf1	0.32955125
31	0x3c8573ee	0.016290631
32	0xa6110f9e	-5.0328146e-16
33	0x38e0dacd	0.00010721907
34	0x0001b55c	1.56895e-40
35	0x800050d0	-2.899e-41
36	0x000041bc	2.3581e-41
37	0x0000586c	3.172e-41
38	0x3c102690	0.0087982565
39	0x3e91df73	0.2849079
40	0xb308bfa4	-3.1839264e-08
41	0x39e7449b	0.00044110868
42	0xb2a51133	-1.921635e-08
43	0xb4602383	-2.0874545e-07
44	0x0001450c	1.16605e-40
45	0x8000d8bc	-7.775e-41
46	0x969c8ac7	-2.529074e-25
47	0x3f863b5f	1.0486869
48	0x3fce18ee	1.6101358
49	0x00015154	1.2101e-40
50	0x3406a890	1.2541045e-07
51	0x00004b50	2.7017e-41
52	0x3f81f215	1.0152003
53	0x0000c544	7.0766e-41
54	0x00005fd0	3.4371e-41
55	0x80005580	-3.0672e-41
56	0xb38e431f	-6.6245995e-08
57	0x0000cb44	7.2918e-41
58	0x3fba7ef6	1.4569995
59	0x3f9b6598	1.2140379
60	0x000189f4	1.41324e-40
61	0x00009410	5.3115e-41
62	0x000121b8	1.03932e-40
63	0x3d1470a8	0.03624025

base.mlp.fc2.0.2.bias f4 [64]
0	0x8000b59c	-6.5149e-41
1	0x340d810c	1.3178595e-07
2	0x004154d4	5.999738e-39
3	0x3e460907	0.19339381
4	0xb2d1424b	-2.4360949e-08
5	0xb311bb76	-3.3930938e-08
6	0x000061f8	3.5145e-41
7	0x3f7ca6fa	0.98692286
8	0x80008c64	-5.0363e-41
9	0xabb8d81f	-1.3133972e-12
10	0x0000b120	6.354e-41
11	0xb3551760	-4.9614187e-08
12	0x3f770b44	0.96501565
13	0x80286e54	-3.712998e-39
14	0xb75cd29f	-1.3162061e-05
15	0x8000060c	-2.169e-42
16	0x374ce28c	1.2212095e-05
17	0xb05ea1e3	-8.0993184e-10
18	0x3f660fe9	0.89868027
19	0x0000403e	2.3046e-41
20	0x800073ec	-4.1585e-41
21	0xb3da4ddb	-1.0165578e-07
22	0x3d1a584a	0.037681855
23	0xbcedc13d	-0.029022807
24	0x008a112c	1.2679459e-38
25	0x30b5152e	1.3175503e-09
26	0x3880061d	6.104654e-05
27	0x0b0ec562	2.74967e-32
28	0x38a5d890	7.908151e-05
29	0x800084c0	-4.7622e-41
30	0x3e84c30a	0.25930053
31	0x3c53d461	0.012929053
32	0xa5bdd01f	-3.2927302e-16
33	0x38a6e48b	7.958066e-05
34	0x8002216c	-1.9566e-40
35	0x800029f0	-1.5044e-41
36	0x80001cc8	-1.0325e-41
37	0x0000381c	2.0128e-41
38	0xbc638c33	-0.013888407
39	0x3dd98eea	0.10622962
40	0xb2cb0d33	-2.3638313e-08
41	0xbab8c802	-0.0014097693
42	0xb2765943	-1.433938e-08
43	0x35367d0f	6.798227e-07
44	0x0000739a	4.147e-41
45	0x00014290	1.15714e-40
46	0x1756f871	6.9460706e-25
47	0x3eed3754	0.46331275
48	0x3f9e8b57	1.2386273
49	0x0000bdb0	6.8047e-41
50	0x33c7f1d4	9.310648e-08
51	0x80006208	-3.5167e-41
52	0x3eb4853a	0.35257894
53	0x8000aa68	-6.113e-41
54	0x0000bf04	6.8523e-41
55	0x00005560	3.0627e-41
56	0xb3533cf5	-4.9182706e-08
57	0x0000d878	7.7654e-41
58	0x3f90d1ab	1.1313986
59	0x3eec811b	0.4619225
60	0x80016550	-1.2818e-40
61	0x0000e7c4	8.3142e-41
62	0x80001c5c	-1.0173e-41
63	0x3ce905ad	0.02844509

v_out.weight f4 [1, 64]
0	0x00002dc8	1.6423e-41
1	0xb1047d7b	-1.9279855e-09
2	0x000c3e68	1.124413e-39
3	0x3c1149bb	0.008867676
4	0x2fc3de90	3.5628434e-10
5	0x300867fc	4.962428e-10
6	0x8000316c	-1.7729e-41
7	0xbe0bdb7c	-0.13657945
8	0x000026ab	1.3871e-41
9	0x28bdce2b	2.1072626e-14
10	0x80005548	-3.0593e-41
11	0x30477387	7.255995e-10
12	0xbe5d471a	-0.21609154
13	0x80034e72	-3.03647e-40
14	0x344e7e1c	1.9231123e-07
15	0x0000123c	6.541e-42
16	0xb43fb4da	-1.7854055e-07
17	0x2d5064b9	1.1845796e-11
18	0xbe68f498	-0.22749555
19	0x00005850	3.168e-41
20	0x00002037	1.1557e-41
21	0x30cc53f2	1.4866812e-09
22	0x3bdd5fd3	0.006755808
23	0xba01f097	-0.000495681
24	0x8038f400	-5.230318e-39
25	0xada98fa5	-1.9276867e-11
26	0xb56a0d8c	-8.7191506e-07
27	0x0a92170f	1.4067962e-32
28	0x36f67386	7.34482e-06
29	0x00002d78	1.6311e-41
30	0xbb12fa61	-0.002242707
31	0xb91ee6a7	-0.00015153979
32	0xa2ec7191	-6.408817e-18
33	0xb59bd0a1	-1.1609119e-06
34	0x80001708	-8.262e-42
35	0x00000498	1.648e-42
36	0x800008f0	-3.206e-42
37	0x00006110	3.482e-41
38	0xbaf23c54	-0.0018481114
39	0x3c6758c5	0.014120285
40	0x2fbe0ee3	3.4571376e-10
41	0x38a61509	7.919415e-05
42	0x2f895370	2.497944e-10
43	0x3301b11b	3.019623e-08
44	0x80005938	-3.2006e-41
45	0x800019e8	-9.293e-42
46	0x14c197fc	1.9547967e-26
47	0xbecc7923	-0.3993617
48	0xbee62030	-0.44946432
49	0x80000090	-2.02e-43
50	0xb0bb1f5f	-1.3614957e-09
51	0x000037c2	2.0002e-41
52	0xbeb9adb0	-0.36265326
53	0x00005fd6	3.438e-41
54	0x800023c8	-1.2836e-41
55	0x80003c88	-2.1715e-41
56	0x3045b7ae	7.1929207e-10
57	0x000017fc	8.604e-42
58	0xbea73a68	-0.32661748
59	0xbecb2147	-0.39673826
60	0x8000116c	-6.25e-42
61	0x80000950	-3.34e-42
62	0x00002120	1.1883e-41
63	0xb9c544da	-0.00037626066
