ami_mujoco/ckpt/mujoco/HalfCheetah-v2_2x3/victim/actor.pt (torch, 25150 bytes, 13 tensors)

base.feature_norm.weight f4 [9]
1.0532976 1.0557978 1.0302336 0.92173773 0.9989302 0.9397256 1.0655353 0.9752298
1.0309837
00000000: 75d2 863f 6224 873f b2de 833f 01f7 6b3f
00000010: e4b9 7f3f db91 703f 7663 883f a9a8 793f
00000020: 46f7 833f

base.feature_norm.bias f4 [9]
-0.019373951 0.020831732 -0.002105824 0.03143348 -0.029292993 -0.0050572334 0.0025273568 -0.013494157
0.011618881
00000000: 1fb6 9ebc 4fa7 aa3c dd01 0abb 65c0 003d
00000010: dcf7 efbc 26b7 a5bb 03a2 253b 9916 5dbc
00000020: 1e5d 3e3c

base.mlp.fc1.0.weight f4 [64, 9]
0.11710573 -0.15708323 0.007404949 -0.03728711 0.076347165 0.3123481 0.018242592 -0.05984787
0.07331447 0.12088803 -0.26619193 0.13635474 0.069809094 0.3009868 0.1228033 0.2905913
-0.21567489 0.41048464 -0.101466686 0.18374358 -0.04717997 0.099183664 0.36382946 -0.086320594
-0.02444825 -0.18157648 0.07812894 -0.18162462 0.13834937 -0.048754297 -0.010347221 0.06358394
0.1445259 0.15693404 -0.28661987 -0.22991085 0.037978332 0.11254816 -0.30876112 0.015063696
0.0027374828 0.2325994 0.021773549 0.07583163 -0.141133 -0.20363244 0.118979506 0.12039412
0.17971183 0.13521554 -0.16286044 -0.015657451 -0.05808459 -0.18926539 0.23508538 0.014037879
-0.24764547 0.1274503 -0.09148962 -0.099685594 0.33544016 -0.38115743 0.0033955146 -0.017592961
0.06273358 0.14797632 0.2698746 -0.2939119 -0.06821854 -0.24883337 0.16680427 0.14717068
0.056658193 0.048427917 0.0034811744 0.29997733 0.01694974 -0.23419608 -0.1265134 -0.0883557
0.09538559 0.0070919027 -0.18705383 0.07685319 -0.03439741 -0.26267534 0.30344415 0.004548387
-0.3309948 0.13231762 0.09194926 -0.08648934 0.07068785 -0.0479279 0.35798532 -0.026147986
-0.015360529 0.06803905 0.02476285 0.03836746 -0.09330352 -0.1338989 0.3182545 -0.17096545
-0.1885524 -0.04290033 -0.19938836 0.05697045 -0.012892461 0.22922494 0.2651578 0.02483288
-0.24674234 0.191495 0.28865644 0.27075693 -0.019500673 0.21329328 -0.13612589 -0.02196328
-0.10892478 -0.3821 0.07799918 -0.18611573 -0.07718584 0.22802173 0.06913774 -0.0025665993
0.096727684 0.07490765 0.25885162 0.09244297 0.31233668 0.12405929 -0.29438156 -0.09816156
-0.045845103 0.16753061 0.07301989 -0.039448958 0.11013323 -0.3052739 -0.12454485 0.04478879
0.094494246 -0.11812397 -0.119057134 -0.0025202932 0.08611583 0.12903808 -0.29970554 -0.23436905
-0.04020276 -0.103386045 0.17528245 0.06750826 0.21760406 0.17556483 0.14459674 0.15943052
-0.31393617 -0.066102214 -0.085701756 -0.027399106 -0.1274421 0.24815634 -0.5178534 -0.013726475
-0.14084217 0.0037856444 0.3094763 0.10070406 -0.16004355 0.34084666 -0.17710593 -0.17347223
-0.13948037 -0.30838394 -0.25124547 -0.14523406 -0.4778405 -0.18618208 0.20484044 -0.056943387
-0.099173285 0.22949244 0.045421164 0.28111258 -0.28932238 -0.039474513 -0.2775749 0.08294456
-0.10357506 0.003279819 -0.08960325 -0.11478464 -0.071988575 -0.0910179 -0.06896697 0.12557623
0.12234895 -0.12186224 -0.0075148484 -0.25664768 -0.14277798 0.069066554 -0.2020413 -0.15511647
-0.27243382 -0.04961165 0.17836274 0.18366529 0.068772435 0.053525086 -0.24495599 -0.015127227
0.031634234 0.23324628 -0.24263394 -0.036157843 -0.09895363 -0.024142215 -0.25344414 0.030717473
0.48528886 -0.09937074 -0.25198662 -0.12086686 0.13863207 0.16306384 0.064137176 -0.24144445
-0.008516576 0.0009884827 0.03666716 -0.07728125 -0.18211177 -0.044865128 0.19208038 0.008649827
-0.23624316 0.026856428 0.01826726 0.39790612 -0.17281136 0.15882719 0.0075481203 0.06445862
-0.020304358 0.0032424135 0.099308826 -0.28666204 -0.19222169 -0.24289437 0.36064348 0.0489226
00000000: 21d5 ef3d 6dda 20be 37a5 f23b 5eba 18bd
00000010: e75b 9c3d 17ec 9f3e 7d71 953c 0a23 75bd
00000020: e625 963d 2594 f73d 4f4a 88be 94a0 0b3e
00000030: 12f8 8e3d f11a 9a3e 4c80 fb3d 62c8 943e
00000040: e1d9 5cbe 0b2b d23e c4cd cfbd 4727 3c3e
00000050: c93f 41bd ce20 cb3d db47 ba3e dac8 b0bd
00000060: b247 c8bc 2fef 39be 1102 a03d cefb 39be
00000070: 75ab 0d3e 96b2 47bd 6487 29bc 4c38 823d
00000080: 99fe 133e 51b3 203e d7bf 92be c06d 6bbe
00000090: 2b8f 1b3d a67f e63d f015 9ebe b8cd 763c
000000a0: 5767 333b 8a2e 6e3e 715e b23c 9d4d 9b3d
000000b0: 2b85 10be 0685 50be 87ab f33d 3191 f63d
000000c0: 6106 383e f175 0a3e e3c4 26be 0e44 80bc
000000d0: 1bea 6dbd c9ce 41be 39ba 703e 22ff 653c
000000e0: c696 7dbe 5582 023e e95e bbbd f627 ccbd
000000f0: d0be ab3e 1127 c3be 4887 5e3b 1d1f 90bc
00000100: 777a 803d 1b87 173e 012d 8a3e 9f7b 96be
00000110: 29b6 8bbd 2dce 7ebe bdce 2a3e e9b3 163e
00000120: 6c12 683d 5a5c 463d 6a24 643b a196 993e
00000130: 2eda 8a3c 19d1 6fbe bb8c 01be d5f3 b4bd
00000140: 8559 c33d 3163 e83b 0a8b 3fbe 3565 9d3d
00000150: 4ce4 0cbd 627d 86be 085d 9b3e a30a 953b
00000160: 2778 a9be 457e 073e e54f bc3d 5321 b1bd
00000170: cbc4 903d 0c50 44bd da49 b73e 4d34 d6bc
00000180: baaa 7bbc 0f58 8b3d 76db ca3c 3327 1d3d
00000190: ea15 bfbd cb1c 09be 41f2 a23e 9111 2fbe
000001a0: e113 41be 42b8 2fbd 762c 4cbe d959 693d
000001b0: e73a 53bc f1b9 6a3e c3c2 873e 536e cb3c
000001c0: 06aa 7cbe 4417 443e c7ca 933e a7a0 8a3e
000001d0: e0bf 9fbc 8e69 5a3e 9664 0bbe 56ec b3bc
000001e0: f413 dfbd 9ca2 c3be 09be 9f3d 1f95 3ebe
000001f0: 9c13 9ebd 877e 693e 1698 8d3d 6434 28bb
00000200: 2a19 c63d 2f69 993d 3388 843e bd52 bd3d
00000210: 98ea 9f3e cc12 fe3d 2eb9 96be ee08 c9bd
00000220: 13c8 3bbd 258d 2b3e 748b 953d 3b95 21bd
00000230: 888d e13d dc4c 9cbe 5f11 ffbd 7374 373d
00000240: 3386 c13d fbea f1bd 3ad4 f3bd 812b 25bb
00000250: 7f5d b03d 8f22 043e 0173 99be 71fe 6fbe
00000260: a6ab 24bd 10bc d3bd 3e7d 333e c541 8a3d
00000270: 99d3 5e3e 44c7 333e 2b11 143e c141 233e
00000280: 3ebc a0be 9960 87bd 6784 afbd 1774 e0bc
00000290: 2f80 02be b21c 7e3e 0a92 04bf 02e5 60bc
000002a0: ee38 10be 9318 783b ad73 9e3e ee3d ce3d
000002b0: 75e2 23be 7483 ae3e 425b 35be b4a2 31be
000002c0: f1d3 0ebe 80e4 9dbe 3fa3 80be 3db8 14be
000002d0: 83a7 f4be 84a6 3ebe b1c1 513e 783d 69bd
000002e0: 5d1b cbbd 1100 6b3e 8b0b 3a3d fded 8f3e
000002f0: 1022 94be 07b0 21bd 4c1e 8ebe d6de a93d
00000300: 291f d4bd 3bf2 563b e981 b7bd 3614 ebbd
00000310: bf6e 93bd 9867 babd 8e3e 8dbd 0e97 003e
00000320: 1692 fa3d e992 f9bd 1e3f f6bb 5367 83be
00000330: 6434 12be c472 8d3d eae3 4ebe dad6 1ebe
00000340: 727c 8bbe 9635 4bbd b9a4 363e c112 3c3e
00000350: 90d8 8c3d 1f3d 5b3d bed5 7abe 30d8 77bc
00000360: e692 013d 1dd8 6e3e 0875 78be 3f1a 14bd
00000370: 33a8 cabd e5c5 c5bc 6ec3 81be 36a3 fb3c
00000380: c877 f83e e382 cbbd 6404 81be 0b89 f7bd
00000390: 91f5 0d3e 35fa 263e 5a5a 833d 373d 77be
000003a0: 1c89 0bbc fa8f 813a 4e30 163d a245 9ebd
000003b0: 827b 3abe 7fc4 37bd b8b0 443e 01b8 0d3c
000003c0: bae9 71be 0302 dc3c 39a5 953c 5aba cb3e
000003d0: 76f5 30be 98a3 223e 3956 f73b e202 843d
000003e0: 5355 a6bc ac7e 543b 6d62 cb3d 5ec5 92be
000003f0: c3d5 44be 4db9 78be 43a6 b83e 1063 483d

base.mlp.fc1.0.bias f4 [64]
-0.002204522 -0.013932051 0.031919084 -0.018353047 0.0060983426 -0.033514045 0.022142397 0.0034427643
-0.00095567375 -0.022149915 -0.0034737056 0.024420401 0.0062558805 -0.0025147668 0.023263281 -0.04043617
-0.01750895 0.047325715 0.0094247665 0.0092954105 0.0139617445 -0.01826161 -0.027489094 0.024595438
0.030841837 -0.013884852 0.008865479 -0.029764744 0.024331918 -0.0031271765 -0.0067025023 0.027975895
-0.008848448 -0.029689375 -0.032147817 0.008145431 0.0013720434 -0.026414637 -0.027396929 -0.03271583
-0.04797495 -0.0076308204 0.01121776 0.005569482 -0.020318212 0.01651458 4.6021243e-05 0.050789665
0.0006243492 0.011046705 -0.013824582 0.0067824707 0.00205022 0.015967574 0.003462345 -0.015849734
0.010976605 0.013972532 -0.011003981 0.018105445 -0.0062085562 0.00260471 -0.0056685526 0.01081331
00000000: be79 10bb 4243 64bc 96bd 023d 2159 96bc
00000010: 9bd4 c73b 0646 09bd f963 b53c 00a0 613b
00000020: 2e86 7aba bd73 b5bc 1ca7 63bb 4b0d c83c
00000030: 21fe cc3b c9ce 24bb a392 be3c 66a0 25bd
00000040: ee6e 8fbc 9cd8 413d 566a 1a3c c74b 183c
00000050: cdbf 643c 5f99 95bc cf30 e1bc 5f7c c93c
00000060: 05a8 fc3c 4a7d 63bc 8440 113c 31d5 f3bc
00000070: bb53 c73c 51f1 4cbb aaa0 dbbb b42d e53c
00000080: 15f9 10bc 2237 f3bc 6ead 03bd 6a74 053c
00000090: 23d6 b33a 8263 d8bc 866f e0bc 0901 06bd
000000a0: 6281 44bd f60b fabb b2ca 373c 3480 b63b
000000b0: 6172 a6bc 9649 873c ef06 4138 d308 503d
000000c0: 5eab 233a 3dfd 343c 8080 62bc 7d3f de3b
000000d0: fc5c 063b 6ece 823c 83e8 623b 4dd7 81bc
000000e0: 38d7 333c 0ced 643c 0b4a 34bc df51 943c
000000f0: 2571 cbbb c8b3 2a3b 44bf b9bb 4f2a 313c

base.mlp.fc1.2.weight f4 [64]
0.98701686 0.9749536 1.0139953 0.97821414 0.9947939 0.9835508 0.9904177 1.0000641
0.98292166 0.95701045 1.0172026 0.956827 1.019605 1.0249088 1.0833766 1.0131502
0.9799963 1.0416801 0.9699747 0.98749614 1.0366896 1.0118965 0.9506656 0.9971832
1.1101322 0.98390704 1.0550737 1.0226859 1.0173001 1.0102695 0.9844921 0.98736614
0.98287576 0.96445924 0.97599286 0.9997325 1.0102305 0.97162 1.0059128 0.96397966
0.9876876 1.0039194 0.9807576 0.9951624 0.98349357 0.9959831 0.97247624 1.05587
0.99803394 0.97590876 0.9924864 0.9913747 0.9462167 0.9980478 0.97515774 0.9512761
1.0059041 1.0029777 1.0071883 0.9947616 1.0543176 0.9932903 1.0175973 0.9851423
00000000: 23ad 7c3f 8f96 793f 99ca 813f 3e6c 7a3f
00000010: d0aa 7e3f fcc9 7b3f 048c 7d3f 1a02 803f
00000020: c1a0 7b3f a3fe 743f b233 823f 9df2 743f
00000030: 6b82 823f 3630 833f 16ac 8a3f e8ae 813f
00000040: 0ae1 7a3f c655 853f 4350 783f 8ccc 7c3f
00000050: 3fb2 843f d385 813f d25e 733f 6647 7f3f
00000060: d018 8e3f 55e1 7b3f a80c 873f 5fe7 823f
00000070: e436 823f 8350 813f ad07 7c3f 07c4 7c3f
00000080: bf9d 7b3f cde6 763f abda 793f 78ee 7f3f
00000090: 3c4f 813f 17bc 783f c0c1 803f 5fc7 763f
000000a0: 18d9 7c3f 6e80 803f ee12 7b3f f7c2 7e3f
000000b0: 3cc6 7b3f c0f8 7e3f 34f4 783f c026 873f
000000c0: 277f 7f3f 28d5 793f 9713 7e3f bbca 7d3f
000000d0: 423b 723f 1080 7f3f f0a3 793f d586 733f
000000e0: 77c1 803f 9361 803f 8ceb 803f b2a8 7e3f
000000f0: e1f3 863f 4648 7e3f a140 823f 4932 7c3f

base.mlp.fc1.2.bias f4 [64]
0.009542162 -0.007944186 0.0120339515 0.004354856 -0.0034428064 -0.018277146 0.036417607 -0.0033112268
0.007620415 -0.0210572 -0.015294379 0.059180874 -0.027170852 -0.017075948 -0.026877949 -0.055104293
-0.01945358 0.037172437 0.027054256 0.011638088 -0.015409101 -0.025445117 -0.0032308565 0.01379436
-0.009819046 -0.003695893 -0.029230865 -0.04023774 0.00040654023 -0.0041369386 0.012433516 0.013080224
-0.013269656 -0.038596332 -0.023809029 0.02593365 -0.008809127 -0.01591025 -0.03208855 -0.029674005
-0.04823725 -0.002288392 0.017493203 0.020325499 0.024535896 0.010665762 -0.02748545 0.03799567
0.0023172088 0.029301772 -0.017824855 0.023611428 0.024025962 0.006507335 0.02514372 0.019185217
-0.002107241 0.012308534 -0.03793993 0.013645182 -0.032119904 0.007938004 -0.024205158 0.020167
00000000: ba56 1c3c 5528 02bc 0d2a 453c 2eb3 8e3b
00000010: b5a0 61bb f4b9 95bc a12a 153d 2b01 59bb
00000020: adb4 f93b 2680 acbc 4695 7abc a567 723d
00000030: 6895 debc dce2 8bbc 252f dcbc 0ab5 61bd
00000040: 1d5d 9fbc 2042 183d e3a0 dd3c aead 3e3c
00000050: 7476 7cbc 4772 d0bc c7bc 53bb bd01 623c
00000060: 10e0 20bc cc36 72bb 9175 efbc 54d0 24bd
00000070: e824 d539 288f 87bb f2b5 4b3c 704e 563c
00000080: f968 59bc 3017 1ebd 270b c3bc ce72 d43c
00000090: 2854 10bc 3656 82bc 496f 03bd e616 f3bc
000000a0: 6c94 45bd d9f8 15bb e84d 8f3c a981 a63c
000000b0: 81ff c83c 73bf 2e3c 2b29 e1bc 59a1 1b3d
000000c0: 50dc 173b 450a f03c 6e05 92bc c16c c13c
000000d0: 18d2 c43c 7c3b d53b 34fa cd3c 512a 9d3c
000000e0: a319 0abb bca9 493c e666 1bbd 0b90 5f3c
000000f0: 2990 03bd 670e 023c e549 c6bc 4435 a53c

base.mlp.fc2.0.0.weight f4 [64, 64]
-0.29986373 0.11850974 0.040955156 0.08836375 -0.12848562 0.070742354 -0.0761124 -0.04132647
-0.11321727 -0.2759919 -0.21926132 -0.071064286 -0.0021620805 -0.36732882 0.08326674 0.20156556
-0.14439058 0.17427073 0.09174554 -0.03442599 0.063785225 -0.044273008 -0.09309308 0.12816508
0.123929024 -0.1088519 0.5422109 -0.06395957 0.074279554 -0.27177608 -0.11043102 0.11497676
0.11722791 0.06865577 0.06560929 0.28596908 0.06673647 -0.14425777 -0.21235643 -0.15735917
-0.005079367 0.17350978 0.051591396 -0.1048257 -0.3201846 0.08396994 0.11053822 -0.3050006
-0.13632357 0.27098188 -0.06023069 0.015947588 -0.10717824 -0.11311533 -0.044545446 0.367218
-0.100250036 0.078799374 -0.2352935 -0.1045648 0.17872515 0.30550218 0.1726125 -0.118593596
0.09343631 -0.10343336 -0.39140898 0.104941055 0.18562092 -0.03292533 0.37330052 -0.2529277
0.070750855 0.16242182 -0.1270876 -0.0066780024 0.45354402 -0.16956666 -0.050494038 0.22766742
-0.048247766 0.1067364 0.03290215 -0.17569321 -0.11432487 -0.20738688 -0.03411292 0.084686935
0.05392659 0.12029855 0.008803635 0.41667637 0.18070613 -0.10774213 0.070234515 -0.12672514
0.093940176 -0.37653318 0.04543111 -0.03401744 0.11170402 -0.031782832 -0.20042168 0.11762811
-0.21951815 -0.05930565 0.09823469 0.06766302 -0.0541035 0.13004765 -0.008944886 0.022134272
0.332979 -0.055479985 -0.10336285 -0.28508905 0.32555902 -0.10855568 0.012942679 -0.022808814
0.0003546624 0.004045181 -0.21996488 0.16563636 0.057854936 0.18247437 -0.37936783 0.16564502
-0.10431274 -0.24491791 0.10586514 0.18332464 -0.16360368 0.19908585 0.08733768 -0.28562483
0.13447562 0.17257465 -0.018052906 0.3685697 0.14515913 0.047847416 0.24551105 0.31606653
-0.119084984 -0.19929276 -0.13384041 0.23036782 0.16399711 0.10924296 -0.24148238 0.062540926
0.11154662 -0.38602838 -0.038296834 -0.15691607 -0.05596055 -0.23115577 -0.13894443 0.038075645
-0.06327449 0.004191435 -0.04450118 -0.02464439 0.11027535 -0.22229888 0.33552673 -0.044707242
0.080626935 0.3120701 -0.3411759 -0.1438095 0.26947471 0.21822022 -0.15722536 0.12057939
0.17590846 0.016136369 -0.042178113 -0.06459569 0.12241822 -0.035290025 -0.2155508 -0.1673605
-0.037134442 0.2204072 0.04402191 -0.09168867 0.1706253 0.18143132 0.10895068 0.02864085
0.23472117 -0.36150792 0.21905024 0.16701396 0.09238826 -0.07108972 -0.027841827 -0.16865855
0.2684323 0.056996416 -0.260182 -0.15705374 -0.0725862 -0.22844686 -0.06014744 -0.11776879
-0.3288459 0.23481977 0.19293651 0.2544961 -0.03195098 0.097090915 0.11143771 0.104815684
-0.14431517 -0.24262397 -0.074350126 0.069556996 -0.08363927 -0.18690373 0.03754202 0.04048661
-0.12010684 -0.08342762 0.17498185 0.090129025 -0.19378103 0.1507735 -0.13063955 0.32965985
-0.37393802 0.013224102 -0.057310592 0.025654024 0.14876297 0.13143197 -0.007925797 -0.06786508
-0.11975425 0.20728894 -0.23825982 0.14650226 0.06136255 -0.027524136 0.14954089 0.00052097737
0.25544402 0.19121455 0.35842302 -0.35167906 -0.2585302 -0.0906651 -0.26618713 -0.053717036
00000000: bd87 99be 3cb5 f23d 98c0 273d 0ef8 b43d
00000010: bc91 03be 5ee1 903d d1e0 9bbd f245 29bd
00000020: 75de e7bd cf4e 8dbe 0a86 60be 278a 91bd
00000030: b1b1 0dbb 8612 bcbe c187 aa3d 3467 4e3e
00000040: 20db 13be 0774 323e 16e5 bb3d 4402 0dbd
00000050: d4a1 823d 9d57 35bd 96a7 bebd b53d 033e
00000060: 80ce fd3d bfed debd 55ce 0a3f 3cfd 82bd
00000070: e11f 983d 3c26 8bbe a929 e2bd f078 eb3d
00000080: 3015 f03d 659b 8c3d 2a5e 863d 8a6a 923e
00000090: 21ad 883d 4fb8 13be f773 59be c322 21be
000000a0: d270 a6bb 8cac 313e 8051 533d dbae d6bd
000000b0: 3cef a3be 6ff8 ab3d dd61 e23d 0a29 9cbe
000000c0: 6898 0bbe 23be 8a3e 75b4 76bd 84a4 823c
000000d0: 4480 dbbd 03a9 e7bd 4975 36bd ff03 bc3e
000000e0: e44f cdbd 9161 a13d c7f0 70be 1226 d6bd
000000f0: ba03 373e c86a 9c3e 55c1 303e 33e1 f2bd
00000100: 895b bf3d dfd4 d3bd c266 c8be 56eb d63d
00000110: 6913 3e3e b6dc 06bd 3f21 bf3e bd7f 81be
00000120: d3e5 903d e851 263e 4023 02be 25d3 dabb
00000130: ec36 e83e e2a2 2dbe d6d2 4ebd a621 693e
00000140: 739f 45bd 9d98 da3d 68c4 063d ece8 33be
00000150: 2823 eabd 3a5d 54be fdb9 0bbd 5870 ad3d
00000160: 21e2 5c3d 165f f63d 1f3d 103c 9b56 d53e
00000170: 070b 393e e8a7 dcbd 1dd7 8f3d 3cc4 01be
00000180: b563 c03d f5c8 c0be f915 3a3d df55 0bbd
00000190: 14c5 e43d b72e 02bd 573b 4dbe 02e7 f03d
000001a0: 5ec9 60be 7bea 72bd 452f c93d e992 8a3d
000001b0: a29b 5dbd 362b 053e 928d 12bc ef52 b53c
000001c0: 397c aa3e fb3e 63bd e7af d3bd 31f7 91be
000001d0: acaf a63e 7152 debd 880d 543c 8dd9 babc
000001e0: fbf1 b939 708d 843b 793e 61be 949c 293e
000001f0: 4cf9 6c3d 90da 3a3e 803c c2be d99e 293e
00000200: eba1 d5bd c3cb 7abe d3cf d83d 74b9 3b3e
00000210: b987 27be 29dd 4b3e 19de b23d 6b3d 92be
00000220: fab3 093e 69b7 303e b0e3 93bc 2bb5 bc3e
00000230: 98a4 143e a7fb 433d 4067 7b3e 79d3 a13e
00000240: d4e2 f3bd 6713 4cbe 760d 09be 8be5 6b3e
00000250: dcee 273e c6ba df3d 2847 77be 7515 803d
00000260: 8e72 e43d 83a5 c5be 24dd 1cbd 9bae 20be
00000270: e436 65bd 19b4 6cbe 7347 0ebe 35f5 1b3d
00000280: 0e96 81bd 4e58 893b df46 36bd 08e3 c9bc
00000290: 0bd8 e13d 51a2 63be 29ca ab3e f11e 37bd
000002a0: bc1f a53d a7c7 9f3e 9cae aebe cc42 13be
000002b0: 97f8 893e 1f75 5f3e afff 20be 54f2 f63d
000002c0: 5921 343e 6b30 843c f5c2 2cbd bf4a 84bd
000002d0: 67b6 fa3d 468c 10bd 59b9 5cbe 8d60 2bbe
000002e0: 491a 18bd 6db2 613e 5150 343d 45c7 bbbd
000002f0: 66b8 2e3e 22c9 393e 8921 df3d 37a0 ea3c
00000300: bf5a 703e 9117 b9be b54e 603e b505 2b3e
00000310: 0e36 bd3d 7d97 91bd 8b14 e4bc d4b4 2cbe
00000320: f56f 893e 1375 693d 9336 85be b2d2 20be
00000330: 13a8 94bd f9ed 69be 295d 76bd c330 f1bd
00000340: 7d5e a8be 9874 703e 2691 453e 504d 823e
00000350: 08df 02bd 9ad7 c63d 7439 e43d 9ba9 d63d
00000360: 5bc7 13be 6b72 78be e144 98bd e673 8e3d
00000370: 114b abbd b163 3fbe a9c5 193d 4ad5 253d
00000380: 93fa f5bd 1adc aabd 712e 333e 9195 b83d
00000390: 896e 46be 5e64 1a3e 60c6 05be 2dc9 a83e
000003a0: ce74 bfbe e7a9 583c 83be 6abd 6328 d23c
000003b0: 5255 183e 1a96 063e 34db 01bc d9fc 8abd
000003c0: b741 f5bd 8d43 543e 62fa 73be b004 163e
000003d0: 4c57 7b3d 4c7a e1bc 3f21 193e 3392 083a
000003e0: 8fc9 823e bfcd 433e 3983 b73e 470f b4be
000003f0: 125e 84be a0ae b9bd ae49 88be 6506 5cbd

base.mlp.fc2.0.0.bias f4 [64]
-0.030134777 0.018847348 -0.018017534 0.017284498 -0.021634454 -0.034012925 -0.014921382 0.022134472
0.005809689 -0.045073677 -0.007361232 0.028480796 -0.022315796 -0.038624007 -0.0433476 -0.011688945
-4.2091557e-05 -0.046383046 -0.003911226 -0.04624716 -0.032701764 -0.022720914 -0.014644988 0.0082063945
0.0053848107 -0.06284351 -0.0007130706 -0.049895074 0.024083141 -0.010499524 -0.011992892 -0.039802574
0.0282931 -0.01644321 -0.039402273 -0.0143060405 -0.007350861 -0.010164699 -0.028424365 -0.006368135
-0.014748396 -0.026240345 0.013700877 -0.025098292 -0.040535763 -0.007913276 -0.0062858774 0.003602464
-0.02221668 -0.023112252 0.022173049 0.05699005 0.024715155 -0.013108758 0.021935267 -0.00507881
0.01792715 0.0022434066 0.0006840325 -0.014355661 0.0068200706 -0.011758277 -0.006763059 -0.021302415
00000000: 35dd f6bc c165 9a3c 8299 93bc 3898 8d3c
00000010: bd3a b1bc 2351 0bbd d078 74bc 5a53 b53c
00000020: 345f be3b 2d9f 38bd 7d36 f1bb 8f50 e93c
00000030: 9ecf b6bc 3534 1ebd 418d 31bd fd82 3fbc
00000040: 778b 30b8 26fc 3dbd be29 80bb a96d 3dbd
00000050: 49f2 05bd 3621 babc 88f1 6fbc 1d74 063c
00000060: 1173 b03b 19b4 80bd 5ced 3aba c75e 4cbd
00000070: 024a c53c 3206 2cbc d67d 44bc 0608 23bd
00000080: eec6 e73c e9b3 86bc 4764 21bd e263 6abc
00000090: 7edf f0bb d689 26bc 37da e8bc caab d0bb
000000a0: 42a3 71bc fef5 d6bc a579 603c ef9a cdbc
000000b0: d408 26bd afa6 01bc c3f9 cdbb 5117 6c3b
000000c0: c1ff b5bc e855 bdbc 41a4 b53c 666e 693d
000000d0: 7077 ca3c 1ec6 56bc 97b1 b33c 256c a6bb
000000e0: f5db 923c 1e06 133b a550 333a 0234 6bbc
000000f0: e67a df3b caa5 40bc a79c ddbb 6782 aebc

base.mlp.fc2.0.2.weight f4 [64]
1.0224354 1.0398178 1.0128878 1.0576411 1.0546477 1.0438819 1.0568407 1.0138233
1.0440804 1.0381621 1.0185682 1.111489 1.0555913 1.0448054 1.0300329 1.0673438
1.0832795 1.0146848 1.0393308 1.0259815 1.0455514 1.0349969 1.0319932 1.0618143
1.0298339 1.029508 1.045396 1.0158144 1.037207 1.0376617 1.0844035 1.0261661
1.0119087 1.0299921 1.052262 1.0363303 1.0292442 1.0645868 1.0328805 1.0279182
1.056282 1.0534046 1.0283017 1.0426052 1.0397699 1.0446477 1.1145198 1.0605532
1.0742273 1.0385729 1.0164244 1.0406187 1.1146828 1.0599022 1.0326158 1.0403094
1.0764858 1.064487 1.0412292 1.070475 1.0510001 1.0581515 1.0473473 1.0615112
00000000: 2adf 823f c018 853f 4fa6 813f c960 873f
00000010: b2fe 863f ec9d 853f 8e46 873f f6c4 813f
00000020: 6da4 853f 7fe2 843f 7160 823f 4645 8e3f
00000030: 9e1d 873f 2fbc 853f 1ed8 833f b99e 883f
00000040: e7a8 8a3f 31e1 813f cb08 853f 5d53 833f
00000050: a1d4 853f c77a 843f 5a18 843f 88e9 873f
00000060: 99d1 833f ebc6 833f 89cf 853f 3506 823f
00000070: 33c3 843f 19d2 843f bccd 8a3f 6959 833f
00000080: 3986 813f c8d6 833f 85b0 863f 79a6 843f
00000090: 46be 833f 6144 883f 6e35 843f d392 833f
000000a0: 4034 873f f6d5 863f 649f 833f 1674 853f
000000b0: 2e17 853f 04b7 853f 96a8 8e3f 35c0 873f
000000c0: 4880 893f f5ef 843f 321a 823f fe32 853f
000000d0: edad 8e3f e0aa 873f c12c 843f dc28 853f
000000e0: 49ca 893f 1c41 883f 0047 853f 5305 893f
000000f0: 2c87 863f 8271 873f 7a0f 863f 99df 873f

base.mlp.fc2.0.2.bias f4 [64]
-0.030904012 0.043779723 0.028286995 0.047987644 0.035531748 -0.04111918 -0.006189599 0.057112653
0.0324802 -0.019253153 0.03316882 0.042436223 0.004437806 -0.04964148 -0.014038609 -0.04471167
-0.047911607 -0.0035517684 -0.034362614 0.002840653 -0.02863139 -0.0474264 -0.03564202 0.04668681
0.04522602 -0.035313573 -0.030664159 -0.034252837 0.04452904 -0.028702753 -0.015424915 0.04910341
0.041789204 -0.035891492 -0.038579736 -0.02292816 0.03128995 -0.047929164 -0.039079715 0.02938746
-0.044303615 -0.046617277 0.04545855 0.0249078 -0.03671515 -0.042888347 -0.048887387 0.0011714051
0.024435999 0.03759705 0.04249069 0.048377726 -0.036730558 -0.016477603 0.03856878 -0.019572113
0.0469802 -0.04512585 0.006263574 -0.04740202 0.0048539597 -0.036861606 -0.048805077 -0.039184324
00000000: 692a fdbc 5e52 333d 21ba e73c b18e 443d
00000010: bd89 113d 966c 28bd 1fd2 cabb f5ee 693d
00000020: f509 053d cab8 9dbc 07dc 073d 9bd1 2d3d
00000030: 046b 913b dd54 4bbd 3202 66bc 9623 37bd
00000040: f63e 44bd c9c4 68bb d0bf 0cbd 402a 3a3b
00000050: 608c eabc 2f42 42bd 5efd 11bd ab3a 3f3d
00000060: eb3e 393d f7a4 10bd 6733 fbbc b44c 0cbd
00000070: 1564 363d 0922 ebbc c8b8 7cbc a820 493d
00000080: 282b 2b3d f502 13bd c905 1ebd d6d3 bbbc
00000090: e429 003d 5f51 44bd 0d12 20bd f8bd f03c
000000a0: b577 35bd c2f1 3ebd bf32 3a3d 710b cc3c
000000b0: a062 16bd b1ab 2fbd 243e 48bd d589 993a
000000c0: 012e c83c 5dff 193d b80a 2e3d b927 463d
000000d0: c872 16bd 0afc 86bc 4cfa 1d3d b255 a0bc
000000e0: 4f6e 403d e2d5 38bd ab3e cd3b 9f28 42bd
000000f0: f70d 9f3b 32fc 16bd d5e7 47bd be7f 20bd

act.action_out.log_std f4 [3]
0.8560093 0.93638504 1.0821438
00000000: 6d23 5b3f eeb6 6f3f b083 8a3f

act.action_out.fc_mean.weight f4 [3, 64]
0.0049002194 -0.017373411 0.0060572536 -0.04226979 -0.03919081 0.024892123 -0.026279414 -0.010251117
-0.023851369 -0.029199755 -0.016820226 -0.08199197 -0.02721199 0.043539885 -0.018373715 0.035845384
0.03605593 0.0072940206 0.038938172 0.013165622 -0.003355712 0.025876831 0.008109307 -0.04709104
-0.0035589498 0.028704781 0.04068997 0.0064512338 -0.033808224 0.0113333315 0.034456547 -0.023111409
-0.0016010811 0.03136261 0.030786432 -0.024409404 -0.009046984 0.037573278 -0.0115466835 -0.020519733
0.023976704 0.042911272 -0.010526572 -0.030935459 0.0028819074 0.025018672 0.08085948 0.031751238
-0.05765513 -0.017713979 -0.0050850012 -0.026272515 0.086246915 -0.025829641 -0.009828979 -0.015191945
-0.05278626 0.051422507 0.010846791 0.05561648 0.02283287 0.05300116 0.039451145 0.056318466
0.00042073143 -0.033588286 -0.0034848934 -0.030843738 -0.038882922 -0.0051918775 -0.049877226 0.0079612285
0.036593545 -0.01722542 0.007400871 -0.078334436 -0.04632764 0.010688474 -0.015899185 0.035996675
0.06808024 0.008865606 -0.00042862594 -0.022890242 -0.027381876 0.017344255 0.023177959 -0.028944409
0.014900562 0.008536244 0.020647507 -0.015247662 -0.01808976 0.034396056 0.06653388 -0.01232395
-0.0007664281 0.0050959275 0.019401757 -0.0017957618 -0.008110926 0.021110302 -0.0013393345 -0.005943925
0.032563668 0.03652742 0.015909381 -0.023771664 -0.019908823 0.034332655 0.08044777 0.044546712
-0.040386483 -0.02523123 0.011874013 -0.029179921 0.07638121 -0.052757494 -0.0009010937 -0.017572742
-0.050704516 0.041216593 0.037092123 0.04351592 0.03879644 -0.016427819 0.019250564 0.008729652
0.024251878 -0.016378038 -0.01142845 -0.0276861 0.0019264021 0.039306954 0.019263905 -0.0010586125
-0.007042173 0.01856345 -0.0064041456 -0.010536973 0.016167553 0.0033150609 0.021417046 0.045697894
0.027908873 0.0064627663 0.0017522789 0.0007479495 0.037729736 0.016437069 0.02270933 -0.032587584
-0.025930477 -0.0041281315 -0.013167035 -0.0034420555 0.0057122377 0.015493621 -0.03739585 -0.005682053
-0.01261606 0.0015969622 0.037884615 0.028569203 -0.028319912 0.046475027 0.031030597 -0.020519594
0.04041334 0.008414043 -0.022910388 -0.018487198 0.034888092 0.016044939 0.010706682 -0.026202442
-0.023527693 -0.026107332 -0.013702828 -0.0066896244 -0.007370807 0.0142024895 -0.03196859 -0.031337626
-0.01978083 0.005339837 -0.017245188 0.008460768 -0.02615306 0.019851096 0.014560445 0.026121592
00000000: 0592 a03b af52 8ebc ed7b c63b 1623 2dbd
00000010: 8b86 20bd 91ea cb3c ed47 d7bc 4df4 27bc
00000020: f263 c3bc 5334 efbc 92ca 89bc 68eb a7bd
00000030: aeeb debc e156 323d 7984 96bc 9cd2 123d
00000040: 62af 133d ae02 ef3b a27d 1f3d 9fb4 573c
00000050: 81eb 5bbb a6fb d33c e6dc 043c 89e2 40bd
00000060: 453d 69bb 4a26 eb3c 87aa 263d df64 d33b
00000070: 7e7a 0abd 70af 393c 4f22 0d3d 2354 bdbc
00000080: 5edb d1ba 1576 003d d433 fc3c 3bf6 c7bc
00000090: cd39 14bc 70e6 193d 4d2e 3dbc 0019 a8bc
000000a0: cb6a c43c bbc3 2f3d a577 2cbc 5c6c fdbc
000000b0: 62de 3c3b f5f3 cc3c a899 a53d 960d 023d
000000c0: c927 6cbd e81c 91bc 15a0 a6bb 7539 d7bc
000000d0: 39a2 b03d af98 d3bc ba09 21bc a3e7 78bc
000000e0: 6836 58bd 68a0 523d bdb6 313c 1bce 633d
000000f0: 000c bb3c bf17 593d 8697 213d 31ae 663d
00000100: 9e95 dc39 df93 09bd cf62 64bb 02ac fcbc
00000110: b343 1fbd a020 aabb 104c 4cbd d06f 023c
00000120: 1de3 153d 531c 8dbc 0183 f23b ce6d a0bd
00000130: 0dc2 3dbd b61e 2f3c 023f 82bc 4071 133d
00000140: a76d 8b3d 0c41 113c 33b9 e0b9 5184 bbbc
00000150: f54f e0bc 8a15 8e3c b4df bd3c d31c edbc
00000160: 7d21 743c 9adb 0b3c f624 a93c 54d1 79bc
00000170: fa30 94bc e1e2 0c3d ea42 883d 65ea 49bc
00000180: 1eea 48ba bdfb a63b 6ff0 9e3c c45f ebba
00000190: b0e3 04bc 83ef ac3c 9c8c afba 42c5 c2bb
000001a0: 7b61 053d c79d 153d 6454 823c cbbc c2bc
000001b0: d417 a3bc 66a0 0c3d cdc1 a43d 9d76 363d
000001c0: 4c6c 25bd b9b1 cebc 388b 423c bb0a efbc
000001d0: c06d 9c3d 3e18 58bd 6037 6cba b6f4 8fbc
000001e0: 8aaf 4fbd bbd2 283d e9ed 173d c03d 323d
000001f0: 04e9 1e3d a293 86bc 5cb3 9d3c d006 0f3c
00000200: e0ab c63c 3c2b 86bc 653e 3bbc f6cd e2bc
00000210: 547f fc3a 5400 213d 56cf 9d3c 24c1 8aba
00000220: 07c2 e6bb 6012 983c ded9 d1bb 45a3 2cbc
00000230: d171 843c 7e41 593b cd72 af3c b72d 3b3d
00000240: 26a1 e43c 9dc5 d33b b9ac e53a 0b12 443a
00000250: 7f8a 1a3d 08a7 863c eb08 ba3c 8f7a 05bd
00000260: 276c d4bc 4745 87bb 8cba 57bc 1c94 61bb
00000270: b92d bb3b f5d8 7d3c 642c 19bd 8430 babb
00000280: 97b3 4ebc 2951 d13a e62c 1b3d f609 ea3c
00000290: 29ff e7bc 995c 3e3d e133 fe3c b518 a8bc
000002a0: 7588 253d 0edb 093c 91ae bbbc 7772 97bc
000002b0: d1e6 0e3d ad70 833c 146b 2f3c 81a6 d6bc
000002c0: 26bd c0bc 0bdf d5bc d481 60bc a334 dbbb
000002d0: d086 f1bb 8fb1 683c 7ff1 02bd e25b 00bd
000002e0: 680b a2bc cdf9 ae3b c845 8dbc 089f 0a3c
000002f0: f13e d6bc c49e a23c ef8e 6e3c f3fc d53c

act.action_out.fc_mean.bias f4 [3]
-0.04383795 -0.018455662 -0.012789252
00000000: 6c8f 33bd 5430 97bc 038a 51bc
