ami_mujoco/ckpt/mujoco/HalfCheetah-v2_2x3/victim/critic.pt (torch, 26433 bytes, 11 tensors)

base.feature_norm.weight f4 [17]
11.285706 8.921055 8.031941 5.684013 7.0008173 7.6709795 6.977315 6.191253
4.028206 3.722904 2.3918085 0.7698704 0.531926 0.35503083 0.6168276 0.34947944
0.31975192
00000000: 4092 3441 a4bc 0e41 d582 0041 6fe3 b540
00000010: b206 e040 aa78 f540 2a46 df40 bf1e c640
00000020: 10e7 8040 0f44 6e40 6413 1940 3a16 453f
00000030: 4d2c 083f 9ac6 b53e 6ae8 1d3f f8ee b23e
00000040: 86b6 a33e

base.feature_norm.bias f4 [17]
0.5367655 0.18430303 0.42003423 0.2421269 0.45175838 0.24113494 0.31327504 -0.029311864
-0.69972765 -0.20723714 -0.3109296 -0.33301648 -0.07188779 0.13707118 -0.05915791 0.27312028
-0.04529868
00000000: 7769 093f efb9 3c3e ba0e d73e 1df0 773e
00000010: e04c e73e 14ec 763e 9665 a03e 6f1f f0bc
00000020: 5a21 33bf f935 54be 2a32 9fbe 2381 aabe
00000030: e839 93bd 635c 0c3e 914f 72bd 6cd6 8b3e
00000040: 1c8b 39bd

base.mlp.fc1.0.weight f4 [64, 17]
4.1736736 3.9331656 1.3897711 1.6358753 0.43530196 -4.135678 -5.788586 -2.6102383
-1.9697173 3.289248 -2.97246 2.7667089 1.3581532 1.0889401 -1.1039373 -2.877337
0.07406415 2.7033186 4.013702 1.2780864 -0.14432555 -2.0190024 -2.2723882 -2.341838
-5.1789365 -5.1093264 -1.7499537 1.9951266 0.92317665 -0.9177561 -2.0545468 2.1491423
0.09238695 -1.4260758 2.1708915 1.9281754 0.63574594 0.62023634 -0.6785586 -0.56269836
-2.8395529 -3.2739823 -0.1477351 0.049687337 -3.106659 -2.5270188 -3.194235 -2.1857758
1.824881 0.6535458 4.88974 -7.1916595 3.436193 -3.2843504 -0.46010557 7.0691304
-3.016754 1.7211814 -1.0653379 -0.83333164 8.535867 3.1228383 1.54186 -1.376864
-4.3558393 4.912055 1.5487053 -3.4792008 1.9909127 -1.7348152 -2.8661752 -2.035742
7.778495 -6.0661054 -3.6582932 8.402474 1.4284492 -0.11542333 -2.9037771 1.3251252
0.4806029 -1.1906488 0.59006864 1.2099291 -0.54413795 9.258421 -0.19855139 -9.365615
-0.8914934 -3.5348206 0.8781829 1.3327866 -0.057505153 0.46344814 0.93621385 -1.0203428
2.2257438 -0.10875754 0.13917208 -0.12413941 -0.6115609 -0.43549404 0.30407342 -3.440422
1.3616304 1.1439506 1.2962263 -2.060856 1.1825687 1.9103696 -0.25642672 0.975245
-1.2658526 2.844204 1.8269973 2.556491 -7.889879 -2.6539872 2.2283404 6.0070796
-2.5991495 -0.3311903 4.621711 -9.974362 -1.0294586 -1.0295426 3.8767 -0.8262927
-0.56300515 -1.1218464 1.1185639 -1.326178 1.6918094 0.55035377 0.7064918 -0.12139342
-7.327657 7.3755817 0.22056581 2.0710242 -0.98445547 -1.3418645 1.1776375 1.2272943
0.143861 -2.3947453 0.9734975 0.29198444 -0.95023185 -0.6175545 0.10848526 1.3158334
-0.17630197 -4.4098315 -2.582941 8.297216 4.921721 4.867793 -0.66875947 -2.1496756
-0.18740323 0.6625089 -5.0301404 -3.5856326 1.2592885 -0.9257628 1.0220886 -1.7975821
-0.097230606 1.2636986 2.893488 -10.329366 -0.41338566 -1.6797969 1.800029 1.9626901
2.162266 3.349688 1.6585996 1.8447872 -0.10370173 -0.67016685 0.19579156 0.25334352
0.3916065 -0.2668797 -0.9988799 -1.0318053 -1.532634 0.33824563 0.029145792 -0.43716332
0.10042021 -0.92446136 -0.5448568 -0.34442326 -0.580057 2.4767547 2.1338758 -2.8350422
6.870225 -1.8455249 -4.6011863 -3.8534946 0.9390347 -2.0079427 2.2301397 0.57137066
2.3888412 -1.5338506 1.6025053 0.7545241 -1.8678647 0.5291511 0.017862055 2.655681
6.5633316 -1.0410042 -5.202969 0.83857995 -0.5625161 8.298062 -3.6964293 -0.62486017
0.22009164 0.60800624 -2.3022566 -4.7669024 -2.9867048 1.4180752 -0.98054004 0.8679381
0.022448504 -0.31469077 -0.3887493 -0.80245227 0.6248396 0.29072163 2.6729293 -1.0448062
0.07513327 3.2930367 -0.7696261 -9.648942 0.77871066 3.9455159 -0.20026541 -2.1360242
2.9380333 -1.0288613 -1.1091449 -0.74062014 -0.7417642 3.992582 -1.6996269 5.6983304
00000000: bc8e 8540 fcb8 7b40 05e4 b13f 5d64 d13f
00000010: e6df de3e 7957 84c0 193c b9c0 250e 27c0
00000020: b21f fcbf 0a83 5240 c93c 3ec0 c211 3140
00000030: f7d7 ad3f 6462 8b3f d14d 8dbf 4a26 38c0
00000040: f2ae 973d 2c03 2d40 3f70 8040 5698 a33f
00000050: 14ca 13be 5637 01c0 cf6e 11c0 ace0 15c0
00000060: d9b9 a5c0 9a7f a3c0 7cfe dfbf 4f60 ff3f
00000070: 4e55 6c3f 10f2 6abf b27d 03c0 8c8b 0940
00000080: 5f35 bd3d a789 b6bf e3ef 0a40 74ce f63f
00000090: 3fc0 223f cfc7 1e3f 04b6 2dbf 000d 10bf
000000a0: 3cbb 35c0 ed88 51c0 df47 17be f384 4b3d
000000b0: 80d3 46c0 adba 21c0 596e 4cc0 c0e3 0bc0
000000c0: b395 e93f c74e 273f c078 9c40 1322 e6c0
000000d0: 96ea 5b40 cc32 52c0 f592 ebbe 5136 e240
000000e0: 7f12 41c0 ac4f dc3f fe5c 88bf 3955 55bf
000000f0: e992 0841 95dc 4740 ab5b c53f 143d b0bf
00000100: 0963 8bc0 8e2f 9d40 fa3b c63f 3aab 5ec0
00000110: 3ad6 fe3f 6d0e debf 6a6f 37c0 9949 02c0
00000120: 6ee9 f840 891d c2c0 7a21 6ac0 8970 0641
00000130: 6cd7 b63f 1163 ecbd 7cd7 39c0 b49d a93f
00000140: 9511 f63e 2e67 98bf bd0e 173f f5de 9a3f
00000150: a04c 0bbf 7e22 1441 0e51 4bbe 8fd9 15c1
00000160: e938 64bf 803a 62c0 98d0 603f c098 aa3f
00000170: 868a 6bbd 1349 ed3e b6ab 6f3f 989a 82bf
00000180: 9672 0e40 46bc debd 2083 0e3e ce3c febd
00000190: 418f 1cbf 13f9 debe 83af 9b3e e02f 5cc0
000001a0: e849 ae3f f96c 923f beea a53f 11e5 03c0
000001b0: 695e 973f fe86 f43f 5d4a 83be a8a9 793f
000001c0: 7507 a2bf 7007 3640 0cdb e93f 8c9d 2340
000001d0: e479 fcc0 edda 29c0 219d 0e40 ff39 c040
000001e0: 7758 26c0 c691 a9be 0ee5 9340 fd96 1fc1
000001f0: 4dc5 83bf 0dc8 83bf da1b 7840 eb87 53bf
00000200: 1b21 10bf aa98 8fbf 1a2d 8f3f 33c0 a9bf
00000210: 368d d83f fce3 0c3f a6dc 343f 1d9d f8bd
00000220: 2b7c eac0 c404 ec40 01dc 613e a98b 0440
00000230: 4605 7cbf 37c2 abbf d3bc 963f fb17 9d3f
00000240: 4c50 133e 8243 19c0 2237 793f fc7e 953e
00000250: 6542 73bf 0d18 1ebf 852d de3d 3b6d a83f
00000260: 8188 34be 571d 8dc0 e84e 25c0 66c1 0441
00000270: bd7e 9d40 f6c4 9b40 d233 2bbf 4994 09c0
00000280: a2e6 3fbe 2f9a 293f e9f6 a0c0 017b 65c0
00000290: 5e30 a13f cafe 6cbf cdd3 823f 2c17 e6bf
000002a0: d720 c7bd e0c0 a13f e82e 3940 1545 25c1
000002b0: 49a7 d3be 9603 d7bf 5a67 e63f 6e39 fb3f
000002c0: 9162 0a40 4a61 5640 fe4c d43f fd21 ec3f
000002d0: 9361 d4bd 0e90 2bbf 957d 483e 3eb6 813e
000002e0: a680 c83e 75a4 88be 98b6 7fbf 3212 84bf
000002f0: 5a2d c4bf 882e ad3e 28c3 ee3c dfd3 dfbe
00000300: 1ca9 cd3d 80a9 6cbf bc7b 0bbf 3f58 b0be
00000310: 9e7e 14bf 2683 1e40 6c91 0840 5571 35c0
00000320: e2d8 db40 293a ecbf eb3c 93c0 a89f 76c0
00000330: 9464 703f 2282 00c0 9cba 0e40 5945 123f
00000340: c6e2 1840 3755 c4bf e51e cd3f 7e28 413f
00000350: 3116 efbf 7276 073f 7253 923c adf6 2940
00000360: d006 d240 a03f 85bf b97e a6c0 2dad 563f
00000370: 0e01 10bf ddc4 0441 4c92 6cc0 d6f6 1fbf
00000380: b45f 613e 4ca6 1b3f 2c58 13c0 778a 98c0
00000390: 2c26 3fc0 7d83 b53f ac04 7bbf 3131 5e3f
000003a0: ede5 b73c 261f a1be 260a c7be 836d 4dbf
000003b0: 7df5 1f3f 77d9 943e 4611 2b40 36bc 85bf
000003c0: 79df 993d 1dc1 5240 3706 45bf 1162 1ac1
000003d0: 9559 473f 5583 7c40 6012 4dbe 9fb4 08c0
000003e0: bd08 3c40 bab1 83bf 76f8 8dbf 4899 3dbf
000003f0: 42e4 3dbf 7786 7f40 608d d9bf b958 b640

base.mlp.fc1.0.bias f4 [64]
-3.3303592 -8.082975 -5.0333867 -6.991592 3.4748197 1.9625087 -2.9817758 1.0295135
3.2243006 -0.79136074 1.485274 -5.581468 -4.2201085 1.7932813 0.7451144 3.8889897
-10.2168 -1.3748667 -5.0082536 1.4339836 6.972829 -0.28532732 -4.920591 -6.917777
5.524523 3.941359 -4.5154347 -2.7826338 2.9401712 -0.48125607 0.61610615 0.15647048
-4.9112535 -6.764184 -2.802901 0.27875403 4.446263 -7.41406 -6.104844 -1.660585
-4.151917 -2.6436465 -3.7859247 3.1852653 0.15272357 1.125809 -6.631123 3.7713978
-7.4933133 0.37547684 -0.10773532 1.0746757 -7.6376505 -11.958404 -7.1104674 2.0352268
0.33410472 -5.695639 2.4525132 -2.324577 -2.266412 0.21285403 -9.06982 5.8983455
00000000: 9b24 55c0 de53 01c1 8111 a1c0 1fbb dfc0
00000010: 7263 5e40 7c33 fb3f 6ad5 3ec0 19c7 833f
00000020: f15a 4e40 9e96 4abf 751d be3f 639b b2c0
00000030: 210b 87c0 3e8a e53f d1bf 3e3f 35e5 7840
00000040: 0378 23c1 a2fb afbf 9d43 a0c0 c68c b73f
00000050: 6a21 df40 6c16 92be 7b75 9dc0 6e5e ddc0
00000060: e4c8 b040 3a3f 7c40 717e 90c0 ac16 32c0
00000070: c42b 3c40 3267 f6be 22b9 1d3f cc39 203e
00000080: fd28 9dc0 3274 d8c0 bb62 33c0 d9b8 8e3e
00000090: c947 8e40 fb3f edc0 e25a c3c0 0d8e d4bf
000000a0: 81dc 84c0 8131 29c0 974c 72c0 63db 4b40
000000b0: 9163 1c3e 821a 903f 2932 d4c0 955e 7140
000000c0: 39c9 efc0 803e c03e 56a4 dcbd f98e 893f
000000d0: a267 f4c0 9f55 3fc1 f388 e3c0 2841 0240
000000e0: c60f ab3e ad42 b6c0 faf5 1c40 dfc5 14c0
000000f0: e50c 11c0 68f6 593e fc1d 11c1 3fbf bc40

base.mlp.fc1.2.weight f4 [64]
4.18128 6.396746 3.604899 4.326894 4.801201 4.2857056 4.0695357 4.908511
8.657038 4.000318 7.657099 2.6894195 2.3006132 7.9350533 4.2020774 6.6697135
5.264269 5.303719 3.5981896 1.9900643 4.96295 4.2898946 4.923894 2.4329772
1.1349624 2.2494655 2.3946285 3.172111 4.231475 3.9349494 5.031016 4.0633106
2.3008804 2.3505578 1.9027011 2.2533844 4.598496 4.9216194 0.771176 1.9506357
2.1017408 3.6970341 1.4009912 7.64208 3.0148377 4.6435275 3.1263435 3.3971896
3.535602 3.1164436 5.1189146 3.5262792 4.229699 6.349984 3.0849366 4.341388
7.204059 4.402797 4.9109325 1.7099903 3.8833883 3.6949944 3.9400012 3.4641314
00000000: 0ccd 8540 25b2 cc40 aab6 6640 ea75 8a40
00000010: 70a3 9940 8024 8940 a339 8240 8612 9d40
00000020: 3a83 0a41 9b02 8040 f406 f540 731f 2c40
00000030: 3f3d 1340 f5eb fd40 6b77 8640 4b6e d540
00000040: e474 a840 11b8 a940 bd48 6640 6dba fe3f
00000050: 7dd0 9e40 d146 8940 8a90 9d40 e6b5 1b40
00000060: 7346 913f 3ef7 0f40 9841 1940 de03 4b40
00000070: 3e68 8740 36d6 7b40 15fe a040 a406 8240
00000080: a041 1340 8a6f 1640 b68b f33f 7337 1040
00000090: e126 9340 e87d 9d40 ca6b 453f 6eae f93f
000000a0: ec82 0640 359c 6c40 ae53 b33f eb8b f440
000000b0: 1af3 4040 c797 9440 0316 4840 8e6b 5940
000000c0: 4e47 6240 d073 4740 26ce a340 8fae 6140
000000d0: b259 8740 1233 cb40 9a6f 4540 a7ec 8a40
000000e0: a787 e640 b7e3 8c40 5c26 9d40 f6e0 da3f
000000f0: 6f89 7840 ca7a 6c40 fb28 7c40 54b4 5d40

base.mlp.fc1.2.bias f4 [64]
2.4961061 -1.4470565 1.1725676 5.4345384 0.7466947 1.4331839 -1.4427295 3.4231052
1.8707614 3.5842247 2.1939764 -0.9959985 -1.3231555 -1.7579721 0.30530313 2.109802
4.0987926 2.708459 0.52248734 0.3510278 0.7825992 5.306801 3.351612 3.4149082
3.4538543 -1.2507284 -1.0844975 0.8339563 2.300707 -1.3529047 3.3113728 4.1146836
-0.8425715 0.64374787 -5.0985637 -3.0032058 2.0721834 -5.5989265 -1.0497552 0.77556956
1.9804484 -0.5412733 0.0049131345 1.520872 -0.5510325 3.958514 0.47693032 -0.8231742
0.39636979 0.2619942 4.97386 1.5596479 1.9118707 4.1566563 -1.7520298 -0.9515184
2.2835152 4.014933 4.132687 0.13543904 -0.34289154 -2.9878685 0.68986356 1.033028
00000000: 34c0 1f40 2639 b9bf b216 963f bde7 ad40
00000010: 6227 3f3f 9272 b73f 5cab b8bf 2814 5b40
00000020: 1c75 ef3f f063 6540 1c6a 0c40 c2f9 7ebf
00000030: 295d a9bf 3b05 e1bf b150 9c3e ff06 0740
00000040: 4f29 8340 6457 2d40 bbc1 053f eab9 b33e
00000050: 6c58 483f 50d1 a940 d080 5640 db8d 5a40
00000060: f30b 5d40 de17 a0bf d0d0 8abf 297e 553f
00000070: c93e 1340 fb2b adbf 88ed 5340 7dab 8340
00000080: c4b2 57bf a9cc 243f 6f27 a3c0 8634 40c0
00000090: a79e 0440 682a b3c0 615e 86bf ba8b 463f
000000a0: 557f fd3f e390 0abf 5cfe a03b efab c23f
000000b0: 7710 0dbf 4b58 7d40 3630 f43e 8bbb 52bf
000000c0: fbf0 ca3e 1b24 863e dc29 9f40 8ba2 c73f
000000d0: 2eb8 f43f 5403 8540 8342 e0bf b696 73bf
000000e0: 1d25 1240 557a 8040 f93e 8440 88b0 0a3e
000000f0: 7b8f afbe 3d39 3fc0 e69a 303f 433a 843f

base.mlp.fc2.0.0.weight f4 [64, 64]
-3.2080688 2.2209866 1.3844014 -1.3878663 -3.8017337 -1.6964792 1.0777535 -3.389217
0.5165978 -4.1914053 -2.7932286 1.2794483 1.2995785 3.9285808 -3.2732983 -1.9479105
-2.848339 -1.1288546 -2.62762 0.16264287 0.40360498 -4.005439 1.4747522 -0.8477964
-1.2192901 -2.2751653 -0.20744985 -0.44301367 -3.5615125 -1.3004677 0.62187535 2.200537
4.2597227 0.80556506 -0.9452086 5.051172 -2.0651126 1.1298643 1.2205561 0.995993
0.5536239 0.5710166 2.3871293 -3.581486 0.55285895 -0.50039166 2.2262666 -1.6195885
-1.0019835 -1.8873831 -4.0313516 -1.0871537 2.2864969 0.8979601 1.9010491 0.6432759
-1.5682487 -1.892618 -2.187721 -2.1014938 -3.445277 5.8247967 0.343185 0.20937791
-0.37489244 1.1506578 -0.76527447 -6.1219144 3.192597 -0.6953311 1.0411149 -0.4820195
-4.478622 -3.0740268 2.7290144 -0.6225918 2.353214 3.3522108 0.090894416 4.035965
-1.97882 0.49056277 -0.0032344374 -3.2831476 -5.5021696 -1.7041072 0.6407372 -4.867798
-9.541687 -2.564219 -4.53249 -1.8179578 4.410824 0.06998833 -0.22432658 -7.511469
4.123674 -0.9836952 2.2586985 0.37211388 2.7642517 1.6056049 -0.84182316 -0.4364196
-1.2912807 3.9569805 -1.6457158 -6.132662 -2.0442078 0.9269827 -1.0154688 -4.324947
1.5563557 2.1982257 -0.9254462 2.3610702 4.4965367 -0.15613602 1.4097508 -5.183909
-2.7133355 -1.1370103 -1.1581601 2.1980639 3.0401292 0.9785131 1.3646449 -3.5324247
-0.1011131 2.0808911 -1.5820245 -3.014236 -3.2654321 -0.4432124 2.892055 -1.2173572
-3.169603 -4.608884 -1.1462181 1.5780494 0.35457355 0.35480118 1.412493 3.189948
3.1949909 0.34374487 -0.5658457 -0.10936313 -7.908056 -2.0653188 2.2612603 -2.3937244
-2.071756 -1.1589867 -1.4369961 -1.6711079 1.5773765 -1.7704908 -1.9938631 -7.8335605
3.2078612 1.2271737 8.544747 -0.9926679 0.48217738 2.7927494 -0.062236585 -4.6009145
-1.2966921 1.440349 -1.0785573 -2.4554853 -1.694751 -1.8337035 1.2506202 -2.6930177
0.62583685 -4.4180813 -3.974107 5.5085335 0.09082065 -0.10193703 3.0993934 2.4208326
-1.936166 1.8042659 -2.2134814 3.1610532 2.267048 1.3961544 -0.50053066 -0.01232787
-0.9525506 1.244168 1.2218438 0.15787885 -0.8409349 -1.1924802 1.2717791 -0.15613534
-0.9471651 -0.15031898 0.9744493 1.8089718 0.12983017 -1.0923404 0.20898698 -0.5709603
-1.0410202 1.2452673 0.5953242 -1.2310569 -0.2752176 -0.53950167 -0.96418226 1.1188424
-0.59649265 -0.2616754 -0.70591426 0.9189172 -1.8000104 -0.3925216 -0.9440103 1.0001616
0.54509795 -0.08320254 2.8743796 1.0732774 -1.8263649 0.9368309 1.7524725 0.4258277
-0.644218 0.33507577 0.3813112 2.0435216 -1.5482492 0.16243885 0.55477005 0.08064697
0.71841025 0.2961641 -0.46777636 -0.5621623 -0.13312075 -0.3427433 1.2703663 1.0550686
-0.8702068 -0.036364876 -0.047689255 0.846068 0.10780165 1.1741514 -0.0764647 -0.048169337
00000000: 0051 4dc0 a524 0e40 1134 b13f 9aa5 b1bf
00000010: 9b4f 73c0 3b26 d9bf d4f3 893f eee8 58c0
00000020: c13f 043f fe1f 86c0 42c4 32c0 f6c4 a33f
00000030: 9758 a63f de6d 7b40 b87d 51c0 2255 f9bf
00000040: 304b 36c0 4f7e 90bf ed2a 28c0 da8b 263e
00000050: 50a5 ce3e 8e2c 80c0 aec4 bc3f 2f09 59bf
00000060: b311 9cbf 4f9c 11c0 bc6d 54be b0d2 e2be
00000070: d2ef 63c0 ba75 a6bf 3933 1f3f 99d5 0c40
00000080: a64f 8840 8339 4e3f 31f9 71bf 33a3 a140
00000090: ce2a 04c0 659f 903f 2f3b 9c3f 66f9 7e3f
000000a0: 4cba 0d3f 252e 123f bac6 1840 1137 65c0
000000b0: 2a88 0d3f ab19 00bf 277b 0e40 ad4e cfbf
000000c0: ff40 80bf c595 f1bf d500 81c0 da27 8bbf
000000d0: f755 1240 b7e0 653f 9455 f33f bbad 243f
000000e0: 60bc c8bf 4e41 f2bf 9f03 0cc0 e07e 06c0
000000f0: 6b7f 5cc0 bc64 ba40 f2b5 af3e 2a67 563e
00000100: e7f1 bfbe c148 933f 07e9 43bf b9e6 c3c0
00000110: 8253 4c40 3801 32bf 4143 853f 43cb f6be
00000120: df50 8fc0 dbbc 44c0 2ca8 2e40 2d62 1fbf
00000130: 0f9b 1640 9f8a 5640 da26 ba3d a026 8140
00000140: f949 fdbf 0b2b fb3e dbf8 53bb 171f 52c0
00000150: c611 b0c0 2f20 dabf 5a07 243f 00c5 9bc0
00000160: c0aa 18c1 2a1c 24c0 280a 91c0 d7b2 e8bf
00000170: 7825 8d40 0b56 8f3d deb5 65be f45d f0c0
00000180: 23f5 8340 73d3 7bbf 848e 1040 b685 be3e
00000190: 80e9 3040 7684 cd3f b981 57bf 6472 dfbe
000001a0: b048 a5bf 2b3f 7d40 d1a6 d2bf c43e c4c0
000001b0: 4dd4 02c0 bd4e 6d3f e2fa 81bf f765 8ac0
000001c0: aa36 c73f bbaf 0c40 0bea 6cbf c61b 1740
000001d0: a1e3 8f40 1fe2 1fbe b772 b43f 95e2 a5c0
000001e0: 4aa7 2dc0 8e89 91bf 973e 94bf 14ad 0c40
000001f0: 7a91 4240 d67f 7a3f afac ae3f 3f13 62c0
00000200: 6314 cfbd 522d 0540 c77f cabf 3ee9 40c0
00000210: d7fc 50c0 bcec e2be 6e17 3940 5cd2 9bbf
00000220: c7da 4ac0 fa7b 93c0 46b7 92bf 86fd c93f
00000230: aa8a b53e 80a8 b53e 92cc b43f 1c28 4c40
00000240: bb7a 4c40 54ff af3e 44db 10bf c7f9 dfbd
00000250: cb0e fdc0 2f2e 04c0 7db8 1040 c832 19c0
00000260: a697 04c0 ad59 94bf 7def b7bf dde6 d5bf
00000270: 79e7 c93f 719f e2bf e836 ffbf 87ac fac0
00000280: 994d 4d40 0714 9d3f 49b7 0841 7c1f 7ebf
00000290: f4df f63e 68bc 3240 caeb 7ebd b13a 93c0
000002a0: 02fa a5bf 5b5d b83f 2a0e 8abf ac26 1dc0
000002b0: 9aed d8bf ccb6 eabf 5314 a03f 675a 2cc0
000002c0: d836 203f ec60 8dc0 c557 7ec0 e845 b040
000002d0: 2d00 ba3d 5dc4 d0bd 765c 4640 ecee 1a40
000002e0: 4ad4 f7bf 2ff2 e63f aea9 0dc0 b24e 4a40
000002f0: 5017 1140 30b5 b23f c722 00bf d6fa 49bc
00000300: 5bda 73bf e640 9f3f 6165 9c3f feaa 213e
00000310: 8247 57bf 31a3 98bf a8c9 a23f f1e1 1fbe
00000320: 6979 72bf 38ed 19be 8275 793f 638c e73f
00000330: 33f2 043e cfd1 8bbf af00 563e 742a 12bf
00000340: 2640 85bf eb64 9f3f 2b67 183f 4693 9dbf
00000350: 52e9 8cbe c81c 0abf a6d4 76bf 3a36 8f3f
00000360: beb3 18bf 51fa 85be ccb6 34bf 283e 6b3f
00000370: be66 e6bf 97f8 c8be a9aa 71bf 4c05 803f
00000380: 8a8b 0b3f 1866 aabd d6f5 3740 2761 893f
00000390: 53c6 e9bf 26d4 6f3f 0551 e03f 1706 da3e
000003a0: 79eb 24bf 0d8f ab3e 393b c33e 0fc9 0240
000003b0: 082d c6bf 5f56 263e 6905 0e3f 3d2a a53d
000003c0: bce9 373f d2a2 973e 6280 efbe dee9 0fbf
000003d0: ce50 08be 0d7c afbe 5d9b a23f 7d0c 873f
000003e0: dfc5 5ebf 56f3 14bd cf55 43bd ea97 583f
000003f0: 1dc7 dc3d 984a 963f 8699 9cbd 364d 45bd

base.mlp.fc2.0.0.bias f4 [64]
-2.1237936 -3.9771857 -3.4349756 -1.7385693 -1.6585828 -1.9657562 -1.3023564 -1.2271566
-1.2848102 -0.38458157 -3.446743 -1.3129209 -3.7137637 -1.4444283 -2.1926804 0.22274128
-1.8222573 -2.57701 -2.7989464 -1.6485759 -3.66456 -0.98467857 -1.5365298 -1.215057
-1.7351246 -1.6526129 -1.3976588 6.005469 -1.8249741 -1.0531015 -2.2964945 -2.4091775
-1.3692104 -2.3109877 -2.158128 -2.4487162 -0.939461 -1.9829148 -2.8977327 -2.6220074
-1.7027428 -2.2304177 -1.8378302 -1.495518 -1.0849957 -1.7062489 -1.7421938 -1.7868764
0.040757854 -1.7529101 -1.9872161 -0.91072166 -0.29194003 -2.089271 -1.5734197 -2.6666274
2.3359196 0.08274721 -1.8346399 -3.6019237 -2.1667874 -2.2145863 -1.6337533 -2.717879
00000000: 3cec 07c0 368a 7ec0 a4d6 5bc0 7089 debf
00000010: 714c d4bf e69d fbbf 9db3 a6bf 7813 9dbf
00000020: a974 a4bf e0e7 c4be 7097 5cc0 cb0d a8bf
00000030: 4eae 6dc0 07e3 b8bf e054 0cc0 4a16 643e
00000040: ba3f e9bf bbed 24c0 f021 33c0 8904 d3bf
00000050: 2788 6ac0 e513 7cbf 02ad c4bf fd86 9bbf
00000060: 9018 debf d288 d3bf 7ce6 b2bf cd2c c040
00000070: c098 e9bf 08cc 86bf c4f9 12c0 f72f 1ac0
00000080: 4942 afbf 39e7 13c0 c51e 0ac0 c4b7 1cc0
00000090: 8480 70bf 27d0 fdbf 7474 39c0 f8ce 27c0
000000a0: 7af3 d9bf 2abf 0ec0 053e ebbf 226d bfbf
000000b0: 24e1 8abf 5d66 dabf 3500 dfbf 5eb8 e4bf
000000c0: b5f1 263d 5c5f e0bf 195d febf 0e25 69bf
000000d0: 2a79 95be 9eb6 05c0 d165 c9bf 06aa 2ac0
000000e0: b57f 1540 5f77 a93d 7bd5 eabf eb85 66c0
000000f0: a5ac 0ac0 c8bb 0dc0 d41e d1bf bbf1 2dc0

base.mlp.fc2.0.2.weight f4 [64]
-0.0028852054 -0.49769932 0.011256574 1.5051769 -0.0003094997 1.0567583 4.5571213 -0.0041906303
-0.69821376 0.25914797 0.38148713 -0.00076598 -0.001567539 -0.00096248835 0.9298149 -0.11568111
-0.8447542 0.34018433 0.80923456 -0.016448652 0.2404766 1.9238329e-05 -6.178746e-05 -0.07218429
-0.014827878 -0.0025576006 0.001308432 -0.0003003336 -0.003196312 3.0754967e-09 0.841441 0.29521808
-0.008587197 -0.02169899 -0.00057995797 -3.0135754e-05 -0.01046057 0.005754533 -0.002891991 0.8156439
-5.9102764e-05 0.011105413 8.416182e-08 0.013173573 -0.02026108 -0.007264039 -0.009538188 0.013959642
3.3364188e-08 -1.15158825e-08 0.63398814 -7.6910845e-05 -1.3635159e-07 0.88759995 -0.4716931 0.004756797
-0.0014868946 0.12784433 -0.0007215347 -0.65410453 0.29628426 -0.7000674 0.040689822 9.851601e-06
00000000: b715 3dbb 72d2 febe 7e6d 383c a3a9 c03f
00000010: 5944 a2b9 db43 873f f0d3 9140 8e51 89bb
00000020: 23be 32bf 0baf 843e 4852 c33e 0ccc 48ba
00000030: e175 cdba 804f 7cba 5908 6e3f 38ea ecbd
00000040: d041 58bf a42c ae3e ff29 4f3f 53bf 86bc
00000050: 7f3f 763e ff61 a137 e493 81b8 5bd5 93bd
00000060: a1f0 72bc 6b9d 27bb b17f ab3a 1876 9db9
00000070: 3879 51bb b658 5331 ad68 573f d326 973e
00000080: 51b1 0cbc 15c2 b1bc 5208 18ba 0acc fcb7
00000090: d062 2bbc 8690 bc3b 8f87 3dbb 0ace 503f
000000a0: 1ce5 77b8 7af3 353c 73bc b433 f8d5 573c
000000b0: 90fa a5bc 2d07 eebb 0f46 1cbc fbb6 643c
000000c0: 504c 0f33 63d7 45b2 0c4d 223f 324b a1b8
000000d0: 0a68 12b4 c039 633f c281 f1be e8de 9b3b
000000e0: e7e3 c2ba a0e9 023e 6025 3dba 6573 27bf
000000f0: 92b2 973e 9e37 33bf 5faa 263d 4e48 2537

base.mlp.fc2.0.2.bias f4 [64]
-0.0006370339 -0.09424187 0.002932644 0.35773298 -6.765062e-05 0.13474666 0.9679736 -0.0021353555
-0.15720117 -0.017830549 0.073792554 -0.00016958364 -0.000570239 -0.0002258982 0.21796447 0.05482101
-0.19085988 0.07099529 0.18616092 -0.003844028 0.055882283 5.1239845e-06 5.8777886e-07 -0.014982276
-0.0029712748 0.00090825977 0.00040650385 0.0032555365 -0.00074712903 4.687701e-09 -0.03624739 0.04158482
-0.0020037792 -0.0051480937 -0.0014913555 -7.34299e-06 -0.0024604835 0.0023828691 -0.00208029 0.12204004
0.00021389608 0.0024870937 1.931936e-08 0.0027550848 -0.0046564825 -0.0017040224 -0.0022673116 0.0031070753
-1.2422291e-09 -6.7766615e-09 0.13280992 -2.048233e-05 -1.7675145e-08 0.101237565 -0.0850967 0.0010707442
0.001043859 0.01535705 0.00013337084 -0.12398499 0.06895254 -0.12759024 0.007937769 4.7881906e-07
00000000: 9ffe 26ba e201 c1bd 9a31 403b c728 b73e
00000010: a6df 8db8 07fb 093e 1ecd 773f 52f1 0bbb
00000020: 58f9 20be 5f11 92bc 8d20 973d 43d2 31b9
00000030: 177c 15ba 16df 6cb9 1432 5f3e ff8b 603d
00000040: c670 43be fb65 913d f8a0 3e3e 17ec 7bbb
00000050: d2e4 643d b1ee ab36 dbc7 1d35 3878 75bc
00000060: b8b9 42bb 4818 6e3a 0620 d539 d75a 553b
00000070: fbda 43ba 7411 a131 2578 14bd d854 2a3d
00000080: d651 03bb 57b1 a8bb 9679 c3ba ce63 f6b6
00000090: 1040 21bb e929 1c3b 7a55 08bb 21f0 f93d
000000a0: 4b49 6039 82fe 223b b9f3 a532 a78e 343b
000000b0: 6895 98bb 8159 dfba 2d97 14bb 13a0 4b3b
000000c0: 0dbb aab0 25d8 e8b1 53ff 073e 78d1 abb7
000000d0: 0ed4 97b2 a455 cf3d 2e47 aebd 3758 8c3a
000000e0: 19d2 883a 239c 7b3c 76d9 0b39 d8eb fdbd
000000f0: fd36 8d3d 04a7 02be 6b0d 023c 3288 0035

v_out.weight f4 [1, 64]
9.105424e-05 0.0055593066 -6.223745e-05 0.030597802 9.285158e-06 0.28874305 1.390823 0.0008848786
0.042276256 0.14128925 -0.037208073 -5.433776e-05 3.6959453e-05 4.0093306e-05 0.0009358606 0.072989255
0.036977075 0.0003293411 -0.04101796 -0.00025420066 0.0058906586 3.7686766e-06 9.508007e-06 -0.0012719363
-0.00010304716 -0.0006349754 -5.367955e-05 0.00019554068 -1.13012065e-05 1.8322039e-08 0.3381988 0.09044742
-0.00013121989 -0.00020439966 0.0011378541 1.4378668e-06 -0.00013169191 -0.0007636954 -0.0015278659 -0.4055508
0.00028649758 -0.00043653155 1.3675608e-08 0.00020387414 -5.5208624e-05 0.00031659528 -0.00014393505 -0.00038545288
-5.251283e-09 -5.817245e-08 -0.011683338 2.9042371e-06 -2.9533537e-08 0.22957608 0.057554968 -0.0002434781
0.00014243204 0.043160122 -0.0004100606 0.10417711 0.0067467624 0.15113354 0.00018072786 5.2383865e-07
00000000: 5ff4 be38 d82a b63b 7a85 82b8 3ea8 fa3c
00000010: 73c7 1b37 21d6 933e 7d06 b23f 33f7 673a
00000020: de29 2d3d 21ae 103e 7e67 18bd bae8 63b8
00000030: e904 1b38 dc29 2838 8b54 753a 647b 953d
00000040: 4675 173d 6aab ac39 7302 28bd 3c46 85b9
00000050: 6d06 c13b 5fe9 7c36 9484 1f37 1ab7 a6ba
00000060: 061b d8b8 7a74 26ba fa25 61b8 0d0a 4d39
00000070: 509a 3db7 9762 9d32 6528 ad3e 7f3c b93d
00000080: 1298 09b9 1e54 56b9 0c24 953a bafc c035
00000090: c716 0ab9 bb32 48ba ac42 c8ba 5ba4 cfbe
000000a0: 0e35 9639 46de e4b9 f6f1 6a32 0cc7 5539
000000b0: cf8f 67b8 b3fc a539 45ed 16b9 9c16 cab9
000000c0: c66e b4b1 49d9 79b3 796b 3fbc 6ae6 4236
000000d0: efb0 fdb2 fe15 6b3e c2be 6b3d 284e 7fb9
000000e0: cf59 1539 abc8 303d 67fd d6b9 cf5a d53d
000000f0: f213 dd3b c0c2 1a3e c481 3d39 eb9d 0c35
