ami_mujoco/ckpt/mujoco/HalfCheetah-v2_6x1/victim/actor.pt (torch, 24894 bytes, 11 tensors)

base.feature_norm.weight f4 [10]
000000 11 38 7c 3f f8 af 78 3f 6c d0 82 3f 05 16 7f 3f
       0.9852305 0.97143507 1.0219855 0.99642974
000010 a6 bd 84 3f d0 8f 81 3f c9 e8 89 3f 4c f8 5d 3f
       1.0370376 1.0122013 1.0774165 0.86706996
000020 c7 b3 82 3f 66 15 81 3f
       1.0211114 1.0084655

base.feature_norm.bias f4 [10]
000000 55 6a 15 bc ae 78 78 3b 77 e2 7e 3c 77 a5 35 bd
       -0.00911959 0.0037913728 0.015556923 -0.044347253
000010 48 e6 97 bb b6 b5 00 3c aa e9 94 bc ac 5e 51 bd
       -0.004635606 0.007855823 -0.018177826 -0.051115677
000020 ab c2 0b ba 08 85 13 bc
       -0.0005331437 -0.009003885

base.mlp.fc1.0.weight f4 [64, 10]
000000 81 8a c1 3d 02 d8 31 3e ca 39 8a 3e 5c f7 8d be
       0.09450246 0.17367557 0.26997215 -0.27727783
000010 7c a4 26 be 9b 0b a6 bd aa c0 37 3e 02 00 b5 3c
       -0.16273683 -0.08107682 0.1794459 0.02209473
000020 1a 41 53 bc 91 23 bf 3d ce 25 df bc 01 59 95 3e
       -0.012893939 0.09332956 -0.027239706 0.29169467
000030 37 5a 57 3d 03 89 7e be c9 c5 eb bd a6 3a 73 3d
       0.05257627 -0.24856953 -0.11512334 0.059382103
000040 da 68 1a 3d 95 16 4c bd c6 48 57 be a6 e9 05 3d
       0.03769765 -0.049826223 -0.21023855 0.032693528
000050 d3 51 b0 bd e1 9e 86 be 47 9a 86 3e d3 7b 3c 3d
       -0.08609357 -0.2629309 0.2628958 0.046016525
000060 1a 69 de be ce 41 d7 3d 74 df 71 3e f7 c1 ab bd
       -0.4343956 0.10510598 0.23620397 -0.08386605
000070 67 6c d6 3c 9f eb bb 3d e4 e5 bc 3e 28 55 44 bd
       0.026174737 0.091758005 0.36894143 -0.047932774
000080 6b 07 77 bd 17 64 da 3d 65 c4 b7 3d e6 d3 d9 bc
       -0.06030981 0.10663622 0.08973006 -0.026590299
000090 e7 5b 51 bd e7 d7 03 be c8 ab 85 3e 74 11 05 be
       -0.051113036 -0.12875329 0.2610762 -0.12994939
0000a0 bc 75 0f be 63 3e 69 bd 9b 5b 89 be d7 02 b8 3d
       -0.14009756 -0.056944262 -0.26827702 0.08984917
0000b0 79 22 98 3d ad 96 d6 3d 4e 19 1a 3e ec 8b 21 3d
       0.0742845 0.10477958 0.15048715 0.03944008
0000c0 ec ab 92 be ab a6 a1 3d 34 70 33 3e d6 59 65 3e
       -0.2864679 0.078931175 0.17523271 0.22397551
0000d0 bb 15 75 bd 27 01 56 3e 68 71 01 be 45 39 5b 3d
       -0.059835177 0.20898877 -0.12640917 0.053521413
0000e0 a3 14 42 be b9 c1 b6 be 04 22 8d 3d 39 74 68 bd
       -0.18953185 -0.35694674 0.068912536 -0.056751464
0000f0 ee 24 31 be 2e 36 a5 3e 3c 79 07 3e 4b 6a 34 bd
       -0.17299244 0.32267898 0.13229841 -0.04404668
000100 76 c5 cc 3d 86 aa be 3d 54 30 0d 3e c0 79 74 3d
       0.099986 0.093098685 0.13787967 0.059686422
000110 fd 23 a6 3e 82 6a fb bb 55 87 9a be cb c8 d1 bd
       0.32449332 -0.007672609 -0.30181375 -0.10243376
000120 6f 48 99 3a b1 22 0c 3e 06 c4 a5 3b 09 4f 74 bd
       0.001169456 0.13685109 0.005058768 -0.059645686
000130 69 f0 08 3d af 3d 8a be 4a dc 72 bd 4c a6 0e bd
       0.033432398 -0.27000186 -0.059292115 -0.03482656
000140 fb ad 32 3e 96 43 e8 bd d1 7c 9f bd 16 c2 39 bc
       0.17449181 -0.11341016 -0.07787479 -0.011337778
000150 65 45 8d 3d 65 32 f7 3d 9e 12 57 be 01 c7 3c be
       0.068980016 0.12070159 -0.21003196 -0.18435289
000160 ce b9 df bd 92 cc 90 bd 26 e2 19 3e 0a f3 22 3d
       -0.10924111 -0.07070269 0.15027675 0.03978256
000170 62 95 56 3e 6f c2 5f 3e 17 c7 4d 3d 8e 76 e6 3d
       0.20955423 0.21851514 0.050238695 0.11253081
000180 5e 19 2b be bf c1 f6 bd 32 f8 3f 3c fc dd 61 3d
       -0.16708896 -0.12048673 0.011716889 0.05514334
000190 b0 32 d8 bd 07 e2 83 3e 80 3f da be 04 ed b2 bc
       -0.10556543 0.25758383 -0.42626572 -0.021841533
0001a0 30 bf 26 3c a6 23 1c bb ff 49 b9 3e 42 63 48 bb
       0.010177419 -0.002382496 0.36189267 -0.003057674
0001b0 6b bc 5e bd 0c c0 29 3e 96 17 63 be 51 ee e3 bd
       -0.054378908 0.16577166 -0.22176966 -0.111294396
0001c0 39 2e af bd a0 b7 d0 be 84 ad 4e be 50 a2 22 bd
       -0.08553738 -0.40765095 -0.20183378 -0.039705575
0001d0 84 6d ff be a2 25 07 be af 58 02 3e 80 ec e9 bd
       -0.4988824 -0.1319795 0.12729143 -0.11422062
0001e0 d8 17 9b 3d 78 3b 52 3e 3b 1e b9 3d cb 51 80 3e
       0.07572907 0.20530498 0.09038969 0.25062403
0001f0 20 e3 a7 be fe 4b df bc 63 3c 61 be a8 75 e3 3d
       -0.3279047 -0.027257916 -0.21995692 0.111064255
000200 5b b9 36 be 83 31 22 3e 15 33 37 bd 3f eb 5c bd
       -0.17844145 0.158392 -0.04472645 -0.053935286
000210 f2 5c 65 bd 5e 44 dd bd 58 f7 1c bc eb c4 44 3e
       -0.055996843 -0.10804056 -0.009580456 0.19215743
000220 b9 46 c8 3d d7 72 0c be 14 7a b4 bd 6a 18 8c be
       0.09779114 -0.13715683 -0.08812347 -0.27362376
000230 c9 c0 f9 bd 48 89 1b 3e e4 67 0c be 33 16 37 be
       -0.12194974 0.15189087 -0.13711506 -0.17879562
000240 13 ef 15 be 5f 13 3f 3d 51 47 ab 3d 7a 8b 8d 3e
       -0.14641981 0.046649333 0.08363212 0.27645475
000250 8b 72 f3 3d d2 db 0d 3e b2 71 4d be a4 5e 7e bd
       0.11887082 0.13853386 -0.20062903 -0.062101975
000260 b8 6c b0 bb 8b f4 54 3e 68 b9 06 be d2 37 ba bc
       -0.005384054 0.2079641 -0.13156664 -0.022731695
000270 e0 43 05 be d3 a8 63 3d 73 e0 16 be 2c 48 50 3d
       -0.13014174 0.055580925 -0.14734058 0.05085008
000280 2d 7f ff 3e b2 28 20 be 0e 65 86 be 46 b5 81 bd
       0.49901715 -0.15640524 -0.26248974 -0.06333403
000290 fb 5f c7 3d e8 11 80 3e 20 f4 ae 3d c7 0c 40 be
       0.09735104 0.2501366 0.08542657 -0.18754874
0002a0 55 9a 03 be 08 7e ca 3c 16 a7 96 3c c3 9b 2f bc
       -0.12851842 0.0247183 0.01839022 -0.010718289
0002b0 ed a1 13 be 53 24 86 bd 0b 1c 39 3e b1 c4 c5 3c
       -0.14417239 -0.06549897 0.18077104 0.024141641
0002c0 8e af 20 be 1e e0 c4 3d 37 a7 a3 3d 2c fa ed 3e
       -0.15691969 0.096130595 0.07990878 0.46479928
0002d0 13 21 6c be af ad 56 3e 5a 45 c2 3b 3c 00 02 bd
       -0.23059492 0.20964693 0.0059286775 -0.031738505
0002e0 80 03 8f 3c 14 45 00 3d 8d 92 0e 3d 0b f6 41 be
       0.017457724 0.031315878 0.03480773 -0.18941514
0002f0 56 ed 4e be 80 59 c4 be 1b 3c 86 3e af 6c b5 bd
       -0.20207724 -0.38349533 0.26217732 -0.088586204
000300 bc 75 3c 3d 6e 02 ee bd 11 5c 1c 3e a2 88 4e bd
       0.046010718 -0.11621557 0.15269496 -0.050423272
000310 55 83 ac be 00 63 89 3d ab b5 08 bc bd ac 04 be
       -0.33693948 0.06708336 -0.008344094 -0.1295652
000320 d3 73 a8 bd 0e 0d 79 3d 69 9f 5a 3e 29 5c 4a 3e
       -0.08225217 0.060803466 0.21349873 0.19761719
000330 c4 eb 95 3d f8 63 05 3f 78 12 f0 be b2 6c fc bd
       0.07320359 0.52105665 -0.4688909 -0.123254195
000340 f4 1d 89 3c c6 ab a8 3e 44 8d b6 3e d6 80 76 3d
       0.016737916 0.32943553 0.35654652 0.06018146
000350 7a 73 73 3b f5 61 10 3e c7 d3 20 be e4 f8 3c 3e
       0.0037147687 0.14099868 -0.15705787 0.18454319
000360 db 03 f9 bd d1 b5 08 3d ba d6 03 3d b4 69 44 be
       -0.121589385 0.03337652 0.0321872 -0.19180948
000370 f6 f8 8c bd 2c 99 9d 3d 84 fb 6f be 36 fe ff 3d
       -0.06883423 0.07695231 -0.2343579 0.12499659
000380 e2 cd 72 3e cd 44 31 3e b2 ef 89 3e b4 97 42 3d
       0.2371135 0.17311402 0.26940686 0.047507957
000390 f6 6a 0e bd ea de 21 bc 06 4d f2 bd 7c f8 74 be
       -0.034769975 -0.009879807 -0.11831097 -0.23922914
0003a0 b9 1c a5 be f3 11 62 3d 80 1a c9 be 60 4a 0b bd
       -0.32248476 0.0551929 -0.3927803 -0.034006476
0003b0 cb 8c b4 3d c0 6a 98 3e b8 c7 e7 3e ad 98 8e bd
       0.08815917 0.29768944 0.4526956 -0.06962714
0003c0 9e 82 98 3d 59 d2 0e 3e d6 f5 15 3d 81 24 d3 3c
       0.07446788 0.13947429 0.0366114 0.025774242
0003d0 94 18 96 be 04 7d 17 3d 70 6c 31 bd 14 0d 34 be
       -0.29315627 0.03698446 -0.043316305 -0.17583114
0003e0 1d 5b 00 3e 23 c6 4e 3e 2b 40 d0 bb 8d c0 80 bd
       0.12534757 0.2019277 -0.0063553057 -0.06286726
0003f0 ce 7c 03 be c7 9c 06 3e 07 05 a8 bd 71 c5 b5 bd
       -0.12840578 0.13145743 -0.08204084 -0.088755496

base.mlp.fc1.0.bias f4 [64]
000000 62 3a e4 3c af a9 cd 3c 08 74 92 3c df 08 a2 39
       0.02785987 0.025105326 0.017877594 0.00030905657
000010 ac be e2 39 07 2a 01 bd ef f9 b1 bb 1d a3 5f 3b
       0.0004324814 -0.03153422 -0.0054314057 0.0034124323
000020 08 43 1d 3c 52 31 0b 3d 58 09 12 bd 96 88 60 3d
       0.009598501 0.033982582 -0.035653442 0.05481776
000030 5b cd df bb 3a 5a fd 3b e6 37 2b bd 61 77 73 3c
       -0.0068299 0.007731703 -0.041801356 0.014860005
000040 ca f5 d1 3b f3 12 6e bc 64 ec b7 3a ad 0d 52 bc
       0.006407474 -0.014530885 0.0014032242 -0.012820643
000050 bc a7 b9 bb 5a e1 16 bc 0c 24 ac bb 87 b4 1b bd
       -0.0056657474 -0.009209001 -0.0052533206 -0.03801396
000060 40 45 3b bc 24 0b 91 3b 14 45 2f 3c d1 38 e5 bd
       -0.011430085 0.004426377 0.010697622 -0.111924775
000070 8b 2f 9f bc c5 74 a2 3c 94 86 89 bb 4f 7f c6 3b
       -0.01943185 0.01983107 -0.004196951 0.006057657
000080 9c 77 e8 bc 2b ca 6e bc bd 71 ac 3c ce db 7a bc
       -0.028377347 -0.014574568 0.021050328 -0.015311195
000090 58 d4 bb 3c e6 b1 99 bc 44 3e 30 3c c8 43 f9 bc
       0.022928402 -0.018761586 0.010757033 -0.030427828
0000a0 89 de 94 bc ae 4a b4 3b 0d c2 08 3c b5 39 03 ba
       -0.01817252 0.0055020666 0.008347047 -0.00050058524
0000b0 bc 55 9a 3c 57 d9 06 3b 56 30 13 ba fb 12 83 bb
       0.01883971 0.0020576322 -0.00056148076 -0.0040000654
0000c0 7a a0 b2 3a 51 7b ca bc 2c 3f 87 3b 31 af 4b bd
       0.0013628148 -0.024717005 0.0041274037 -0.049727622
0000d0 c3 10 0f bc 46 ba 0e bc 2f 87 c0 bb b2 ba e0 bc
       -0.008732024 -0.008711403 -0.00587549 -0.027432773
0000e0 bc f4 70 3b 9b fb 0a 3c 30 11 8f bc 6b d2 31 bd
       0.0036766967 0.008482839 -0.01746425 -0.04341356
0000f0 63 9e 02 bd 76 b7 ed 3b 47 9a c3 bc 1a 5f c6 3a
       -0.03188933 0.0072545363 -0.023877276 0.0015134544

base.mlp.fc1.2.weight f4 [64]
000000 91 ba 82 3f 97 08 79 3f 0f 49 8b 3f 86 c9 80 3f
       1.0213186 0.9727873 1.0881671 1.00615
000010 5c 9d 84 3f 54 83 75 3f ec 63 81 3f 44 79 7d 3f
       1.0360522 0.95903516 1.0108619 0.9901316
000020 ea ad 81 3f f8 87 80 3f e1 37 75 3f a2 44 7e 3f
       1.0131199 1.0041494 0.9578839 0.99323475
000030 4d 2f 7f 3f b3 ff 7f 3f 1e 5d 78 3f 0a 3e 7a 3f
       0.9968155 0.9999954 0.97017086 0.97750914
000040 26 d8 79 3f 9e 7e 72 3f 56 78 83 3f de 38 7e 3f
       0.9759544 0.9472445 1.0271099 0.9930552
000050 24 15 7f 3f 60 9a 83 3f 53 9f 80 3f 3b b1 7b 3f
       0.99641633 1.0281487 1.0048622 0.9831731
000060 17 df 7e 3f 43 9f 7e 3f 1b f9 86 3f 36 70 7e 3f
       0.9955916 0.99461764 1.0544771 0.9938997
000070 2d 70 7c 3f 16 6d 7d 3f 82 8a 7e 3f 41 1b 80 3f
       0.98608667 0.98994577 0.99430096 1.0008317
000080 64 86 7f 3f 71 a4 80 3f a9 aa 81 3f ab 3b 77 3f
       0.9981444 1.0050184 1.0130206 0.9657542
000090 54 20 7c 3f 3d 03 81 3f 51 33 7a 3f 65 19 81 3f
       0.9848683 1.0079113 0.9773455 1.0085875
0000a0 e8 14 83 3f e5 a6 80 3f 2d de 7e 3f ed 51 7c 3f
       1.0240755 1.0050932 0.99557763 0.9856251
0000b0 5f c0 80 3f 11 cc 82 3f d8 d7 7e 3f 8b 50 85 3f
       1.0058707 1.0218526 0.995481 1.0415205
0000c0 d0 e2 7c 3f 0f 9d 79 3f 17 31 81 3f fa 10 7d 3f
       0.9878359 0.9750528 1.0093106 0.9885403
0000d0 83 2c 7f 3f 6a d8 81 3f 03 1d 7c 3f 4e d5 84 3f
       0.99677294 1.0144169 0.9848177 1.0377595
0000e0 54 fb 85 3f c7 93 82 3f c5 41 7f 3f fb e3 74 3f
       1.0467324 1.0201348 0.9970973 0.9566037
0000f0 31 11 80 3f 9e 75 86 3f 76 c6 80 3f e8 fe 7e 3f
       1.0005246 1.0504644 1.0060565 0.99607706

base.mlp.fc1.2.bias f4 [64]
000000 61 1c 01 3b 2c 46 b0 3c 19 1c 2d bc 0a 8f 0a 3b
       0.0019700753 0.021517836 -0.010565781 0.0021142387
000010 81 19 d9 bc cc b6 a6 bc 07 56 40 bc ed 3b b4 3b
       -0.026501419 -0.020350836 -0.0117392605 0.005500308
000020 5b 59 a6 ba 65 88 39 3d 7f b1 f4 3c 60 43 2a 3d
       -0.0012691425 0.04529609 0.029869793 0.04156816
000030 71 f6 5b bc 30 5a a8 bb 6e ab 11 bd b6 8c 89 3c
       -0.013425455 -0.0051377043 -0.03556388 0.016790729
000040 07 7b b0 3c 38 0d 1b 3d 0e 8b 21 3b a9 d8 3e bc
       0.021543039 0.037854403 0.0024649533 -0.0116483355
000050 1d 5d ac 3a f2 e5 18 bd f2 f2 bf 3b cf 7c 2e bd
       0.0013150309 -0.037328668 0.0058578188 -0.042599496
000060 48 20 40 bb 7d 3f a2 3c b2 92 ca 3b 07 b9 a2 bd
       -0.0029316116 0.019805664 0.006182038 -0.079454474
000070 8f b6 5a bc 8a 63 22 3d 08 be 43 bc 62 29 ae 3c
       -0.013349189 0.03964571 -0.011947162 0.021259967
000080 19 eb bc bb 0a 91 9f bc 24 ec 55 bb 64 9f 09 3d
       -0.0057653305 -0.01947834 -0.0032641971 0.033599272
000090 92 7d 3c bb 39 e2 1f bd 38 d2 c3 3c c7 9c 16 bd
       -0.002876137 -0.039034102 0.023903951 -0.03677061
0000a0 d2 bc 9e bb 92 3b 24 3b 5a 95 a0 3c 97 4d ea bb
       -0.0048442865 0.002505992 0.019602466 -0.0071503627
0000b0 f6 df 98 3c c0 ad f2 3a 30 35 20 bb ed 0c 5b 3b
       0.01866148 0.0018514916 -0.0024445765 0.0033424452
0000c0 8f ff 8d 3b 76 39 71 bb a3 e0 be 3a ff 99 05 3c
       0.0043334435 -0.003680793 0.0014562797 0.008154391
0000d0 2d 0d 56 bc ea 03 3f bc 26 fd bc 3c d6 72 ec bc
       -0.013064665 -0.011658648 0.02306993 -0.028863352
0000e0 ea d1 19 bb 58 b9 0e bb 42 bf c2 bc 78 06 07 bd
       -0.0023471066 -0.0021777954 -0.02377284 -0.032965153
0000f0 9c d5 37 bd 51 b3 4b bb 20 dc 9c bc a3 c4 91 3b
       -0.04488145 -0.0031082223 -0.019147933 0.0044484898

base.mlp.fc2.0.0.weight f4 [64, 64]
000000 14 8c 9c bd d3 90 5d be ac f3 5e 3d 73 bc 62 3e
       -0.07643905 -0.21637277 0.054431602 0.221422
000010 25 1b 25 be 54 a9 24 3e 9f e1 91 3d 4d fe a1 be
       -0.16123636 0.16080219 0.07123112 -0.3163933
000020 8a 20 e8 3d 09 3a 69 3e 07 94 21 bd 06 b7 9b 3e
       0.11334331 0.22776045 -0.03944781 0.30413073
000030 70 41 1f 3e 33 3d bd 3d 34 81 3f 3e e9 f5 9b 3e
       0.15552306 0.092401884 0.18701631 0.30461052
000040 05 2d 99 bd 9c 46 36 be 57 75 14 be ea 02 8a 3e
       -0.0747929 -0.17800373 -0.14497887 0.26955348
000050 fa 95 cf 3d 21 e8 fc 3d cb 5f 97 be 1b da 9a 3c
       0.10136028 0.123489626 -0.29565272 0.018902829
000060 b3 5f 17 3e f9 49 d1 be b5 35 8a bc f1 b8 0b be
       0.147826 -0.4087675 -0.016871313 -0.13644768
000070 c2 21 7a bd 2c f5 75 be 30 5a 05 be f9 82 90 3a
       -0.06106735 -0.24019307 -0.13022685 0.0011025361
000080 22 6a b2 bd 4d 7d ef 3c f9 2f 4a bd f0 7d 66 3d
       -0.087116495 0.029234553 -0.049362157 0.056272447
000090 a0 5e e5 3d 24 55 42 be d8 49 95 3e 06 fc 18 bd
       0.11199689 -0.18977791 0.291579 -0.037349723
0000a0 f4 2c b4 3d 89 e9 97 3e ac ef c4 be 9c af 10 be
       0.08797637 0.2967036 -0.38464105 -0.1412949
0000b0 a3 00 8e 3e 6f 25 43 3e e6 17 5b be 69 5b 2f bd
       0.2773486 0.19057249 -0.21395835 -0.042811785
0000c0 1b ba 6f 3d e1 a9 42 bd 11 f7 14 bd c9 aa e7 bc
       0.058527093 -0.04752529 -0.036368433 -0.028279679
0000d0 72 5c 1c 3c 92 5d f2 bd eb 9c 05 be 95 2f 8d be
       0.009543525 -0.11834253 -0.1304814 -0.27575365
0000e0 ab 2b 74 3d cc d3 81 3e 7f bf 1c 3e b1 1a 89 3d
       0.059611958 0.253569 0.15307425 0.06694544
0000f0 86 e6 8e bd 44 5b 53 be 24 ae b5 3d 53 19 33 be
       -0.069775626 -0.20640284 0.08871105 -0.17490129
000100 02 ab 96 3e 5d e2 9d be 79 a7 83 3e 77 b3 22 3e
       0.29427344 -0.30836764 0.2571371 0.15888773
000110 81 b1 bd 3d f5 82 0a bd 47 b6 69 3c e6 9a be bd
       0.09262372 -0.033816297 0.01426465 -0.09306888
000120 dc e9 9f 3e f6 5a ee 3d a7 ab 21 be 49 2c b3 bd
       0.31233108 0.11638443 -0.15788136 -0.08748681
000130 5c 19 d5 bd 8c 5c 13 be c3 89 ff bd e0 c5 f2 bd
       -0.104052275 -0.14390773 -0.12477448 -0.11854148
000140 3b 7c 9f be 22 9a 97 3e 7e 77 78 3e f8 03 d6 3d
       -0.31149468 0.29609782 0.24264333 0.10449976
000150 d3 81 fe 3c 9a f9 11 3d c5 54 2e 3e 4c 02 a5 3d
       0.031067764 0.03563843 0.17024525 0.08057079
000160 ce 65 0b bd b5 cd 9a be 72 88 06 bc 1b 21 ca 3c
       -0.034032635 -0.30235067 -0.008211242 0.024673989
000170 4b 66 9f bc fe d7 08 be c6 9b ad 3d 8e 94 c8 bc
       -0.019457957 -0.13363644 0.08476977 -0.024484899
000180 d3 c5 30 bd 55 bb b2 bd 85 db 05 3e a2 1c df 3c
       -0.04315741 -0.08727137 0.13072021 0.027235333
000190 0f 83 35 be 47 80 bf 3d 7a be dc bd e7 0e 4b 3e
       -0.17725776 0.09350639 -0.10778518 0.19829904
0001a0 60 39 b7 be fd 6b 3b 3c e2 55 0d 3d 41 97 13 bd
       -0.3578596 0.011439321 0.034505732 -0.03603292
0001b0 46 08 02 3e 39 98 39 3e 54 8e 48 3c dd c0 7f bc
       0.12698469 0.18124475 0.012240965 -0.015609947
0001c0 c0 b3 95 3d 44 21 a5 3e a7 47 69 be bf 29 1f 3e
       0.07309675 0.32251942 -0.2278124 0.15543269
0001d0 17 af c1 3d a1 60 a7 3d 8c de fb 3c db 9c 8f 3e
       0.09457224 0.081727274 0.030745767 0.2804936
0001e0 ff 8a 22 3e 61 f7 22 3e b3 7f 81 bd ef dd 68 be
       0.15873335 0.1591468 -0.06323185 -0.22740911
0001f0 b7 84 95 bc 16 ab 7e 3e 38 35 2a be d2 1b bd be
       -0.01825176 0.24869952 -0.16621864 -0.36935288
000200 b1 a0 b0 be 9a e4 3b be fc b6 50 bc 3c 58 22 be
       -0.34497598 -0.18348923 -0.012738939 -0.15853971
000210 5f 26 49 3e e4 d7 fb 3d ea ba c9 bc 40 e3 4a 3d
       0.19643544 0.12297037 -0.02462526 0.04953313
000220 7f 43 c0 3d c1 99 1c 3e a6 71 51 3e 00 f4 07 3e
       0.09387874 0.15293027 0.2045351 0.13276672
000230 ec 61 81 bd a3 7c ee bc cf 36 73 be 7f 18 3b 3c
       -0.06317505 -0.029112166 -0.23751377 0.011419415
000240 54 68 a7 bd 73 c7 fe 3c 5a 84 9a be 75 fe 69 3e
       -0.08174196 0.031100964 -0.301791 0.22850974
000250 a9 78 af 3d 76 65 0d 3e b2 15 b4 bd 26 bd a5 3d
       0.08567936 0.13808236 -0.087932006 0.08092718
000260 88 44 c0 bd d9 7a a6 bd ae c4 58 3e 71 94 df 3a
       -0.09388071 -0.081289 0.21168777 0.0017057789
000270 6e 99 2e 3e 7e c7 06 be 18 76 e7 3c d5 31 7e be
       0.17050716 -0.13162038 0.028254554 -0.24823697
000280 40 98 96 bc b0 0d 84 be 26 47 42 3e e9 e1 bc 3d
       -0.018383145 -0.25791693 0.18972453 0.092227764
000290 28 c6 85 bd e2 59 2a 3e f6 da 36 3e 77 4d c1 3e
       -0.06531936 0.1663585 0.17856964 0.37754413
0002a0 17 6d 4e 3e 5d 88 3d bd 56 54 93 3e 3c 74 74 be
       0.20158802 -0.046272624 0.2877528 -0.23872465
0002b0 d0 42 19 3e 26 10 17 3e 04 e2 d7 3e 0f da 7a 3e
       0.14966893 0.14752254 0.42164624 0.24497245
0002c0 c6 35 98 be dd 94 f9 3d ac fc 0d 3e dc fa 97 bd
       -0.29728526 0.121865965 0.13865918 -0.074208945
0002d0 a5 0c 35 3d 16 ea 86 3e 55 ae e5 bd 61 96 62 bd
       0.044201512 0.26350468 -0.11214892 -0.055319194
0002e0 b2 33 43 3d 60 9f 7f bd db 64 c2 bd ba f9 eb bc
       0.047656722 -0.06240785 -0.09491893 -0.028805602
0002f0 77 e4 81 3e 4a 49 95 3d c0 55 54 3e 2b aa 94 3e
       0.25369617 0.072893694 0.20735836 0.29036078
000300 00 01 21 3d 55 f9 69 3e 31 73 45 be 7b 53 e2 3d
       0.039307594 0.22849019 -0.19282223 0.11051079
000310 6a 49 fd bd 98 bc 1a bb 88 e2 b6 bd 51 35 84 be
       -0.12367518 -0.0023610946 -0.08929926 -0.25821927
000320 e4 21 94 3e 48 4f 73 3e da 4e 8a bc 64 04 a9 3e
       0.28932106 0.23760712 -0.016883302 0.33011162
000330 29 25 7e 3e 9f e4 9d 3c 59 a6 62 3d 6e dc 13 3e
       0.24818863 0.019274054 0.055334423 0.14439556
000340 91 61 09 be 0b da d0 3e ca 60 84 bd ae 7b 9f b9
       -0.13416125 0.40791354 -0.064637735 -0.00030418992
000350 d6 6d 9e bd 81 84 13 bd 4e c1 7b 3b ca f9 9c be
       -0.07735793 -0.036015037 0.003841478 -0.30659324
000360 a7 36 00 be af 60 31 bd c7 66 41 3d 41 94 4e 3d
       -0.12520848 -0.043305095 0.047217157 0.050434355
000370 2e 9c 65 be 5e c2 cf be 79 e1 c2 bd 2f 3c 33 be
       -0.22422859 -0.40577978 -0.09515662 -0.17503427
000380 d9 b3 98 be 4b ef 50 3e 90 39 67 3d 24 df 78 bd
       -0.29824713 0.20403783 0.05645138 -0.06075968
000390 d2 36 ea bd 2c f0 ad 3d 28 ce 35 be 3e 13 07 be
       -0.114362374 0.08493075 -0.17754424 -0.13190934
0003a0 72 ee ce bc da 9c 81 be c5 35 d5 bd d0 7c ac 3d
       -0.025260184 -0.2531498 -0.10410646 0.084222436
0003b0 4a 99 a5 bd 01 6c 50 be 95 58 a8 3e a2 3b bc 3d
       -0.08085878 -0.203537 0.32880083 0.091910616
0003c0 69 0f 5a bd 11 14 61 be c8 e7 33 bd 5b 83 32 bb
       -0.053237353 -0.21980311 -0.043922216 -0.0027238938
0003d0 53 2e 4a bc 16 11 17 be ea e7 6c bd 79 e3 99 3e
       -0.012340146 -0.14752612 -0.057838358 0.3005636
0003e0 f4 29 c8 bd 87 40 c6 be a9 65 ba bd 50 4b 7e 3e
       -0.09773627 -0.38721105 -0.091014214 0.24833417
0003f0 a7 51 0d 3e 8f bb 06 bd 31 e4 27 be 65 7d 8a 3d
       0.13800679 -0.032893714 -0.16395642 0.06762198

base.mlp.fc2.0.0.bias f4 [64]
000000 5e 64 8f ba af 95 73 bd df db 92 bc 8c 2b b2 bc
       -0.0010939946 -0.05946892 -0.017927108 -0.02174928
000010 ee 04 b3 bd 01 4a 79 bc 75 73 59 3c 55 50 78 bd
       -0.08741175 -0.015215398 0.013272156 -0.060623486
000020 9f 04 db bc 2a cc 3c bb 15 77 8a bb 0c a5 d0 bc
       -0.026735602 -0.0028808215 -0.0042256215 -0.025469325
000030 e5 dc 63 bd 60 56 c6 bc c6 c7 eb bc 33 98 03 bd
       -0.055630583 -0.024211109 -0.028781783 -0.03212757
000040 90 c7 2c bc 0a 0c e8 bc 52 d1 29 bc 69 2c f0 bc
       -0.010545626 -0.028326053 -0.010364847 -0.029318051
000050 7a f7 89 bc d0 da 94 bc 8c 45 d3 bc be 9f 30 bd
       -0.016841639 -0.018170744 -0.025789998 -0.043121092
000060 40 f8 41 bd ef d3 87 bc 5e 8e 70 ba 3c 50 13 bd
       -0.04735589 -0.01658055 -0.0009176488 -0.03596519
000070 91 57 57 bd cd f2 05 bd c7 bc ce 3b 3e 01 89 bc
       -0.052573744 -0.032702256 0.006309125 -0.016724225
000080 fc d5 01 bd 81 38 59 bd 8b 50 9e bd 21 da 80 bc
       -0.031698212 -0.053032402 -0.07730206 -0.015729012
000090 ff ce 6d bd 9f 71 ff bc 31 84 12 3c 2d 24 16 bb
       -0.058058735 -0.031182108 0.00894265 -0.0022909746
0000a0 56 cb 85 bc 7f 96 db bb 10 90 dd 3b c4 14 26 bd
       -0.01633231 -0.00670129 0.0067615584 -0.040547147
0000b0 55 ec 48 bc 06 af 43 bd d8 3d 66 bd 50 a4 ad bc
       -0.012263377 -0.047774337 -0.056211323 -0.021196514
0000c0 b3 0d 3e bd 8f 44 7d 3b 76 cf d3 bc 8e 32 27 bd
       -0.046399783 0.00386456 -0.025855761 -0.040819697
0000d0 1d 85 7b bc a4 b6 8d bc 84 05 84 3b 4e 92 12 bc
       -0.015351561 -0.017299004 0.004028978 -0.008946015
0000e0 85 02 2f bd 06 67 0c bd ee 01 cc bc ab 03 c9 bb
       -0.042727012 -0.03427794 -0.024903264 -0.0061344705
0000f0 30 b3 39 bc 40 7d 22 3c 03 e9 04 bd 4f 32 4d bc
       -0.011334226 0.009917557 -0.03244878 -0.012524202

base.mlp.fc2.0.2.weight f4 [64]
000000 9e 4c 85 3f 5f 82 82 3f 8f e2 84 3f eb 48 86 3f
       1.0414007 1.0196036 1.038164 1.0491003
000010 a6 cd 81 3f 26 e5 8a 3f 9c 0f 88 3f d5 92 85 3f
       1.0140884 1.085118 1.0629764 1.0435435
000020 0c 23 8b 3f f2 6c 84 3f 71 29 85 3f d7 ee 83 3f
       1.087007 1.0345747 1.0403272 1.0307263
000030 8a 38 84 3f 3f 87 85 3f 0f aa 85 3f 82 b8 80 3f
       1.0329754 1.0431899 1.0442523 1.0056307
000040 21 bd 84 3f 74 49 85 3f 18 d0 89 3f 36 26 88 3f
       1.0370218 1.0413041 1.076663 1.0636661
000050 bb 89 82 3f eb fa 80 3f e9 10 83 3f 3a 65 86 3f
       1.0198282 1.0076574 1.0239536 1.0499642
000060 ab 61 82 3f e3 d8 81 3f dd 20 84 3f d7 7f 81 3f
       1.0186056 1.0144314 1.0322529 1.0117139
000070 d4 01 81 3f b1 01 83 3f dd 12 8c 3f 87 14 85 3f
       1.0078683 1.0234891 1.0943257 1.039689
000080 c0 b0 80 3f e4 2a 84 3f be 72 83 3f bf 81 84 3f
       1.005394 1.0325589 1.0269392 1.0352095
000090 ae ce 82 3f e5 d2 85 3f 74 30 88 3f a4 5d 82 3f
       1.0219324 1.0454985 1.0639787 1.0184827
0000a0 a7 62 88 3f 5d 60 87 3f 66 10 83 3f 1d ea 85 3f
       1.0655106 1.0576283 1.023938 1.0462071
0000b0 03 20 89 3f 9c c0 80 3f 2e c6 83 3f 83 31 81 3f
       1.0712894 1.005878 1.0294855 1.0093235
0000c0 26 5f 84 3f 34 aa 81 3f 11 12 86 3f 4f 4b 84 3f
       1.0341537 1.0130067 1.0474263 1.0335482
0000d0 f5 55 82 3f 7e 78 85 3f c4 8d 8a 3f ec 10 8a 3f
       1.0182482 1.0427396 1.0824513 1.0786414
0000e0 39 bf 80 3f 35 68 87 3f 7e e0 83 3f 64 f2 83 3f
       1.0058357 1.0578676 1.0302885 1.0308347
0000f0 3d 75 86 3f 7a 28 87 3f 96 8a 84 3f 42 cc 83 3f
       1.0504528 1.0559227 1.0354793 1.029671

base.mlp.fc2.0.2.bias f4 [64]
000000 0b 75 ae bc d6 d2 89 3c 0a ba c2 bc ad e6 e6 3c
       -0.021296045 0.016824167 -0.023770351 0.028186167
000010 3e e2 6b bb b6 25 d8 bc 64 23 63 38 93 ef 42 bc
       -0.0035993005 -0.02638517 5.4153978e-05 -0.011897939
000020 66 5a da 3c 73 05 dd bc 17 6f d5 3c 4c ab e0 bc
       0.026654433 -0.026980137 0.026053948 -0.02742543
000030 69 a2 ad bb 27 3e d9 bc b5 38 42 3b 26 dc d6 3c
       -0.005298902 -0.026518894 0.002963585 0.026228022
000040 68 76 c1 bc b0 53 bb bc 2b 08 d5 3c f8 fb d6 3c
       -0.02361603 -0.022867054 0.026004871 0.026243195
000050 09 ad 1f 3b 43 08 62 3c 8d 77 c6 3c 2b e7 7e bb
       0.0024364612 0.013795915 0.024226928 -0.003889511
000060 4d ad d1 bc 38 b0 88 3c 4d 4c e3 bc 7f f7 98 3c
       -0.025595332 0.01668559 -0.027746344 0.018672703
000070 b7 12 ba bc c0 c3 d0 bc c3 ef d5 bc 08 f7 db bc
       -0.022714002 -0.025483966 -0.026115304 -0.026851192
000080 b9 44 ad 3c fd 25 35 3c 2d 7c e9 3b 2e d9 80 bc
       0.021150934 0.01105642 0.0071253986 -0.01572856
000090 4c 9d d1 3b 04 d2 ca 3c 97 b7 d6 bc cc fa 47 3b
       0.006396925 0.024758346 -0.02621059 0.0030514477
0000a0 e3 d6 d5 bc ee c8 c5 bc f0 54 db bc 82 df c7 bc
       -0.026103443 -0.024143662 -0.0267739 -0.024398569
0000b0 50 15 a1 3b ed da 81 3a 19 0d d3 3c 8b fd ce 3c
       0.0049158707 0.0009907164 0.025763081 0.025267383
0000c0 09 23 d9 bc 05 95 d2 bc 71 7c ef 3b e8 c5 d1 3c
       -0.026505964 -0.025705824 0.0073085357 0.025607064
0000d0 93 22 d7 bc d6 c2 d3 3c 42 78 d5 3c 76 7f cb bc
       -0.026261603 0.025849741 0.02605832 -0.024841052
0000e0 03 20 ee 3a 2b db db 3c 57 d0 de bc 94 ca da bc
       0.0018167499 0.026837906 -0.027198954 -0.026707925
0000f0 28 88 dc bb 8d 23 d2 bc c4 59 bc 3c d1 12 8c 3b
       -0.0067300983 -0.025651718 0.022992022 0.004274704

act.action_out.fc_mean.weight f4 [1, 64]
000000 21 a5 26 3d 53 76 9a bc 71 e3 1a 3d 8d ac 49 bd
       0.040684823 -0.01885525 0.03781456 -0.049236823
000010 ad d6 22 3c 63 3f ab 3d f0 e9 71 bd 0f a7 31 3d
       0.009938878 0.083616994 -0.05906099 0.04337221
000020 f6 76 af bd 08 b6 0b 3d f0 e1 23 bd 16 b8 ee 3c
       -0.08567612 0.034109145 -0.040010393 0.029140513
000030 3b 39 ff 3c 6f 48 2b 3d d4 28 2d bd 45 3e 6d ba
       0.03115522 0.041817125 -0.042275265 -0.00090501114
000040 e0 b8 15 3d bd 08 25 3d 65 cd 99 bd c2 a3 81 bd
       0.036553264 0.040291537 -0.07509879 -0.063300624
000050 ab 3f 84 bc 2a fc c8 3a 06 7d b9 bc c1 63 44 3d
       -0.01614364 0.001533394 -0.022642624 0.047946695
000060 83 26 91 3c b4 ca f3 bb bb d4 f8 3c 35 29 dc bb
       0.01771856 -0.0074399356 0.030374875 -0.0067187794
000070 c2 d3 a3 3b 7d 0f bf 3c 02 0e be 3d d8 02 1c 3d
       0.0049996087 0.023322815 0.092800155 0.03808865
000080 de f3 ad ba 26 0f d6 bc f0 17 cc bc 9f 21 04 3d
       -0.0013271531 -0.02613027 -0.024913758 0.032258626
000090 09 19 9f bc aa a6 3c bd 02 9f 85 3d c4 21 6b bc
       -0.019421117 -0.04605738 0.06524469 -0.014351312
0000a0 a8 b9 85 3d 51 92 69 3d 6a cf bf 3c 9b fd 42 3d
       0.06529552 0.057024304 0.023414332 0.04760514
0000b0 42 db 8d bd d2 65 1c 3b bc f6 e2 bc e5 60 22 bc
       -0.06926586 0.00238644 -0.027705543 -0.009910797
0000c0 bf a1 07 3d f4 3d 3c 3c e5 82 3e bd 79 c3 04 bd
       0.033113237 0.01148938 -0.04651155 -0.03241298
0000d0 31 88 85 3c 93 5c 32 bd 4f 3d aa bd 4a c1 9e 3d
       0.016300293 -0.043545317 -0.08312475 0.07751711
0000e0 1a 1b 4b bb a3 66 64 bd 92 3d e9 3c a9 8e f1 3c
       -0.0030991496 -0.055761945 0.028471742 0.029486971
0000f0 11 b1 45 3d 19 8c 5c 3d a3 4e 0f bd e7 c8 eb bc
       0.048264567 0.053844545 -0.034987103 -0.028782321
