ami_mujoco/ckpt/mujoco/HalfCheetah-v2_6x1/victim/critic.pt (torch, 26433 bytes, 11 tensors)

base.feature_norm.weight f4 [17]
11.574726 8.904821 6.635348 6.7785964 6.5085306 6.324258 5.984202 6.1005516
4.152972 3.3401332 2.027305 0.58804727 0.6301184 0.48972133 0.42785293 0.180456
0.42240992
00000000: 1432 3941 267a 0e41 c554 d440 43ea d840
00000010: e245 d040 5260 ca40 957e bf40 b837 c340
00000020: 26e5 8440 bec4 5540 5dbf 0140 448a 163f
00000030: 714f 213f c1bc fa3e 8a0f db3e 75c9 383e
00000040: 1d46 d83e

base.feature_norm.bias f4 [17]
0.18880177 0.051958796 0.16258936 0.20432712 0.11861197 0.12018533 0.103256516 -0.236561
-0.4863599 -0.09935352 -0.32055777 0.4316642 0.7824368 0.4808975 -0.104712546 1.1990472
0.45747644
00000000: 4055 413e bfd2 543d d37d 263e 213b 513e
00000010: d5ea f23d ba23 f63d 2778 d33d 0c3d 72be
00000020: 2a04 f9be dc79 cbbd 2620 a4be 1703 dd3e
00000030: c74d 483f 3238 f63e 8873 d6bd 617a 993f
00000040: 5a3a ea3e

base.mlp.fc1.0.weight f4 [64, 17]
-1.0912724 -4.089179 3.121114 -4.209612 -1.4386357 0.97809404 1.1553587 3.4531333
-0.3541743 3.057314 1.8843899 2.0612476 -1.1757714 1.5277901 -5.162423 -4.447071
-5.3631096 7.2436247 -1.6749156 0.30404943 5.263325 -1.8911145 -2.8870356 -4.4268174
-7.060117 3.2397602 -3.2473066 2.2810974 -1.0954055 -1.3282574 0.70562804 1.0829538
1.6938664 0.09767939 7.794618 -4.031633 -3.5187175 0.036617268 -0.7303057 -3.5506625
-1.5524328 -0.09133047 -0.6685107 3.0129604 2.6618881 2.7987926 2.1521149 0.6490115
0.10016281 -1.9051214 1.6335477 -0.09075981 -3.3731172 -1.4794195 1.16592 1.1017121
4.791101 -1.4762088 -0.5186739 -1.778671 -0.2733201 1.7805562 -0.8244265 -7.052049
-4.5766525 -0.14916348 0.67037266 -4.2782984 -1.6816477 5.102741 4.4153886 0.45552298
-4.523236 -1.667105 -5.207148 3.2385905 4.8753695 -0.1174606 -2.9861348 -3.5052128
0.8790498 0.9751563 -4.4186783 -3.1761672 3.4246283 -6.399208 8.891683 0.19236962
-0.13996755 -0.21059458 -1.9580113 2.040185 -1.1980541 1.1170932 0.30777684 0.6344199
-0.2410889 0.6975183 0.8790541 0.36130348 0.16721572 -0.06641984 -15.264812 8.169875
-1.4279162 7.396669 -0.7437835 6.238019 2.4156365 -2.223472 0.14845635 0.6443303
0.92501056 -0.36545807 -2.306581 -4.1208606 -0.75511074 -2.4747882 -2.7304804 -1.8148466
5.1106715 0.080273956 -0.92144394 -5.9083576 2.3773046 -0.54328066 -1.2823671 -2.160679
-3.7885575 3.0382736 3.854977 -2.2829206 2.2975624 -1.1648535 -3.29649 -3.783056
0.7408519 -0.88292 -0.5133664 1.0657411 5.4974146 -1.2588148 1.93076 1.0638934
-1.5713912 -6.2397485 -9.167463 0.771652 -4.7781205 0.39633635 -0.4663925 -6.4134507
-0.06365144 -0.14654504 -1.6690814 -1.740407 0.62056047 -2.002381 -1.5424023 -1.5527138
-0.8226741 0.40978023 1.9998997 4.2029853 1.2259971 1.6227356 -8.135621 -3.307992
-3.7094483 -6.2354307 -4.625414 3.905985 4.756079 3.8164272 -0.5150429 3.1942904
0.09454571 -1.7078487 -10.7190075 -0.85633236 1.7818041 -5.980415 -1.7472509 -0.060391683
-5.9951334 -1.2656335 0.16156107 -3.0012739 -3.422095 -4.60474 4.0457416 6.0911956
0.097132705 6.6737795 -2.8460698 -1.6235697 0.21247512 1.7365146 1.5835968 -1.2061855
2.7014701 1.4951873 0.7012144 2.2560496 -2.1502476 -3.039165 2.9730935 0.835717
2.6399517 -0.61345255 1.1252364 0.31060427 1.7965683 -0.74447167 -1.3005887 5.998688
-4.9006557 -4.1924973 -0.27109727 -2.6594634 -0.062260807 2.8136714 -0.38092247 -2.7798517
-1.4047728 0.791697 1.2903656 2.3904865 1.9726232 1.551043 -4.681094 -1.418992
-4.134565 -0.6075504 -2.6420057 -0.15356386 -0.6098466 -2.9811404 -2.4667234 -5.393278
3.9675708 5.179028 2.788544 1.9379747 0.1425983 1.8412887 -2.0399494 -3.9168432
-5.722181 -5.712142 -4.4465947 -2.5426269 7.7951303 -4.095235 -0.35003728 -2.512217
00000000: d0ae 8bbf 8eda 82c0 55c0 4740 24b5 86c0
00000010: 3725 b8bf 5f64 7a3f cbe2 933f 2300 5d40
00000020: 5556 b5be 08ab 4340 b033 f13f 7beb 0340
00000030: ad7f 96bf a08e c33f 9232 a5c0 684e 8ec0
00000040: 989e abc0 c6cb e740 a263 d6bf 5eac 9b3e
00000050: 296d a840 0a10 f2bf 31c5 38c0 7da8 8dc0
00000060: 7aec e1c0 3b58 4f40 dfd3 4fc0 80fd 1140
00000070: 3f36 8cbf 5704 aabf 0aa4 343f 3b9e 8a3f
00000080: 9dd0 d83f 220c c83d 836d f940 2303 81c0
00000090: ab32 61c0 fdfb 153d 50f5 3abf 0e3e 63c0
000000a0: 1eb6 c6bf 780b bbbd 8423 2bbf 58d4 4040
000000b0: 605c 2a40 6b1f 3340 40bc 0940 9e25 263f
000000c0: 2922 cd3d 05db f3bf 1718 d13f 47e0 b9bd
000000d0: 27e1 57c0 9e5d bdbf de3c 953f e704 8d3f
000000e0: b350 9940 69f4 bcbf d0c7 04bf 7eab e3bf
000000f0: 9df0 8bbe 44e9 e33f 9d0d 53bf 63aa e1c0
00000100: f073 92c0 50be 18be 8b9d 2b3f d2e7 88c0
00000110: 3b40 d7bf a749 a340 dd4a 8d40 4f3a e93e
00000120: 59be 90c0 b263 d5bf f5a0 a6c0 1145 4f40
00000130: 0703 9c40 2f8f f0bd d51c 3fc0 6855 60c0
00000140: 6809 613f d8a3 793f d065 8dc0 5346 4bc0
00000150: 1c2d 5b40 50c6 ccc0 5544 0e41 8bfc 443e
00000160: a753 0fbe 1ba6 57be 1da0 fabf 6492 0240
00000170: d659 99bf e9fc 8e3f ed94 9d3e 5869 223f
00000180: 02e0 76be 8f90 323f b109 613f c5fc b83e
00000190: 993a 2b3e 2007 88bd ac3c 74c1 cfb7 0241
000001a0: f5c5 b6bf 83b1 ec40 9868 3ebf da9d c740
000001b0: ca99 1a40 5e4d 0ec0 f104 183e d5f2 243f
000001c0: 7ecd 6c3f 521d bbbe 069f 13c0 17de 83c0
000001d0: f04e 41bf ee62 1ec0 31c0 2ec0 e54c e8bf
000001e0: 9f8a a340 ac66 a43d c0e3 6bbf 4411 bdc0
000001f0: c225 1840 7114 0bbf 9b24 a4bf 9148 0ac0
00000200: ba77 72c0 1373 4240 f1b7 7640 5f1b 12c0
00000210: 430b 1340 eb19 95bf b1f9 52c0 971d 72c0
00000220: 78a8 3d3f 0c07 62bf fb6b 03bf 346a 883f
00000230: d2ea af40 d820 a1bf 2523 f73f a92d 883f
00000240: 5923 c9bf 05ac c7c0 eead 12c1 fc8a 453f
00000250: 5de6 98c0 99ec ca3e ffca eebe fd3a cdc0
00000260: b05b 82bd e70f 16be 76a4 d5bf a8c5 debf
00000270: 0ddd 1e3f 0327 00c0 706d c5bf 53bf c6bf
00000280: c59a 52bf b7ce d13e b7fc ff3f db7e 8640
00000290: 79ed 9c3f cdb5 cf3f 812b 02c1 24b6 53c0
000002a0: 9a67 6dc0 a688 c7c0 6403 94c0 a9fb 7940
000002b0: cd31 9840 5840 7440 dad9 03bf 416f 4c40
000002c0: 2ea1 c13d c99a dabf 0e81 2bc1 9938 5bbf
000002d0: 2812 e43f 8f5f bfc0 eba5 dfbf 455d 77bd
000002e0: 22d8 bfc0 4700 a2bf 4470 253e df14 40c0
000002f0: 9b03 5bc0 085a 93c0 b776 8140 13eb c240
00000300: 83ed c63d 9a8f d540 0226 36c0 22d1 cfbf
00000310: 1493 593e 1c46 de3f 4db3 ca3f 4964 9abf
00000320: e3e4 2c40 4c62 bf3f c982 333f 1e63 1040
00000330: a89d 09c0 ae81 42c0 2a47 3e40 8df1 553f
00000340: f8f4 2840 3a0b 1dbf bf07 903f 8607 9f3e
00000350: f3f5 e53f b295 3ebf b179 a6bf 41f5 bf40
00000360: 2cd2 9cc0 f028 86c0 43cd 8abe a634 2ac0
00000370: 3005 7fbd 3113 3440 4508 c3be 17e9 31c0
00000380: 98cf b3bf a8ac 4a3f b32a a53f bbfd 1840
00000390: eb7e fc3f 9488 c63f 86cb 95c0 88a1 b5bf
000003a0: 5b4e 84c0 6c88 1bbf 9f16 29c0 d83f 1dbe
000003b0: e81e 1cbf 01cb 3ec0 ccde 1dc0 bc95 acc0
000003c0: aeec 7d40 99ba a540 8177 3240 8e0f f83f
000003d0: 4a05 123e 59af eb3f 888e 02c0 8fad 7ac0
000003e0: 1b1c b7c0 dec9 b6c0 814a 8ec0 66ba 22c0
000003f0: b571 f940 2a0c 83c0 1638 b3be 2ac8 20c0

base.mlp.fc1.0.bias f4 [64]
-3.7790427 1.3817647 -0.9504854 -5.4072685 -1.6649606 2.230925 -9.006328 -3.4922342
-6.529416 -9.28757 -7.3079224 5.421573 -4.811817 -6.3765554 -3.7991512 -4.129193
-7.024286 -1.86943 -1.8530614 -2.8387747 -6.5294604 -4.143596 -5.717212 -1.4150912
-3.139191 -6.233388 -4.9835925 0.28622088 -6.9000344 -1.0321277 -4.188198 -3.0330708
-5.0814366 1.7327186 -7.330392 -4.12732 -2.0962105 -0.38663945 -0.2440827 -6.3036976
-0.074074626 2.542591 -2.7801163 -4.969558 -0.3332778 -8.352449 -9.569064 -6.750997
-3.6861796 3.2584748 -0.50631636 -7.5962696 -0.12759103 1.5723912 -2.3148415 -2.2522416
-1.7905782 -0.9957039 -0.69091547 0.05013644 -2.8537734 -2.9516628 1.7157351 -5.9662514
00000000: d6db 71c0 aadd b03f 0353 73bf 5808 adc0
00000010: 6e1d d5bf 7ac7 0e40 eb19 10c1 c480 5fc0
00000020: faf0 d0c0 e399 14c1 80da e9c0 877d ad40
00000030: 68fa 99c0 be0c ccc0 4b25 73c0 5922 84c0
00000040: f3c6 e0c0 7b49 efbf 1e31 edbf 7cae 35c0
00000050: 57f1 d0c0 5798 84c0 67f3 b6c0 b521 b5bf
00000060: 81e8 48c0 ea77 c7c0 9779 9fc0 8b8b 923e
00000070: 15cd dcc0 c31c 84bf b805 86c0 d51d 42c0
00000080: 219b a2c0 b9c9 dd3f 9292 eac0 0113 84c0
00000090: 5028 06c0 9bf5 c5be d1f0 79be e4b7 c9c0
000000a0: 70b4 97bd d0b9 2240 6ded 31c0 9e06 9fc0
000000b0: 63a3 aabe a2a3 05c1 e31a 19c1 2b08 d8c0
000000c0: 5eea 6bc0 da8a 5040 f39d 01bf a414 f3c0
000000d0: 39a7 02be 1d44 c93f 5d26 14c0 ba24 10c0
000000e0: ab31 e5bf 73e6 7ebf d6df 30bf de5b 4d3d
000000f0: 39a4 36c0 0be8 3cc0 359d db3f 88eb bec0

base.mlp.fc1.2.weight f4 [64]
2.463575 4.4590383 3.2836125 0.60449654 1.4572264 9.929085 9.760553 4.726566
3.0519047 2.8834615 6.1526065 2.4910772 1.2813144 4.2291007 3.9013581 5.1038165
3.764994 4.8488045 6.143247 3.144165 2.1378949 3.7340324 3.485354 1.8244041
3.9499655 5.2155566 2.917327 1.6406468 4.186056 3.3786006 4.085237 4.3774524
0.5265992 1.5916662 2.1806047 3.3159125 4.0330663 3.2027082 14.440786 4.9168463
8.172525 2.3667588 3.8511872 2.720249 3.5301867 7.1940165 3.1748357 3.7996356
5.1523128 3.7409668 3.669413 2.2929256 1.861973 5.7961082 6.037369 4.5524335
1.7948387 5.3022685 1.9602412 4.459367 4.70328 4.5015945 5.242648 6.0858
00000000: 36ab 1d40 71b0 8e40 b526 5240 49c0 1a3f
00000010: 6586 ba3f 88dd 1e41 3a2b 1c41 0740 9740
00000020: 6852 4340 a28a 3840 27e2 c440 cf6d 1f40
00000030: 1c02 a43f cb54 8740 daaf 7940 7752 a340
00000040: a9f5 7040 6829 9b40 7b95 c440 003a 4940
00000050: 45d3 0840 63fa 6e40 0a10 5f40 1386 e93f
00000060: 3ccc 7c40 d7e5 a640 7cb5 3a40 b700 d23f
00000070: 2cf4 8540 fe3a 5840 43ba 8240 1714 8c40
00000080: 35cf 063f b8bb cb3f 078f 0b40 e937 5440
00000090: e10e 8140 2cf9 4c40 760d 6741 ce56 9d40
000000a0: aac2 0241 fa78 1740 da79 7640 8f18 2e40
000000b0: 94ee 6140 6235 e640 8230 4b40 3b2d 7340
000000c0: bfdf a440 006c 6f40 aad7 6a40 4bbf 1240
000000d0: 2255 ee3f b879 b940 2032 c140 89ad 9140
000000e0: 46bd e53f 2fac a940 2fe9 fa3f 22b3 8e40
000000f0: 4581 9640 100d 9040 c6c3 a740 e0be c240

base.mlp.fc1.2.bias f4 [64]
-2.1553562 -0.19214205 -0.36671865 0.22514871 1.837274 0.19056734 5.4510508 1.699726
1.1900408 -0.5328564 2.5218463 3.3771675 1.3384613 -0.46524748 2.047067 -1.0492904
-1.1441168 4.9750543 0.38886648 -2.5325694 -0.12940367 -0.58853143 3.866771 1.1984807
-3.6542032 0.5515473 1.9096457 -1.4892323 -1.6932874 1.6225269 1.6428587 1.7699109
0.15573128 -0.7348154 -2.3016431 -0.87898034 2.50017 -0.92187613 3.7396529 -1.5616232
0.75615954 2.5596051 2.37476 -2.3137367 1.427024 -3.548063 1.2330264 3.568381
3.2627997 0.8579459 3.4196074 -3.151381 0.58155483 3.3834398 3.3833268 1.445787
-3.061668 2.6050053 3.3862956 2.669298 -2.775916 2.5888913 3.6916342 -0.033737842
00000000: 5bf1 09c0 e3c0 44be 8cc2 bbbe 628d 663e
00000010: cb2b eb3f 1624 433e 026f ae40 9f90 d93f
00000020: 4253 983f 4769 08bf ee65 2140 8323 5840
00000030: b352 ab3f eb34 eebe 2503 0340 264f 86bf
00000040: 6b72 92bf a533 9f40 8219 c73e 9e15 22c0
00000050: 6582 04be ffa9 16bf 2d79 7740 d167 993f
00000060: 77de 69c0 3432 0d3f 456f f43f 2a9f bebf
00000070: a4bd d8bf f6ae cf3f 3249 d23f 718c e23f
00000080: 0578 1f3e dd1c 3cbf 1f4e 13c0 db04 61bf
00000090: c902 2040 1300 6cbf 7956 6f40 45e3 c7bf
000000a0: ac93 413f 92d0 2340 11fc 1740 4314 14c0
000000b0: b9a8 b63f 7713 63c0 cfd3 9d3f 5b60 6440
000000c0: b6d1 5040 58a2 5b3f d9da 5a40 3ab0 49c0
000000d0: c7e0 143f 478a 5840 6d88 5840 8c0f b93f
000000e0: 5ef2 43c0 68b8 2640 11b9 5840 c7d5 2a40
000000f0: 9ca8 31c0 65b0 2540 bc43 6c40 b130 0abd

base.mlp.fc2.0.0.weight f4 [64, 64]
-1.7251186 0.7919614 4.6022215 0.103713736 0.2506415 -1.8228754 -0.5976994 -0.045508597
1.4006159 -0.698362 -2.3453505 -1.3697292 -1.0801824 -0.50577426 -0.73347694 3.2154498
2.2871516 -2.6281595 10.449139 1.4466348 1.6545527 -1.1063222 -1.2776346 -2.134175
-2.4876196 0.5604796 -5.709628 2.327803 1.0808938 -0.39706054 -2.4596796 -1.5318639
-0.5030673 1.8294549 0.34047025 -2.3250082 -0.44188365 -0.74133617 2.7395434 -2.694092
-4.098473 -0.6168212 -3.7650506 1.669631 -6.490385 0.4246923 0.76110977 -2.7518992
-0.36282206 0.23453143 -6.9648757 0.54937017 1.4887911 -4.2445235 -6.479069 -1.2451807
3.6593013 0.77832365 -2.9624865 -0.18050842 -0.573404 -1.0379472 -2.332133 2.411161
2.6675682 -1.4662448 0.5506164 0.35424104 -0.548514 -2.3662963 2.3920662 -0.51056755
3.0059164 -0.855248 0.17931917 -1.2961457 1.1382585 0.7939097 -3.0429437 -0.9132142
0.84735847 -1.5510366 -2.0580513 2.4988272 0.88935655 0.15367618 -0.511772 -1.9078755
-0.19828613 1.7591171 -2.815391 1.1094667 1.0138516 1.5719825 3.1305358 -0.22910023
-0.99410343 1.8173792 1.6948837 2.0488284 -1.8060544 0.5146063 -1.5875082 0.56582
-0.27473778 -1.478021 -0.5328957 2.166503 -3.110918 2.072173 -1.6167284 -0.7963763
1.2151148 -1.5604658 1.7913133 1.5874892 2.7757509 -1.1970096 -2.5427463 -0.5717096
0.8520587 -1.491525 -0.9988145 0.27039877 1.1812559 -0.9682666 -3.8960757 1.3172472
1.94174 0.8240543 -0.91252977 -0.14232546 -3.6029909 -4.232145 -0.23444155 -0.13322183
0.33826578 0.8621624 -0.48750377 3.5441144 -1.1887879 0.78476685 0.3338432 6.346997
0.45327014 -2.4970393 -1.8630798 -2.206703 0.463997 2.1758096 -0.5754287 2.4346662
-0.6862215 1.6834292 -0.9105278 -2.9189985 0.77219313 -4.0979776 -0.41247776 -2.8348708
1.9150046 -3.866726 0.5212008 2.4809008 -2.9359019 1.8547817 3.7785118 0.39574996
-3.490927 -0.47966504 -1.6489313 0.84845847 -2.3179715 -0.47011027 0.021106077 1.0797336
-0.12502995 -1.852822 -0.24447091 -0.7768 -0.97176343 -1.4843754 -3.6376848 -4.716482
0.49500686 -2.1214955 -3.0675387 -1.4531604 1.2183806 -1.8582448 -3.3475823 1.1169586
1.4137853 -2.1892579 0.60701996 0.43387425 -1.6535356 0.4884467 0.018606137 -0.8484051
-1.5153006 -1.7338116 -0.07627811 -2.8104758 -1.1396364 0.76946163 -0.4290108 1.4659805
0.722753 -0.50183123 1.197597 0.6282217 1.6105707 1.0459493 -0.09639147 -1.9265339
-1.1550666 1.1851445 1.0878794 2.089899 -0.31735587 0.8218728 -1.5804842 -1.3424134
0.29646438 -1.9361964 0.64606285 -1.1460134 -2.6171222 1.5655754 -0.7373776 1.8035326
1.8804439 0.666974 -0.28892756 1.7855005 -0.036616176 2.3098643 -0.6099661 0.63708395
0.9745673 0.10386437 -2.3174834 1.1830868 -0.036331974 -1.129499 -1.5436236 0.48876852
2.3630106 0.26991385 -3.5568836 -0.4229641 0.63761675 -0.29541603 -1.1409005 0.71957767
00000000: b0d0 dcbf fbbd 4a3f 6645 9340 de67 d43d
00000010: 1554 803e fb53 e9bf d402 19bf 3967 3abd
00000020: 6247 b33f dac7 32bf 391a 16c0 4953 afbf
00000030: 6b43 8abf 6c7a 01bf 25c5 3bbf eec9 4d40
00000040: b160 1240 c433 28c0 ac2f 2741 542b b93f
00000050: 62c8 d33f f79b 8dbf 8889 a3bf 5396 08c0
00000060: 2935 1fc0 977b 0f3f 46b5 b6c0 b9fa 1440
00000070: ba5a 8a3f 854b cbbe 646b 1dc0 1e14 c4bf
00000080: 05c9 00bf 942b ea3f 1e52 ae3e efcc 14c0
00000090: 933e e2be 35c8 3dbf ae54 2f40 016c 2cc0
000000a0: b126 83c0 ffe7 1dbf 97f6 70c0 78b6 d53f
000000b0: 3cb1 cfc0 4571 d93e 17d8 423f 1e1f 30c0
000000c0: d0c3 b9be 0229 703e 43e0 dec0 86a3 0c3f
000000d0: b590 be3f 23d3 87c0 8954 cfc0 1562 9fbf
000000e0: fe31 6a40 3840 473f 6199 3dc0 33d7 38be
000000f0: 9bca 12bf 74db 84bf ab41 15c0 7650 1a40
00000100: 70b9 2a40 e9ad bbbf 32f5 0c3f 155f b53e
00000110: 6a6b 0cbf 6671 17c0 9d17 1940 8eb4 02bf
00000120: ef60 4040 88f1 5abf 729f 373e 1ae8 a5bf
00000130: 74b2 913f ab3d 4b3f 97bf 42c0 68c8 69bf
00000140: 7cec 583f 5e88 c6bf 1db7 03c0 c9ec 1f40
00000150: dfac 633f 4a5d 1d3e 7d03 03bf 4435 f4bf
00000160: 850b 4bbe c02a e13f 5e2f 34c0 0103 8e3f
00000170: e4c5 813f b936 c93f b35a 4840 4099 6abe
00000180: 907d 7ebf e29f e83f f3f1 d83f 0120 0340
00000190: ca2c e7bf 3dbd 033f 7833 cbbf 94d9 103f
000001a0: 6eaa 8cbe cb2f bdbf da6b 08bf fca7 0a40
000001b0: 4819 47c0 7c9e 0440 f5f0 cebf 51df 4bbf
000001c0: e288 9b3f 58bd c7bf c149 e53f d932 cb3f
000001d0: e7a5 3140 9c37 99bf 5bbc 22c0 8f5b 12bf
000001e0: 8520 5a3f 4bea bebf 4fb2 7fbf b571 8a3e
000001f0: 6533 973f 52e0 77bf 4e59 79c0 8e9b a83f
00000200: f08a f83f 39f5 523f 8d9b 69bf c4bd 11be
00000210: 6797 66c0 bb6d 87c0 7211 70be 4e6b 08be
00000220: 2c31 ad3e adb6 5c3f 189a f9be c5d2 6240
00000230: 342a 98bf 7be6 483f 7fed aa3e 991a cb40
00000240: 0613 e83e 7ecf 1fc0 6679 eebf 9f3a 0dc0
00000250: 0491 ed3e 7740 0b40 4c4f 13bf 92d1 1b40
00000260: 36ac 2fbf 9c7a d73f 5a18 69bf dfd0 3ac0
00000270: 73ae 453f a222 83c0 4930 d3be 866e 35c0
00000280: df1e f53f 7078 77c0 6a6d 053f 14c7 1e40
00000290: d1e5 3bc0 7d69 ed3f 23d3 7140 bd9f ca3e
000002a0: 596b 5fc0 a896 f5be 2e10 d3bf 9334 593f
000002b0: a559 14c0 4bb2 f0be a7e6 ac3c b634 8a3f
000002c0: da07 00be 4529 edbf 9556 7abe 5ddc 46bf
000002d0: 7dc5 78bf 0300 bebf d4cf 68c0 6ced 96c0
000002e0: 8a71 fd3e 95c6 07c0 8e52 44c0 2901 babf
000002f0: e5f3 9b3f f7da edbf ca3e 56c0 80f8 8e3f
00000300: ebf6 b43f cd1c 0cc0 a965 1b3f c424 de3e
00000310: 0ea7 d3bf b015 fa3e e66b 983c 1431 59bf
00000320: 5ff5 c1bf 8aed ddbf b337 9cbd d6de 33c0
00000330: 9bdf 91bf 70fb 443f 4ea7 dbbe 40a5 bb3f
00000340: 5706 393f 0378 00bf dc4a 993f 23d3 203f
00000350: 2e27 ce3f abe1 853f e468 c5bd aa98 f6bf
00000360: 39d9 93bf d1b2 973f a23f 8b3f e8c0 0540
00000370: 787c a2be 4166 523f 4e4d cabf 34d4 abbf
00000380: 2eca 973e 49d5 f7bf 6064 253f 91b0 92bf
00000390: ee7e 27c0 c664 c83f c7c4 3cbf 28da e63f
000003a0: 63b2 f03f cfbe 2a3f 50ee 93be 488b e43f
000003b0: d8fa 15bd d1d4 1340 bd26 1cbf ef17 233f
000003c0: 3e7d 793f d8b6 d43d a651 14c0 636f 973f
000003d0: d6d0 14bd 6c93 90bf 7595 c5bf de3f fa3e
000003e0: 913b 1740 2632 8a3e fba3 63c0 c08e d8be
000003f0: da3a 233f c540 97be 0709 92bf 3e36 383f

base.mlp.fc2.0.0.bias f4 [64]
-3.223097 -1.9711105 -1.558742 -1.4955887 1.8953329 0.9231976 -2.4279335 -2.0962546
2.2470412 1.7455178 -1.9799128 -1.7331955 -2.9232411 -2.5207865 -0.90490925 -1.6041132
-3.194394 -3.0646553 -2.2504184 -0.59461266 -1.5135623 -2.737507 -2.632961 -0.81831855
-2.5308392 -2.300737 -1.830512 -3.1322045 -1.8080735 -1.479689 -2.9248648 -1.2977068
-1.6562555 -1.8592162 -0.6980537 -1.6976223 -3.3482096 -2.6842368 0.39042565 -1.5835285
-2.3335142 -1.107167 -2.6476285 -1.6840259 -2.455131 -1.3866941 -1.71529 -2.5559733
-2.04898 -2.3193488 -2.1922014 -1.8340499 -2.3639154 -2.0054991 -2.2138875 -2.3761914
1.5447695 -1.7657925 -2.612045 -2.846502 -1.7492296 -2.1023178 -2.300511 -2.3992286
00000000: 3947 4ec0 594d fcbf dc84 c7bf 736f bfbf
00000010: 459a f23f ae56 6c3f 4363 1bc0 0929 06c0
00000020: 86cf 0f40 216d df3f c86d fdbf 5ad9 ddbf
00000030: 6216 3bc0 9154 21c0 22a8 67bf 9553 cdbf
00000040: f470 4cc0 5023 44c0 db06 10c0 8938 18bf
00000050: 69bc c1bf 5133 2fc0 6f82 28c0 537d 51bf
00000060: 45f9 21c0 463f 13c0 384e eabf 0a76 48c0
00000070: f46e e7bf 7366 bdbf fc30 3bc0 421b a6bf
00000080: 2e00 d4bf ccfa edbf a6b3 32bf b04b d9bf
00000090: 1149 56c0 89ca 2bc0 dfe5 c73e 10b1 cabf
000000a0: 4c58 15c0 a6b7 8dbf bf72 29c0 298e d7bf
000000b0: de20 1dc0 317f b1bf 9f8e dbbf 1195 23c0
000000c0: 7d22 03c0 3670 14c0 074d 0cc0 26c2 eabf
000000d0: 644a 17c0 195a 00c0 55b0 0dc0 8513 18c0
000000e0: 02bb c53f 7d05 e2bf bf2b 27c0 172d 36c0
000000f0: c1e6 dfbf 608c 06c0 923b 13c0 f68c 19c0

base.mlp.fc2.0.2.weight f4 [64]
0.71786195 -0.0044453368 0.4256111 -0.00937069 -0.057594612 0.05612481 -0.0003498091 0.0026616943
-0.0002660437 -0.023757935 0.00017125093 0.2506991 0.6891865 0.29481903 0.005705288 3.7666965
0.23254429 0.7231841 -0.7716177 -6.8085757e-07 -0.32573512 0.21559635 0.81378835 0.5529995
0.75627923 0.006226042 -0.029219316 -0.0042522913 2.7981732 2.2926626 0.0077571385 -0.8247831
0.0016411303 0.0022088746 3.253926e-08 -0.04781402 0.67858243 0.0040708077 -0.011643976 0.0029272146
0.006518585 0.0043137637 -0.001480054 0.3993261 0.7346768 0.0042368234 -0.0014955502 0.006719246
0.0069682994 -0.00010793385 -0.005509435 -0.0049048434 -0.14428176 0.33351517 -0.027241083 0.43591732
-0.022934208 0.29069364 1.0296906 -0.008724737 -0.003717025 -0.3044289 1.1195155 0.010604074
00000000: cdc5 373f 30aa 91bb b3e9 d93e 8687 19bc
00000010: 54e8 6bbd 21e3 653d 9566 b7b9 d26f 2e3b
00000020: c87b 8bb9 00a0 c2bc d291 3339 a25b 803e
00000030: 876e 303f 85f2 963e 6df3 ba3b 8e11 7140
00000040: 1720 6e3e 9822 393f bd88 45bf 2dc4 36b5
00000050: c1c6 a6be 4ac5 5c3e 6f54 503f 6091 0d3f
00000060: 849b 413f d303 cc3b 595d efbc ce56 8bbb
00000070: 4515 3340 fcba 1240 982f fe3b fc24 53bf
00000080: 321b d73a c4c2 103b 4bc1 0b33 a2d8 43bd
00000090: 94b7 2d3f 6964 853b 60c6 3ebc 83d6 3f3b
000000a0: db99 d53b 795a 8d3b 5ffe c1ba 7874 cc3e
000000b0: c713 3c3f 0dd5 8a3b 5606 c4ba 1f2d dc3b
000000c0: 5556 e43b 8b5a e2b8 7e88 b4bb cfb8 a0bb
000000d0: 99be 13be 80c2 aa3e b128 dfbc 8e30 df3e
000000e0: 85e0 bbbc ccd5 943e e7cc 833f 33f2 0ebc
000000f0: 5599 73bb 1bde 9bbe 494c 8f3f b6bc 2d3c

base.mlp.fc2.0.2.bias f4 [64]
0.20138748 -0.0021795086 0.13306795 -0.0030914682 0.06584132 -0.03097611 -0.00014632122 0.0011415739
0.0008937698 0.084899485 7.975923e-05 0.049429458 0.19545636 0.08013741 0.0026879353 1.0624118
0.060014766 0.20719968 -0.23231511 1.6965182e-06 -0.08577072 0.057587072 0.23867866 -1.0744907
0.20673792 0.0017730097 -0.010184447 -0.0019334359 0.8250893 0.6724629 0.0025209412 -0.06910735
0.0005083769 -0.0031531216 1.2046158e-08 -0.0137491515 0.19825916 -0.0026058413 0.07276711 4.2608985e-06
0.0027324022 0.0013333304 -0.00072693906 0.12341517 0.2147737 -0.0017098656 -0.0005280235 0.0022046682
0.0036507917 5.7282607e-05 -0.0016618165 0.0022868644 -0.039907392 0.09694866 -0.012485844 0.11898042
0.038024984 0.0878229 0.29183978 -0.0030659619 -0.0018659285 -0.08671098 0.31331137 0.0034740735
00000000: 8538 4e3e 16d6 0ebb f742 083e 3b9a 4abb
00000010: d0d7 863d 9cc1 fdbc ce6d 19b9 dda0 953a
00000020: e04b 6a3a c8df ad3d 6944 a738 8b76 4a3d
00000030: b625 483e 151f a43d 1228 303b 1cfd 873f
00000040: 0bd2 753d 272c 543e 03e4 6dbe ecb3 e335
00000050: 8fa8 afbd 6ce0 6b3d 2e68 743e e988 89bf
00000060: 1bb3 533e 5564 e83a abdc 26bc 586b fdba
00000070: 0d39 533f 8726 2c3f 6036 253b 2888 8dbd
00000080: 9944 053a 9aa4 4ebb 90f3 4e32 1f44 61bc
00000090: 7304 4b3e c3c6 2abb ec06 953d d7f8 8e36
000000a0: 1a12 333b 25c3 ae3a 0e90 3eba 18c1 fc3d
000000b0: a3ed 5b3e 921d e0ba 0f6b 0aba 327c 103b
000000c0: 1f42 6f3b bb42 7038 4fd1 d9ba 38df 153b
000000d0: ef75 23bd 058d c63d 6d91 4cbc 02ac f33d
000000e0: 16c0 1b3d 7edc b33d 066c 953e 4eee 48bb
000000f0: 2c92 f4ba 8795 b1bd 596a a03e 48ad 633b

v_out.weight f4 [1, 64]
0.047156624 -0.00035335228 -0.012117346 -0.00012914515 -0.051047657 -0.045629747 -2.6635242e-05 0.00022318587
0.00018417709 -0.01108398 1.7389897e-05 0.15732202 -0.08483127 0.0009939001 0.00060297176 1.275772
0.057340667 -0.044171162 0.03011924 -4.0508763e-07 0.003801076 0.0100258505 -0.087511204 0.27528787
0.015618878 -7.33514e-05 0.0045633567 -0.00027884677 0.04892341 0.045056205 7.511666e-05 0.45404938
-4.521643e-06 -0.0031361212 -7.4543305e-09 0.00054501666 0.0035719343 -0.003144339 0.0012441148 -0.00078717456
0.00050036656 -1.4138923e-05 -0.00011575235 -0.010039406 0.04071367 -0.0024163672 -4.7497382e-05 0.0004965816
0.00095385994 9.5073365e-06 5.152157e-05 0.003104981 -0.0010551292 0.01625418 0.0005625668 -0.033925455
0.0045750635 0.03365283 -0.15259247 -0.0002675614 -0.0004539693 0.0049406635 -0.1146705 0.00013713755
00000000: 4e27 413d 2442 b9b9 d587 46bc 236b 07b9
00000010: 5917 51bd 42e6 3abd bf6e dfb7 0007 6a39
00000020: a91f 4139 9599 35bc 85e0 9137 0619 213e
00000030: 04bc adbd c145 823a c010 1e3a 7f4c a33f
00000040: 0cde 6a3d d2ec 34bd a0bc f63c d27a d9b4
00000050: 791b 793b 7743 243c 1339 b3bd 88f2 8c3e
00000060: 53e6 7f3c 3cd4 99b8 3688 953b 2e32 92b9
00000070: ea63 483d db8c 383d f387 9d38 2979 e83e
00000080: 9eb8 97b6 6287 4dbb 7e10 00b2 73df 0e3a
00000090: 1d17 6a3b 4111 4ebb 9111 a33a 645a 4eba
000000a0: 082b 033a 3636 6db7 12c0 f2b8 527c 24bc
000000b0: 61c3 263d ea5b 1ebb ed37 47b8 072d 023a
000000c0: 750c 7a3a b381 1f37 dd18 5838 f07c 4b3b
000000d0: 434c 8aba 7c27 853c 3879 133a 6bf5 0abd
000000e0: 6aea 953b 8dd7 093d 3341 1cbe 7c47 8cb9
000000f0: ba02 eeb9 4ae5 a13b 5ed8 eabd 95cc 0f39
