ami_mujoco/ckpt/mujoco/manyagent_swimmer_4x2/victim/actor.pt (torch, 25956 bytes, 13 tensors)

base.feature_norm.weight f4 [10]
1.0224179 0.99872553 1.0146406 1.0152744 1.0165061 0.9127576 1.0333371 0.9072293
0.9875864 1.033344
00000000: 97de 823f 7aac 7f3f bedf 813f 83f4 813f
00000010: df1c 823f 7baa 693f 6444 843f 2e40 683f
00000020: 76d2 7c3f 9e44 843f

base.feature_norm.bias f4 [10]
-0.008772292 -0.002231985 -0.0186597 -0.0019805555 0.01430034 0.04705659 -0.0009876866 0.00014975545
-0.009314344 -0.0121814925
00000000: a9b9 0fbc 7f46 12bb 3adc 98bc 35cc 01bb
00000010: f94b 6a3c 69be 403d 4375 81ba ac07 1d39
00000020: 319b 18bc e294 47bc

base.mlp.fc1.0.weight f4 [64, 10]
0.09122555 0.18325436 0.23266542 -0.26554853 -0.13362615 -0.080813386 0.16197081 0.031372517
-0.007491016 0.018077279 -0.016041402 0.2770971 0.027492547 -0.24841714 -0.11359754 0.08414424
0.061689895 -0.03751348 -0.13187295 0.047822364 -0.0767429 -0.25422785 0.21340312 0.07361123
-0.38700432 0.08262291 0.230878 -0.074125886 -0.043522105 0.09504802 0.33981878 -0.11542248
-0.07514739 0.11425273 0.09467391 -0.009277171 -0.028411705 -0.12705442 0.327275 -0.17657268
-0.18573655 -0.05035834 -0.24249199 0.100605525 0.12916216 0.13076918 0.14937901 0.029422432
-0.29528624 -0.0051825526 0.1790916 0.2383048 -0.04365687 0.23405369 -0.098164685 0.045008052
-0.15409438 -0.374528 0.15140925 -0.006645703 -0.18365936 0.3048549 0.15413314 -0.09807118
0.20738341 0.119091265 0.11424596 0.06494763 0.34671035 -0.033323556 -0.29921958 -0.102383524
-0.019335432 0.11283499 0.06034313 -0.031405397 0.02934845 -0.26403 -0.04304136 -0.020670878
0.11155643 -0.102114536 -0.110699855 0.0058058337 0.052989468 0.12203108 -0.18302643 -0.17275228
-0.042997062 -0.072952576 0.14641146 0.05036741 0.19427304 0.20295809 0.028020179 0.07099343
-0.21767867 -0.057715956 -0.046507236 0.06293846 -0.117573686 0.29030117 -0.46250877 0.033167895
-0.11987333 -0.07855896 0.30225357 0.021582136 -0.10696883 0.21167979 -0.27625796 -0.12307681
-0.1045572 -0.37443566 -0.16518971 -0.010791245 -0.45133722 -0.14988485 0.14475226 -0.06562047
0.02706224 0.19747438 0.09649073 0.2973831 -0.36593628 -0.05299771 -0.15465647 0.07809637
-0.15231907 0.1325586 -0.045180716 -0.07113972 -0.057318874 -0.09753253 -0.028276313 0.2047537
0.14173965 -0.15085956 -0.07537584 -0.32197303 -0.23983005 0.13183214 -0.10981958 -0.177978
-0.11441068 0.01917621 0.05599134 0.33227402 0.03880691 0.13418318 -0.22350575 -0.04487763
0.053899854 0.23685017 -0.17171851 -0.012622297 -0.09193917 0.03442639 -0.14378731 0.052193362
0.54445076 -0.19537698 -0.2725565 -0.05557663 0.049846027 0.20898193 0.12883978 -0.1733274
-0.11201949 0.039825667 0.010010267 -0.053247232 -0.15650399 -0.04078206 0.2006548 0.028467363
-0.1597865 0.10782614 0.0067276414 0.44449326 -0.21280523 0.1855597 -0.0013463802 -0.014817281
0.022766938 0.0173324 0.0104741985 -0.18324262 -0.17058857 -0.3893659 0.3000545 -0.07276521
0.009800924 -0.1832531 0.12953055 -0.073315136 -0.3406019 0.08154237 -0.036626507 -0.12953758
-0.056484215 0.109109946 0.17231399 0.2209468 0.13868645 0.49364713 -0.4876858 -0.123434156
-0.0013420086 0.36886173 0.35511726 0.06601832 0.015422873 0.12302964 -0.13485302 0.21856497
-0.16275758 0.024201544 0.067103595 -0.20582289 -0.09314418 0.040157277 -0.27255023 0.17209102
0.29564986 0.16242085 0.23360713 0.04336266 -0.008781341 -0.0014682449 -0.090657875 -0.26573008
-0.39788708 0.089923985 -0.38045657 -0.084510915 0.08693134 0.30212504 0.39155975 -0.11355
0.11079889 0.120593674 0.00950874 -0.0012350074 -0.19412228 0.0115228025 -0.019073157 -0.16633907
0.106031194 0.2624509 -0.02332376 -0.023804357 -0.099543296 0.13574897 -0.09682661 -0.07576993
00000000: 76d4 ba3d 08a7 3b3e d83f 6e3e faf5 87be
00000010: 4bd5 08be 7d81 a5bd addb 253e 7880 003d
00000020: 3277 f5bb cd16 943c 4269 83bc acdf 8d3e
00000030: 0d38 e13c 1061 7ebe d4a5 e8bd d153 ac3d
00000040: 8bae 7c3d bca7 19bd b409 07be 62e1 433d
00000050: 622b 9dbd 272a 82be 5986 5a3e 7cc1 963d
00000060: 6e25 c6be 3336 a93d 486b 6c3e 50cf 97bd
00000070: 3c44 32bd 89a8 c23d bafc ad3e 9f62 ecbd
00000080: e0e6 99bd 56fd e93d 65e4 c13d 47ff 17bc
00000090: aabf e8bc 8e1a 02be 9790 a73e 78cf 34be
000000a0: b931 3ebe 8c44 4ebd d24f 78be 450a ce3d
000000b0: 1643 043e 5be8 053e d0f6 183e 5007 f13c
000000c0: c22f 97be 67d2 a9bb ca63 373e 2c06 743e
000000d0: 8cd1 32bd c5ab 6f3e 910a c9bd 5d5a 383d
000000e0: ebca 1dbe 22c2 bfbe 070b 1b3e 33c4 d9bb
000000f0: 3311 3cbe f115 9c3e 14d5 1d3e 8bd9 c8bd
00000100: 515c 543e 1fe6 f33d c9f9 e93d 4303 853d
00000110: 0584 b13e 487e 08bd 4f33 99be 74ae d1bd
00000120: 5765 9ebc 0816 e73d 5c2a 773d f2a2 00bd
00000130: 296c f03c f12e 87be 234c 30bd f955 a9bc
00000140: b377 e43d 6d21 d1bd 9bb6 e2bd dd3e be3b
00000150: 7c0b 593d 6eeb f93d 486b 3bbe f9e5 30be
00000160: b01d 30bd 2968 95bd e3ec 153e 0f4e 4e3d
00000170: 83ef 463e 3fd4 4f3e 938a e53c 0165 913d
00000180: 28e7 5ebe 9167 6cbd 5f7e 3ebd e1e5 803d
00000190: 79ca f0bd 5ba2 943e f3cd ecbe 0fdb 073d
000001a0: 2680 f5bd 85e3 a0bd fbc0 9a3e 05cd b03c
000001b0: 7912 dbbd 96c2 583e af71 8dbe b20f fcbd
000001c0: 1622 d6bd 08b6 bfbe 7e27 29be c3cd 30bc
000001d0: ac15 e7be 6a7b 19be f039 143e 0664 86bd
000001e0: a1b1 dd3c b936 4a3e ef9c c53d 9942 983e
000001f0: 005c bbbe 2014 59bd 445e 1ebe fdf0 9f3d
00000200: 88f9 1bbe 71bd 073e 6a0f 39bd b4b1 91bd
00000210: 32c7 6abd 23bf c7bd baa3 e7bc f4aa 513e
00000220: 3324 113e ee7a 1abe a65e 9abd a6d9 a4be
00000230: 0296 75be 01ff 063e 17e9 e0bd dd3f 36be
00000240: 2650 eabd 6d17 9d3c 2d57 653d d21f aa3e
00000250: fff3 1e3d 5167 093e b1de 64be 9bd1 37bd
00000260: 18c6 5c3d da88 723e fad6 2fbe c0cd 4ebc
00000270: 9b4a bcbd b002 0d3d fb3c 13be b5c8 553d
00000280: 2061 0b3f e710 48be 878c 8bbe 52a4 63bd
00000290: 592b 4c3d 5cff 553e 93ee 033e bd7c 31be
000002a0: 796a e5bd 3d20 233d 1a02 243c c519 5abd
000002b0: 9542 20be 170b 27bd 7478 4d3e 6334 e93c
000002c0: 129f 23be f4d3 dc3d 8c73 dc3b 9f94 e33e
000002d0: 9de9 59be 5d03 3e3e 0679 b0ba 2ec4 72bc
000002e0: bb81 ba3c adfc 8d3c f99b 2b3c f4a3 3bbe
000002f0: c5ae 2ebe f85a c7be bea0 993e ed05 95bd
00000300: 0e94 203c b3a6 3bbe a8a3 043e 3f26 96bd
00000310: 5f63 aebe b0ff a63d ad05 16bd 80a5 04be
00000320: fe5b 67bd 0975 df3d 1473 303e e13f 623e
00000330: d203 0e3e 51bf fc3e f4b1 f9be 0ccb fcbd
00000340: 56e6 afba 72db bc3e eed1 b53e 9d34 873d
00000350: 38b0 7c3c f7f6 fb3d e916 0abe 7fcf 5f3e
00000360: eca9 26be 5142 c63c 9c6d 893d 3cc3 52be
00000370: 60c2 bebd f57b 243d b48b 8bbe a138 303e
00000380: 6b5f 973e a751 263e b536 6f3e 0b9d 313d
00000390: 9ddf 0fbc 2072 c0ba d6aa b9bd c60d 88be
000003a0: dbb7 cbbe 112a b83d 34cb c2be 0f14 adbd
000003b0: 0f09 b23d 22b0 9a3e 857a c83e e78c e8bd
000003c0: 87ea e23d d1f9 f63d 8cca 1b3c f9df a1ba
000003d0: fec7 46be 23ca 3c3c 4f3f 9cbc ca54 2abe
000003e0: e226 d93d f75f 863e 7811 bfbc 5b01 c3bc
000003f0: 5bdd cbbd c701 0b3e 084d c6bd 442d 9bbd

base.mlp.fc1.0.bias f4 [64]
-0.01954249 -0.0149426935 0.0020093971 0.0010829835 0.001790015 -0.016550526 0.0089668725 -0.02203426
0.00091471075 0.0044021844 0.052232407 0.016773362 0.0022141652 0.02483791 0.0013828153 0.0124587985
0.036148474 -0.025682634 0.0032362412 0.02825695 0.016772669 -0.006333311 0.046278957 -0.008753322
-0.027216224 -0.0063749757 0.020307392 0.0018568208 0.010666043 0.03752419 -0.026598867 -0.010021442
0.0077864113 -0.025156088 -0.0038067128 0.011426336 -0.059447885 -0.005289073 0.0075652874 0.0011261035
0.020584607 0.010183941 0.003996542 -0.027363194 0.016019871 -0.028200712 0.024123259 -0.006233744
0.004523971 -0.012571532 0.031171786 -0.04156627 0.006372211 -0.0073397215 0.0035605216 -0.011944716
0.06013485 -0.018213023 0.00891101 -0.008549286 -0.009547646 0.011548753 -0.00908373 -0.018799454
00000000: 9217 a0bc 33d2 74bc 17b0 033b e5f2 8d3a
00000010: f09e ea3a f894 87bc cae9 123c 3181 b4bc
00000020: 33c9 6f3a 3340 903b a6f1 553d 4a68 893c
00000030: 871b 113b df78 cb3c 953f b53a fd1f 4c3c
00000040: 6c10 143d 6364 d2bc 1e17 543b 1f7b e73c
00000050: d666 893c aa87 cfbb 018f 3d3d 186a 0fbc
00000060: 8ff4 debc 2ce5 d0bb b05b a63c 9160 f33a
00000070: a0c0 2e3c f7b2 193d dee5 d9bc f930 24bc
00000080: 2725 ff3b 2414 cebc 0b7a 79bb 8735 3b3c
00000090: a07f 73bd f64f adbb 3be6 f73b c399 933a
000000a0: 0da1 a83c 8bda 263c 6df5 823b c728 e0bc
000000b0: 1b3c 833c 2e05 e7bc 249e c53c 6f44 ccbb
000000c0: d23d 943b d4f8 4dbc f95b ff3c 6541 2abd
000000d0: fbcd d03b 0c82 f0bb a457 693b c5b3 43bc
000000e0: f64f 763d 7a33 95bc 7cff 113c 4e12 0cbc
000000f0: bb6d 1cbc fb36 3d3c edd3 14bc 5001 9abc

base.mlp.fc1.2.weight f4 [64]
1.0058671 0.9829148 0.9745634 1.0304512 1.0044477 0.9927869 1.0246465 0.9878828
1.0014325 0.9778357 0.9848767 0.9713997 1.0066135 1.0201036 1.0140616 1.0545732
1.0180091 0.99936247 1.0184733 1.0478238 1.006366 0.9886287 1.022187 0.97776836
0.95951843 1.0014939 1.0213263 1.0076028 0.9992468 1.0357032 0.9566029 0.98886234
1.0389919 0.9734808 0.98769915 0.979113 0.9466861 1.026182 1.0182469 0.960531
1.0330455 0.9930154 1.0168388 0.9887386 0.977538 0.92164713 0.9995366 0.97270375
0.9876375 0.9496457 1.0521733 1.0008265 0.98494035 0.96328866 0.9552233 0.98926
1.0092107 0.9696883 1.0134649 0.96875674 0.97168696 1.0863664 1.0310144 1.0173789
00000000: 41c0 803f 4ea0 7b3f fd7c 793f d3e5 833f
00000010: be91 803f 4827 7e3f 9e27 833f e3e5 7c3f
00000020: f12e 803f 7153 7a3f e120 7c3f a7ad 783f
00000030: b6d8 803f c192 823f c5cc 813f 41fc 863f
00000040: 1f4e 823f 38d6 7f3f 555d 823f 171f 863f
00000050: 9ad0 803f c516 7d3f 06d7 823f 074f 7a3f
00000060: 00a3 753f f430 803f d2ba 823f 21f9 803f
00000070: a3ce 7f3f ec91 843f ede3 743f 1526 7d3f
00000080: b0fd 843f 0a36 793f dad9 7c3f 26a7 7a3f
00000090: 055a 723f ef59 833f ea55 823f 5ce5 753f
000000a0: d63a 843f 4236 7e3f c627 823f f91d 7d3f
000000b0: ee3f 7a3f 11f1 6b3f a1e1 7f3f 1d03 793f
000000c0: d0d5 7c3f fb1b 733f 9dad 863f 151b 803f
000000d0: 0d25 7c3f 169a 763f 8489 743f 2540 7d3f
000000e0: d12d 813f 7e3d 783f 38b9 813f 7100 783f
000000f0: 7ac0 783f 0e0e 8b3f 48f8 833f 7939 823f

base.mlp.fc1.2.bias f4 [64]
-0.027015701 -0.022492042 0.0019812237 -0.0006887143 0.0060013575 -0.022299109 0.0042241085 -0.008518721
-0.016619068 0.013179956 0.044834625 0.03677494 -0.03099133 0.006150356 -0.0071327193 -0.019739639
0.018673895 -0.012685858 -0.03412091 -0.0012580331 0.012072668 0.004753946 0.019805113 -0.0062282817
-0.0073343855 -0.027244242 0.010883545 0.0028917477 -0.0008834779 0.03680201 -0.007853542 -0.0086445855
-0.030098991 -0.018157676 -0.0052874293 0.0046531176 -0.0612788 -0.021591233 -0.013700508 -0.008897401
-0.012571186 -0.0030280256 -0.0035981606 -0.041732233 0.008694647 -0.010062699 -0.0051484653 0.00010276594
0.003976605 0.0023453443 0.0016328555 -0.010581239 0.014426497 -0.0013423255 0.022881696 -0.0026266626
0.022537926 -0.00671552 -0.025614878 -0.017169312 -0.0032177018 -0.017111368 -0.013034945 -0.019199504
00000000: 0850 ddbc 3b41 b8bc 6bd7 013b d68a 34ba
00000010: 09a7 c43b 9fac b6bc 646a 8a3b 1b92 0bbc
00000020: b624 88bc bef0 573c 83a4 373d 52a1 163d
00000030: 88e1 fdbc ed88 c93b 96b9 e9bb 06b5 a1bc
00000040: fff9 983c 58d8 4fbc 5ec2 0bbd 96e4 a4ba
00000050: 71cc 453c fdc6 9b3b 553e a23c 9d16 ccbb
00000060: 4955 f0bb 512f dfbc e550 323c 7a83 3d3b
00000070: 3399 67ba b4bd 163d 25ac 00bc 05a2 0dbc
00000080: 2992 f6bc 68bf 94bc 2c42 adbb 2e79 983b
00000090: 7bff 7abd 19e0 b0bc 1878 60bc 68c6 11bc
000000a0: 60f7 4dbc d771 46bb 1ecf 6bbb 6bef 2abd
000000b0: fe73 0e3c 05de 24bc 75b4 a8bb 0b84 d738
000000c0: 2e4e 823b 59b4 193b 8a05 d63a ef5c 2dbc
000000d0: 1d5d 6c3c f8f0 afba 6572 bb3c 1624 2cbb
000000e0: 75a1 b83c dd0d dcbb 4bd6 d1bc a8a6 8cbc
000000f0: 14e0 52bb 242d 8cbc 8690 55bc 4748 9dbc

base.mlp.fc2.0.0.weight f4 [64, 64]
-0.067864046 -0.2152126 0.06258024 0.22256221 -0.16945855 0.15306826 0.07580935 -0.32629716
0.09624158 0.20774567 -0.05230055 0.3623258 0.14435007 0.08944608 0.21245265 0.32916927
-0.105316326 -0.19326726 -0.16637902 0.24544442 0.10427721 0.08257784 -0.29682854 0.02487563
0.118298694 -0.41696507 -0.011938388 -0.1305554 -0.05765633 -0.21703078 -0.122602515 0.016328067
-0.09052401 0.064599015 -0.004956869 0.039312445 0.097685605 -0.15681465 0.27847853 -0.07125358
0.070894316 0.31556112 -0.4102803 -0.14613293 0.2968186 0.24871059 -0.18267213 -0.04370742
0.06715576 -0.05684913 -0.035231486 -0.035303228 0.023000104 -0.11391823 -0.13412762 -0.30328897
0.049142502 0.23687491 0.19594193 0.053393476 -0.04080107 -0.18288355 0.11900759 -0.18544823
0.23300056 -0.34798637 0.17629054 0.15298496 0.12297288 -0.06824186 -0.018402224 -0.13983524
0.286126 0.07811534 -0.19508445 -0.13800664 -0.10168015 -0.19822784 -0.10038942 -0.14052178
-0.3127217 0.27113655 0.23351122 0.21157931 -0.0033125216 0.04309881 0.13898143 0.07886096
-0.10593852 -0.25687444 0.040019922 0.021764142 -0.029771775 -0.08277705 0.04214627 0.0672204
-0.07375105 -0.030210303 0.14037706 0.061467186 -0.16204022 0.15511952 -0.15701765 0.25446138
-0.43685746 0.0014474854 -0.009252835 -0.067056 0.11262902 0.11209082 0.016579825 0.03938274
0.06432336 0.37598443 -0.29741815 0.10663632 0.058463145 0.08331056 0.09077244 0.21624704
0.2606744 0.13051976 -0.1167171 -0.26051876 0.02020253 0.15219274 -0.22270477 -0.41293493
-0.317189 -0.17676371 0.010433933 -0.1470242 0.12355715 0.1700809 -0.07343941 0.026685845
0.044061325 0.16224268 0.17891823 0.17930068 0.003551623 -0.09952935 -0.22455156 0.02167665
-0.12566271 0.024832591 -0.36532256 0.19417533 0.08091025 0.11519992 -0.18204229 0.10231984
-0.03611364 -0.091296904 0.25907463 -0.01210881 0.16434637 -0.20008852 0.049040996 -0.25980264
-0.09076871 -0.27292675 0.18238986 0.085375376 -0.0045431224 0.1940197 0.13102067 0.3134159
0.17480251 -0.061779745 0.30398875 -0.17823805 0.13678458 0.23087129 0.44146505 0.19408156
-0.3355528 0.124546684 0.089564316 -0.11355158 0.07126547 0.22306418 -0.14431727 -0.026115969
0.025660053 -0.019426327 -0.07884575 -0.008873227 0.26464334 0.18245338 0.23569022 0.27724472
0.0023665822 0.24214043 -0.19637372 0.08743284 -0.09038725 0.010544824 -0.12208948 -0.25802517
0.31409246 0.26419172 -0.01828748 0.2446769 0.23553512 0.04294523 0.037486292 0.16301687
-0.13075353 0.39531106 -0.017160235 -0.03523485 -0.07165458 0.023435146 0.0018649845 -0.3003572
-0.13105717 -0.03585949 0.012740748 0.010699736 -0.18273622 -0.45905623 -0.11155812 -0.19102
-0.31674176 0.18009438 0.027483203 -0.038530655 -0.13766862 0.07312834 -0.15420209 -0.11034504
-0.020097258 -0.24600568 -0.06412097 0.06048448 -0.08415704 -0.22827306 0.31404322 0.12152569
-0.031487405 -0.19083925 0.017868044 -0.014446387 -0.046322584 -0.11077956 -0.07895161 0.25117347
-0.110163 -0.40080225 -0.1038891 0.2559557 0.11426464 -0.054994706 -0.16934618 0.09832001
00000000: 4efc 8abd b160 5cbe 122a 803d 59e7 633e
00000010: 8b86 2dbe edbd 1c3e ef41 9b3d 6c10 a7be
00000020: 4e1a c53d 48bb 543e 1a39 56bd c482 b93e
00000030: 81d0 133e 822f b73d 308d 593e e088 a83e
00000040: 16b0 d7bd dae7 45be 435f 2abe c855 7b3e
00000050: 4a8f d53d 921e a93d e9f9 97be fac7 cb3c
00000060: 9646 f23d 727c d5be 3b99 43bc 51b0 05be
00000070: 0b29 6cbd 513d 5ebe 0717 fbbd 70c2 853c
00000080: a764 b9bd 7d4c 843d 3b6d a2bb 1606 213d
00000090: 640f c83d 0594 20be bd94 8e3e 66ed 91bd
000000a0: 0a31 913d 3a91 a13e 4210 d2be dfa3 15be
000000b0: 9cf8 973e fdad 7e3e 670e 3bbe 8d06 33bd
000000c0: f688 893d a2da 68bd e44e 10bd 1e9a 10bd
000000d0: b76a bc3c f64d e9bd c058 09be b148 9bbe
000000e0: a649 493d 568f 723e 00a5 483e 1eb3 5a3d
000000f0: 061f 27bd d345 3bbe 40ba f33d 24e6 3dbe
00000100: b397 6e3e 452b b2be 8285 343e 17a8 1c3e
00000110: 35d9 fb3d 63c2 8bbd 43c0 96bc f830 0fbe
00000120: 1b7f 923e effa 9f3d 38c4 47be 9d51 0dbe
00000130: af3d d0bd 3dfc 4abe f898 cdbd f1e4 0fbe
00000140: 0f1d a0be 69d2 8a3e 911d 6f3e 3fa8 583e
00000150: e416 59bb 6188 303d 2651 0e3e db81 a13d
00000160: 4bf6 d8bd 0c85 83be eeeb 233d b74a b23c
00000170: f0e3 f3bc 0487 a9bd 91a1 2c3d d9aa 893d
00000180: ca0a 97bd 997b f7bc 01bf 0f3e 04c5 7b3d
00000190: dfed 25be a7d7 1e3e 3cc9 20be c348 823e
000001a0: c8ab dfbe 8db9 bd3a 3499 17bc a854 89bd
000001b0: 0baa e63d df8f e53d 6ad2 873c cc4f 213d
000001c0: f7bb 833d 0881 c03e 3147 98be 2564 da3d
000001d0: 0d77 6f3d ba9e aa3d e7e6 b93d dd6f 5d3e
000001e0: 1d77 853e f9a6 053e 6009 efbd b762 85be
000001f0: c77f a53c 6ad8 1b3e b80c 64be 356c d3be
00000200: 9966 a2be 8c01 35be 16f3 2a3c 838d 16be
00000210: 880b fd3d b029 2e3e 6767 96bd 469c da3c
00000220: a679 343d f222 263e 5736 373e 999a 373e
00000230: 59c2 683b 0bd6 cbbd d8f0 65be 3b93 b13c
00000240: baad 00be b86d cb3c 8f0b bbbe e6d5 463e
00000250: 46b4 a53d f0ed eb3d 4b69 3abe 108d d13d
00000260: e5eb 13bd dff9 babd 6ea5 843e 0864 46bc
00000270: 6a4a 283e 01e4 4cbe 36df 483d da04 85be
00000280: f2e4 b9bd 0ebd 8bbe 68c4 3a3e 49d9 ae3d
00000290: 79de 94bb 1aad 463e 482a 063e 0d78 a03e
000002a0: 6eff 323e c20c 7dbd 6aa4 9b3e 0984 36be
000002b0: 4211 0c3e 8669 6c3e b507 e23e 51bd 463e
000002c0: 94cd abbe 5512 ff3d 7f6d b73d bb8d e8bd
000002d0: a1f3 913d f06a 643e e8c7 13be 28f1 d5bc
000002e0: 0835 d23c f623 9fbc e179 a1bd 0361 11bc
000002f0: 557f 873e 0fd5 3a3e c758 713e 05f3 8d3e
00000300: a918 1b3b a9f3 773e 3116 49be fd0f b33d
00000310: f31c b9bd 33c4 2c3c 0d0a fabd e01b 84be
00000320: bad0 a03e 2344 873e a0cf 95bc 958c 7a3e
00000330: 1e30 713e 56e7 2f3d 3a8b 193d e5ed 263e
00000340: 41e4 05be 3666 ca3e 9f93 8cbc 6b52 10bd
00000350: a3bf 92bd 10fb bf3c 7f72 f43a 6bc8 99be
00000360: da33 06be 67e1 12bd 92be 503c f24d 2f3c
00000370: 341f 3bbe 6b09 ebbe 9578 e4bd bf9a 43be
00000380: fa2b a2be a96a 383e 7424 e13c 52d2 1dbd
00000390: 01f9 0cbe 50c4 953d 27e7 1dbe 95fc e1bd
000003a0: 01a3 a4bc eae8 7bbe db51 83bd 93be 773d
000003b0: 875a acbd 6ac0 69be 46ca a03e 76e2 f83d
000003c0: f0f8 00bd 5d6b 43be 0160 923c 8ab0 6cbc
000003d0: c0bc 3dbd 65e0 e2bd 62b1 a1bd cf99 803e
000003e0: 249d e1bd f435 cdbe cfc3 d4bd a00c 833e
000003f0: 9403 ea3d 2142 61bd 1669 2dbe 005c c93d

base.mlp.fc2.0.0.bias f4 [64]
0.008923345 -0.0065018283 0.017879887 -0.017962473 -0.043651115 -0.0012967029 -0.008023852 0.00900203
-0.02582043 -0.00067511515 -0.05681647 -0.01277722 -0.05063964 0.012793664 -0.012230106 0.016641036
0.010827776 0.010036064 -0.0019321134 0.017199634 -0.021139158 -0.034831483 -0.038088035 -0.011628872
-0.00786342 -0.030048879 0.007926551 0.009423781 -0.043649957 -0.00013290934 0.006418109 -0.00049743126
-0.01892535 -0.030777799 -0.06911278 0.023984566 -0.05741843 -0.019157037 -0.0028458792 -0.03845411
0.0012459756 -0.041187268 -0.006362334 -0.001218395 0.0030243485 0.008823872 -0.011296719 0.021937815
-0.00015264358 0.026926683 -0.00026325232 -0.0064515285 -0.031042129 -0.05605769 -0.025631962 0.0032114736
0.012068894 -0.039517768 0.0033590181 0.040895328 -0.02371038 0.013400846 -0.026554551 -0.0272677
00000000: 3933 123c 4a0d d5bb d778 923c 0926 93bc
00000010: 83cb 32bd 21f6 a9ba 7976 03bc 407d 133c
00000020: 5e85 d3bc 36fa 30ba 63b8 68bd 8c57 51bc
00000030: 836b 4fbd 849c 513c c860 48bc c852 883c
00000040: fc66 313c 4e6e 243c f83e fdba 3fe6 8c3c
00000050: 072c adbc 75ab 0ebd 3302 1cbd 0687 3ebc
00000060: 93d5 00bc 1129 f6bc 5dde 013c 3466 1a3c
00000070: 4cca 32bd 945d 0bb9 004f d23b 0c66 02ba
00000080: 5609 9bbc b921 fcbc 008b 8dbd 487b c43c
00000090: 962f 6bbd 38ef 9cbc ee81 3abb 0f82 1dbd
000000a0: 0150 a33a fbb3 28bd 207b d0bb 8db2 9fba
000000b0: 2634 463b 0092 103c e015 39bc efb6 b33c
000000c0: f30e 20b9 5995 dc3c 2105 8ab9 5867 d3bb
000000d0: 104c febc c09c 65bd 1ffa d1bc 9677 523b
000000e0: 9cbc 453c 62dd 21bd f922 5c3b dc81 273d
000000f0: 453c c2bc 398f 5b3c ee88 d9bc 8360 dfbc

base.mlp.fc2.0.2.weight f4 [64]
1.0673487 1.0722872 1.069913 1.0507518 1.0345107 1.0627457 1.0489696 1.0921496
1.0461922 1.0793581 1.0133458 1.0308563 1.0544282 1.07336 1.0485111 1.0254327
1.0273299 1.0725679 1.0874054 1.0689778 1.0889573 1.045892 1.069355 1.0834135
1.0644351 1.0234959 1.0808877 1.0742129 1.0452486 1.0528541 1.0453237 1.0594693
1.0876672 1.052936 1.0461148 1.1080375 1.0199077 1.058538 1.0628164 1.0451154
1.0720235 1.0403312 1.1103132 1.0433913 1.074742 1.0599614 1.0521204 1.065176
1.0652474 1.0452044 1.0626338 1.0670037 1.0127715 1.0203304 1.0332571 1.0620191
1.0543281 1.0481247 1.0194688 1.0956453 1.0437253 1.0630176 1.0551977 1.1055717
00000000: e29e 883f b540 893f e9f2 883f 097f 863f
00000010: d96a 843f 0d08 883f a344 863f 8fcb 8b3f
00000020: a0e9 853f 6828 8a3f 51b5 813f 19f3 833f
00000030: 81f7 863f dc63 893f 9d35 863f 6141 833f
00000040: 8c7f 833f e849 893f 1a30 8b3f 44d4 883f
00000050: f462 8b3f cadf 853f a0e0 883f 4bad 8a3f
00000060: 693f 883f ea01 833f 875a 8a3f cf7f 893f
00000070: b5ca 853f ecc3 863f 2bcd 853f b19c 873f
00000080: ae38 8b3f 9bc6 863f 17e7 853f 2cd4 8d3f
00000090: 568c 823f 2c7e 873f 5e0a 883f 57c6 853f
000000a0: 1138 893f 9329 853f be1e 8e3f d98d 853f
000000b0: 2591 893f d1ac 873f e2ab 863f b057 883f
000000c0: 075a 883f 42c9 853f 6204 883f 9493 883f
000000d0: 7fa2 813f 309a 823f c541 843f 3ef0 873f
000000e0: 39f4 863f f328 863f f47d 823f 1b3e 8c3f
000000f0: ca98 853f f610 883f b810 873f 6083 8d3f

base.mlp.fc2.0.2.bias f4 [64]
0.025156481 0.032265652 -0.024498627 -0.024577139 -0.006169582 -0.030113436 -0.022782153 0.015012167
0.029627651 -0.0386333 -0.042403296 -0.036344286 -0.0054927166 -0.0111582605 -0.034382187 -0.018134298
0.023867652 -0.01327295 0.01950239 0.018014353 -0.028884796 0.027119765 -0.038402736 0.041367788
-0.036101874 0.017245784 0.004330108 0.03166999 -0.043762594 0.044049386 -0.0145179955 0.039786257
-0.033351243 -0.012879794 -0.025544604 0.0373566 -0.014199005 0.038087577 -0.044307433 -0.009992359
-0.017154872 -0.03498492 -0.042287447 0.032979205 0.039176427 0.01188179 -0.016758857 0.019658035
0.027037567 0.015277038 0.027644271 -0.02413452 -0.020232854 -0.0063716895 0.02390462 -0.03353183
0.023461994 -0.039195012 0.02810018 -0.005353223 -0.00644653 0.028290926 -0.011565846 -0.029298995
00000000: f714 ce3c fd28 043d 58b1 c8bc ff55 c9bc
00000010: 342a cabb 74b0 f6bc a3a1 babc 98f5 753c
00000020: b0b5 f23c f43d 1ebd 14af 2dbd bfdd 14bd
00000030: 3ffc b3bb 23d1 36bc 56d4 0cbd 618e 94bc
00000040: 1886 c33c ca76 59bc 7ac3 9f3c d692 933c
00000050: cf9f ecbc 452a de3c 304c 1dbd 4571 293d
00000060: 8fdf 13bd 0847 8d3c 94e3 8d3b 64b8 013d
00000070: 6840 33bd 216d 343d e3dc 6dbc eaf6 223d
00000080: 509b 08bd c605 53bc eb42 d1bc 3c03 193d
00000090: f2a2 68bc b801 1c3d b67b 35bd feb6 23bc
000000a0: 6088 8cbc 594c 0fbd 9a35 2dbd 3415 073d
000000b0: 7677 203d d7ab 423c df49 89bc e309 a13c
000000c0: e37d dd3c 8b4c 7a3c 3d76 e23c c2b5 c5bc
000000d0: 5fbf a5bc 9bc9 d0bb 9fd3 c33c ac58 09bd
000000e0: 5e33 c03c f38a 20bd 5932 e63c 176a afbb
000000f0: 6a3d d3bb 5fc2 e73c ad7e 3dbc 7204 f0bc

act.action_out.log_std f4 [2]
1.1208264 1.10572
00000000: 3d77 8f3f 3c88 8d3f

act.action_out.fc_mean.weight f4 [2, 64]
-0.03945755 -0.07177766 0.036011215 0.03936638 0.017871117 0.056854423 -0.0112477215 -0.06517657
-0.034151986 0.065386504 0.013742447 0.028729582 0.039547164 -0.050414734 0.031562462 0.013126006
-0.008855253 0.06931861 0.018193545 -0.033543393 0.04867399 -0.019645019 0.056933895 -0.075563155
0.0632945 -0.019032689 -0.013217972 -0.07485953 0.044371665 -0.050638556 0.029799854 -0.05465733
0.07794611 -0.027021594 0.021866804 -0.069827214 -0.0038116558 -0.055647075 0.060862295 -0.042197708
0.018343866 0.023201654 0.099554844 -0.038967006 -0.05737319 0.046993304 0.04963536 -0.0062972866
-0.02246365 -0.006617373 -0.0077954656 0.009693097 0.005266357 -0.009995558 0.003892668 0.04127586
-0.053268347 0.038066287 -0.0015727183 0.038350828 0.0054988996 -0.03617972 0.019705065 0.05123968
0.05128844 -0.013452148 0.057974976 0.031926353 -0.029840617 0.023380507 0.04868089 0.067749985
-0.03089816 0.04199274 -0.0015850177 0.014196027 -0.03950533 0.05292883 0.034984805 -0.021034395
0.026512044 -0.014667952 -0.08308006 -0.059315022 0.07112624 -0.04285543 0.04020799 -0.031239755
0.010052574 -0.009214939 -0.07625456 -0.00024192483 0.005633946 0.0034504908 -0.032176107 -0.018478213
-0.041588493 0.04473837 0.040962886 -0.074753605 0.018613026 0.016830515 0.0067249457 0.001815137
0.06904997 0.032746915 0.039375972 0.015985832 -0.04581749 -0.0387853 0.013871782 -0.06507041
-0.057225626 -0.04350881 -0.06452385 0.066376664 0.007265835 0.01792581 0.031108642 0.04322751
0.009291823 0.027575862 0.018837633 -0.087939225 -0.04293658 -0.050587084 0.05119751 -0.09004845
00000000: 3d9e 21bd 2a00 93bd 7f80 133d a43e 213d
00000010: 7366 923c 2fe0 683d 5d48 38bc 4b7b 85bd
00000020: f4e2 0bbd 5ce9 853d 0028 613c 4d5a eb3c
00000030: 35fc 213d ae7f 4ebd a447 013d 760e 573c
00000040: a015 11bc eaf6 8d3d a10a 953c cc64 09bd
00000050: 615e 473d 97ee a0bc 8433 693d dbc0 9abd
00000060: 8ca0 813d 71ea 9bbc 3190 58bc f44f 99bd
00000070: 10bf 353d 606a 4fbd d31e f43c 5de0 5fbd
00000080: 36a2 9f3d 645c ddbc 0322 b33c 9201 8fbd
00000090: f9cc 79bb 30ee 63bd be4a 793d 81d7 2cbd
000000a0: e045 963c 6511 be3c 69e3 cb3d de9b 1fbd
000000b0: 2600 6bbd 0d7c 403d 724e 4b3d 7859 cebb
000000c0: b005 b8bc 8cd6 d8bb 1b71 ffbb cccf 1e3c
000000d0: 6891 ac3b 69c4 23bc 221c 7f3b e010 293d
000000e0: e92f 5abd 65eb 1b3d ab23 ceba c215 1d3d
000000f0: 1d30 b43b 3031 14bd 846c a13c b3e0 513d
00000100: d413 523d 6666 5cbc 2b77 6d3d 35c5 023d
00000110: 4f74 f4bc 7a88 bf3c 9d65 473d 81c0 8a3d
00000120: 231e fdbc 9400 2c3d 5ec0 cfba 7496 683c
00000130: 57d0 21bd e7cb 583d 3a4c 0f3d 5350 acbc
00000140: c92f d93c da51 70bc e125 aabd 4ff4 72bd
00000150: a2aa 913d 2d89 2fbd 22b1 243d 84ea ffbc
00000160: 8db3 243c 41fa 16bc 5a2b 9cbd 34ad 7db9
00000170: f79c b83b a121 623b 18cb 03bd 9f5f 97bc
00000180: b258 2abd 953f 373d b3c8 273d 6b18 99bd
00000190: 587a 983c 26e0 893c ef5c dc3b e4e9 ed3a
000001a0: 126a 8d3d a121 063d b348 213d b8f4 823c
000001b0: 1fab 3bbd 56dd 1ebd 7946 633c a343 85bd
000001c0: 6b65 6abd 4b36 32bd 1525 84bd 7df0 873d
000001d0: 3e16 ee3b 26d9 923c 8dd7 fe3c 540f 313d
000001e0: bb3c 183c c6e6 e13c 6151 9a3c 7b19 b4bd
000001f0: 44de 2fbd 6734 4fbd 7bb4 513d 526b b8bd

act.action_out.fc_mean.bias f4 [2]
-0.042507205 -0.0027561195
00000000: 091c 2ebd 03a0 34bb
