ami_mujoco/ckpt/mujoco/manyagent_swimmer_4x2/victim/critic.pt (torch, 27995 bytes, 11 tensors)

base.feature_norm.weight f4 [20]
0	0x403697f8	2.8530254
1	0x4051479a	3.2699952
2	0x408b421b	4.3518195
3	0x40d59c69	6.675343
4	0x40c8b6bb	6.272306
5	0x40baba71	5.835259
6	0x40a0086b	5.0010276
7	0x407b8026	3.9296966
8	0x4018f29f	2.3898084
9	0x405399f9	3.3062727
10	0x4097119d	4.7209
11	0x409d8935	4.922999
12	0x40886813	4.2627044
13	0x400f0c3c	2.2351217
14	0x3f8b7587	1.0895241
15	0x3eccda97	0.4001052
16	0xbc638d45	-0.013888662
17	0x3eac813e	0.33692354
18	0x3eadea81	0.33967975
19	0xbe568462	-0.20948938

base.feature_norm.bias f4 [20]
0	0xbff980e1	-1.9492456
1	0x3fd8ba0e	1.6931779
2	0x3f91ec04	1.1400151
3	0x3dcbbdb8	0.09948295
4	0x3c32be10	0.010909572
5	0x3e0eb4d6	0.13936171
6	0x3e5967e0	0.21231031
7	0x3dbe1c8f	0.09282791
8	0xbc17d7bf	-0.0092677465
9	0xbf7e3316	-0.992967
10	0xbdaf1979	-0.085497804
11	0x3d2d0d3f	0.04224896
12	0x3c98e5d9	0.018664287
13	0x3e6d07ad	0.2314746
14	0x3db65bb8	0.08904213
15	0x3e513380	0.20429802
16	0xbd85ec6f	-0.06539237
17	0xbd8dfb30	-0.06932676
18	0x3da302e4	0.07959536
19	0xbe698a1e	-0.22806594

base.mlp.fc1.0.weight f4 [64, 20]
0	0x40438e92	3.0555768
1	0x401ce5a4	2.4515162
2	0xbf57b713	-0.84263724
3	0x3f2e0df3	0.67990035
4	0xbfcdb647	-1.6071252
5	0x3f36d685	0.7142108
6	0xbfcea6aa	-1.6144612
7	0x3f96c3e8	1.1778536
8	0xbe17a6c1	-0.14809705
9	0x4014b45d	2.3235085
10	0x3f42c512	0.76081955
11	0xbf9e70dc	-1.2378192
12	0xbfd1b76b	-1.63841
13	0xc01d3c35	-2.4567997
14	0x40086534	2.131177
15	0xbf2f0e53	-0.6838123
16	0x3d5282d8	0.051394314
17	0xb9bb593b	-0.000357339
18	0x3e89c4b2	0.2690788
19	0xbf00684e	-0.50159156
20	0xc093410b	-4.60169
21	0xbf3dcc1b	-0.74139565
22	0xbfe7b7db	-1.8102983
23	0x3f18c702	0.5967866
24	0x40da40dd	6.820418
25	0xc0833492	-4.1001673
26	0xbe3d8fe9	-0.18511929
27	0xc03b142e	-2.9231067
28	0x40bd2701	5.911011
29	0x3fd59809	1.6687022
30	0x3f34e24a	0.7065779
31	0x3dd83352	0.105566636
32	0xbebfa445	-0.37430015
33	0xc00dce4a	-2.215716
34	0x40a2b5bb	5.084684
35	0x3f4e042e	0.8047513
36	0x3f597b43	0.8495371
37	0xc05b6d22	-3.428536
38	0x3fe29f1d	1.7704808
39	0xbf84cbf2	-1.0374739
40	0xbfa05e56	-1.2528789
41	0x411be942	9.744448
42	0x3f82c08c	1.0215011
43	0x3f55dfcf	0.8354463
44	0xbf7c42fd	-0.98539716
45	0xbf0566a0	-0.5210972
46	0x405c11ac	3.4385786
47	0xc108c079	-8.54699
48	0xc0128f3b	-2.289992
49	0x40aa3a7e	5.31964
50	0xbf376aa3	-0.7164709
51	0xbf0a7e98	-0.54099417
52	0xc003700e	-2.0537143
53	0xbfdf85e3	-1.7462734
54	0x3f859b67	1.043805
55	0xbf7fba74	-0.9989388
56	0xbdce7122	-0.10080172
57	0xbeacb775	-0.33733717
58	0xbfd985b0	-1.6993923
59	0xbec74188	-0.38917184
60	0x3f48569f	0.78257173
61	0x3f950bc6	1.1644218
62	0x403643f8	2.8478985
63	0xbe1af0b6	-0.15130886
64	0x4042f883	3.046418
65	0x3fc5bb15	1.5447718
66	0xbc003b8f	-0.0078267
67	0x3f32428a	0.6963278
68	0xc040727d	-3.0069878
69	0xc0c34f62	-6.1034403
70	0x4023d128	2.559641
71	0xbfb20a25	-1.3909346
72	0xc06c5a8e	-3.693027
73	0xbf963d29	-1.1737415
74	0x3f0b5807	0.54431194
75	0xbfd00714	-1.625216
76	0xbf702187	-0.9380116
77	0x40337a8f	2.8043554
78	0x3f93be71	1.1542493
79	0x3fcc522e	1.5962579
80	0x3d155d23	0.036465775
81	0x401b972e	2.4311023
82	0xc0968a70	-4.704399
83	0x410830f2	8.51195
84	0xbffb9cea	-1.9657261
85	0x3f936be8	1.1517305
86	0x4028774a	2.6322808
87	0xc068c80d	-3.6372101
88	0x3f907081	1.1284333
89	0x3f3918c2	0.723034
90	0xbf1b7562	-0.60725987
91	0xc0048afa	-2.0709825
92	0xc01c6792	-2.4438214
93	0xc013ee83	-2.3114326
94	0x4007d3d6	2.1223044
95	0x3ff79b71	1.9344312
96	0x3f0c82c7	0.5488705
97	0x400d7af4	2.2106295
98	0x3f2c4b6f	0.673026
99	0x3fd7737b	1.6832117
100	0xc16cfa1a	-14.81106
101	0xbfc88e76	-1.5668476
102	0xc0d70788	-6.7196693
103	0x419452bd	18.5404
104	0xc1581146	-13.504217
105	0x4108b917	8.545188
106	0xc00e24aa	-2.2209878
107	0xc018d4c3	-2.387986
108	0x406b3942	3.6753697
109	0xc0d82832	-6.7549067
110	0x3f83be08	1.0292368
111	0x40456c4f	3.0847356
112	0x4006c226	2.1055999
113	0x3fa48501	1.285309
114	0x402122ea	2.517756
115	0xbf0c32a1	-0.54764754
116	0xbeaf2e1f	-0.34214875
117	0xc0a4a0ee	-5.1446447
118	0xbf76b39a	-0.963678
119	0xbf227d5a	-0.6347252
120	0x3dfdcf3f	0.12393045
121	0x404e35b2	3.2220273
122	0x3feb14f4	1.8365769
123	0xc06a2d7f	-3.6590269
124	0x3d40c8c9	0.047066484
125	0x400a7a2d	2.163707
126	0xbfac4020	-1.3457069
127	0x3f3742e3	0.71586436
128	0xbc4af49a	-0.012387419
129	0x3f949cda	1.1610367
130	0x408f91a0	4.4865265
131	0xc00f4ee6	-2.2391906
132	0xc010291d	-2.2525094
133	0xc02eebe7	-2.7331483
134	0x3edcf7a6	0.4315769
135	0xc0063fdc	-2.0976477
136	0xbfa3b7ca	-1.2790463
137	0xbe6c78fc	-0.23093027
138	0xbdbe940c	-0.093055815
139	0x3e5552ab	0.20832317
140	0xbfb6a040	-1.4267654
141	0x3de86396	0.113471195
142	0xc0a38df4	-5.1110783
143	0xc0839aa6	-4.112628
144	0x40be6dfe	5.950927
145	0xc0884e7f	-4.259582
146	0x3e415751	0.18880965
147	0x3fc4d0f1	1.5376264
148	0xc0a4627b	-5.1370215
149	0x3ea0f2af	0.31435153
150	0xbfc803ac	-1.562612
151	0x4080177f	4.002868
152	0x40840518	4.125622
153	0x409b455a	4.852216
154	0xc0c0012c	-6.000143
155	0x403ac639	2.9183486
156	0x3f560546	0.83601797
157	0xbf1965ac	-0.59920764
158	0xbfc1d982	-1.5144503
159	0x3f9d8ae6	1.2308013
160	0xbf82d75d	-1.0221974
161	0x3e494574	0.196554
162	0x3eceef91	0.4041715
163	0x3fa87afb	1.3162531
164	0xc0385023	-2.8798912
165	0x403e17be	2.970199
166	0xc0029ef7	-2.0409524
167	0x403ee58b	2.9827602
168	0x401dbe6c	2.4647474
169	0x3fcd583d	1.6042553
170	0x3e954ff0	0.2916255
171	0xbfabd0f7	-1.3423146
172	0xbdbf6347	-0.093451075
173	0xc0525a5e	-3.2867656
174	0x3cd88fa6	0.026435684
175	0x3fb94d91	1.4476796
176	0xbfe3d299	-1.7798644
177	0xbf8d58f8	-1.1042776
178	0xbee774e7	-0.45206377
179	0x3f5cbbf4	0.86224294
180	0xbfd7763a	-1.6832955
181	0x3fc00a84	1.5003209
182	0xbf53eaab	-0.8277995
183	0x3fa71789	1.3054057
184	0xbe47762c	-0.19478673
185	0xc0f21470	-7.564995
186	0xbf028d4a	-0.5099684
187	0x402ef386	2.7336135
188	0x4010cfdf	2.2626874
189	0x4092a63c	4.5827923
190	0x3f7da3aa	0.99077857
191	0x3fd430c3	1.6577381
192	0x3ffe1645	1.9850546
193	0x3fc1132b	1.5083975
194	0x3ff535b8	1.9157019
195	0xc09d77af	-4.92086
196	0x3e7a37a3	0.24435286
197	0xbf237ca3	-0.63862056
198	0x409a8501	4.828736
199	0xbf9bfc4c	-1.218637
200	0xbff4eb44	-1.9134297
201	0x3ec317c6	0.38104075
202	0x3ff796fd	1.9342953
203	0xc0351ab9	-2.829756
204	0x3f96f079	1.1792136
205	0x403c1b82	2.939179
206	0x3fa79b11	1.3094198
207	0xc097bdc8	-4.7419167
208	0xbf82a489	-1.0206462
209	0x4021d1ac	2.5284224
210	0xbe4691ab	-0.19391505
211	0xc0113196	-2.2686515
212	0xc01de90d	-2.4673493
213	0xc0259274	-2.5870638
214	0xbfd38cb9	-1.652732
215	0x403d97bf	2.9623868
216	0x3ed89afd	0.42305747
217	0x3f77bfd7	0.967771
218	0xc09fb8b7	-4.991298
219	0xbfae74cb	-1.3629392
220	0xc0588fce	-3.3837771
221	0x3cf62075	0.030044774
222	0xbf9767e4	-1.182858
223	0x40572762	3.3617787
224	0x4051e774	3.2797518
225	0xc0d9d858	-6.807659
226	0xbf9c0059	-1.2187606
227	0x3f2a4b0c	0.6652076
228	0x408116e2	4.0340433
229	0x408a3de5	4.3200555
230	0x3ec5c7ea	0.38629085
231	0x3dbbe256	0.091740295
232	0xbf746595	-0.954675
233	0xbf91ecce	-1.1400392
234	0x409854b8	4.7603416
235	0xbff1f963	-1.8904232
236	0x3e886701	0.26641086
237	0xc0a2a860	-5.0830536
238	0x409fa045	4.988314
239	0xbd4d9879	-0.050194237
240	0xc07ee4fb	-3.9827259
241	0xc0200c97	-2.5007684
242	0xbf25070d	-0.64463884
243	0xbf73ba24	-0.95205903
244	0x40825c55	4.073771
245	0xc02582fa	-2.5861192
246	0x402f2d6a	2.7371469
247	0xc04e15f1	-3.2200892
248	0xc0815ccb	-4.0425773
249	0x400f53dc	2.2394934
250	0x3f781772	0.96910775
251	0x3eae6931	0.3406463
252	0x3f5f7f4e	0.87303627
253	0xbec77ed2	-0.38963944
254	0x4000e1be	2.0137782
255	0xbf4abfd4	-0.79198956

base.mlp.fc1.0.bias f4 [64]
0	0x40a83027	5.255878
1	0xbfb3d469	-1.4049197
2	0xbfda1bf8	-1.7039785
3	0xc06ae789	-3.6703818
4	0x40151255	2.329244
5	0xc0917138	-4.5450706
6	0xc0aacfb0	-5.3378525
7	0x4001cd37	2.0281503
8	0xc02c2c33	-2.6901977
9	0xbfa9de17	-1.3270901
10	0xc07dcd85	-3.965669
11	0xc024161a	-2.563849
12	0x40082ed9	2.1278594
13	0x403df20f	2.967899
14	0x3f0173ae	0.5056714
15	0xc03de7dd	-2.9672768
16	0x4015fc8b	2.343539
17	0xc07aea83	-3.9205635
18	0xbfe64fa6	-1.7993057
19	0xc179e462	-15.6182575
20	0xbf981a8e	-1.1883104
21	0x3f3338df	0.70008653
22	0xbff7aee2	-1.9350245
23	0xc01390c8	-2.3057117
24	0xc018c38e	-2.3869357
25	0xbde0e9e3	-0.1098211
26	0xc00c0e3d	-2.188369
27	0xc024923c	-2.5714254
28	0xbfb2a16c	-1.3955512
29	0xc0335457	-2.8020227
30	0x40522038	3.2832165
31	0xc0dce1e7	-6.902576
32	0xc128d0e8	-10.5510025
33	0xbfcf45f7	-1.6193227
34	0x418873fb	17.056631
35	0xc010c7b8	-2.2621899
36	0xbff8497a	-1.9397423
37	0xbf985d01	-1.1903383
38	0xc01a7d4a	-2.413897
39	0xbecb826e	-0.39747947
40	0xc05c70f1	-3.4443934
41	0x3e477277	0.19477259
42	0xbee46b31	-0.4461303
43	0xbe1cb812	-0.15304592
44	0xc06a39ea	-3.6597848
45	0xc0c8d170	-6.275566
46	0xc09a1946	-4.815585
47	0xc0485f23	-3.1308067
48	0xbe395b2b	-0.18101184
49	0xbf3b47e3	-0.73156565
50	0x3f81e649	1.0148402
51	0xc003a8d1	-2.0571787
52	0xc0f23c15	-7.569834
53	0xc0763c17	-3.8474176
54	0xbfb7c478	-1.4356833
55	0xc0a16a51	-5.044228
56	0xbfa78c06	-1.3089607
57	0xc134df83	-11.304568
58	0xc0077855	-2.1167195
59	0xc029f210	-2.6553993
60	0xbfdb751e	-1.7145116
61	0xc000519a	-2.0049806
62	0x3fb4d4db	1.4127458
63	0x400b15fb	2.1732166

base.mlp.fc1.2.weight f4 [64]
0	0x4044cd2b	3.0750225
1	0x3da6954d	0.081339456
2	0x40408385	3.0080273
3	0x3f6e8248	0.93167543
4	0xbfc384ce	-1.5274904
5	0x40ab48d7	5.3526416
6	0x403d2e04	2.9559336
7	0x406c708c	3.6943693
8	0x3fb160d6	1.3857677
9	0xbcc92087	-0.024551643
10	0x3f5ac42d	0.8545559
11	0xbf6efd5d	-0.9335535
12	0xbda92073	-0.08258142
13	0xbfedb923	-1.8572124
14	0xbf25746c	-0.6463077
15	0x3ffba586	1.9659889
16	0x403e7a04	2.9761972
17	0x40365cd7	2.8494165
18	0x3d170b2c	0.03687589
19	0x40a544f7	5.1646686
20	0xbe5e9d20	-0.21739626
21	0x4107246e	8.446394
22	0xbecc9344	-0.39956105
23	0xbe52e745	-0.20596035
24	0x3e901d9a	0.28147584
25	0xbe118cbf	-0.14213847
26	0xc06e71fd	-3.7257073
27	0x3f64ac88	0.8932576
28	0x3f142376	0.5786661
29	0xbf4b1b15	-0.793382
30	0x400cb247	2.1983812
31	0x40931da9	4.5973706
32	0x4089e189	4.308781
33	0xbfc29476	-1.5201557
34	0x40875fd1	4.2304463
35	0x3eab2a68	0.3343079
36	0x3e127d8f	0.1430571
37	0x3f9e9484	1.2389073
38	0x3e22842c	0.15870732
39	0xbf8c8e4f	-1.0980929
40	0x3f9e3a3b	1.236152
41	0x3fc2e4f8	1.5226126
42	0xbe58412c	-0.21118611
43	0x3e70f77b	0.23531906
44	0x407da1c0	3.9629974
45	0x4098e5b8	4.778042
46	0x4021b919	2.5269225
47	0x3f71594d	0.9427689
48	0x40b32d50	5.5992813
49	0x3fa8069f	1.3127021
50	0x41c19d4d	24.201807
51	0x3fbcf72c	1.4762931
52	0x40557178	3.3350506
53	0x3fe93973	1.8220657
54	0xbf665407	-0.89971966
55	0x4017f16a	2.3741097
56	0x4057630f	3.365421
57	0x40a8026d	5.250296
58	0x3f345c8a	0.70453703
59	0x3c1166b5	0.008874585
60	0x3e996e0f	0.2996678
61	0x3d76357d	0.060109604
62	0x41338e06	11.222174
63	0x3fe2c923	1.7717632

base.mlp.fc1.2.bias f4 [64]
0	0xc08b040f	-4.3442454
1	0x3ce2d828	0.027690962
2	0xbe23590a	-0.15951934
3	0xbfb3d5a6	-1.4049575
4	0x3e9f45fd	0.31108084
5	0x40242950	2.5650215
6	0xbcd5a6ee	-0.026080575
7	0x3f9ec50f	1.2403888
8	0xbf5cd4aa	-0.86262
9	0x3f692049	0.9106489
10	0xbea3df93	-0.3200651
11	0xbe3c76c3	-0.18404679
12	0x3f03416f	0.5127172
13	0xbf971c87	-1.1805581
14	0x3e4c1cf0	0.19932914
15	0x3f9d1800	1.2272949
16	0xc07f79eb	-3.9918163
17	0xbe47dd71	-0.19518067
18	0x3fccc8b8	1.5998755
19	0x3fd3eb74	1.655623
20	0x3ecaf36d	0.39638844
21	0xbfd91aef	-1.6961344
22	0xbf28f02a	-0.6599146
23	0x3f39c409	0.7256475
24	0xbf8882b9	-1.0664893
25	0xbef54cbc	-0.47910106
26	0x3f334b1c	0.7003648
27	0x3f93df0e	1.1552446
28	0x3f1ec8a2	0.6202489
29	0xbf1edb27	-0.6205315
30	0xc05ce0f7	-3.4512308
31	0x3f1b1f0c	0.6059425
32	0x3fa7ee69	1.3119632
33	0xbf5e28a7	-0.8678078
34	0x403e837e	2.9767756
35	0x3f923b76	1.1424396
36	0x3f286e7e	0.657936
37	0xbee5e135	-0.44898382
38	0xbf4c5233	-0.79812926
39	0xbe9c9a2e	-0.3058638
40	0x3fa32e76	1.2748554
41	0x400afc94	2.1716661
42	0xbe8367d7	-0.2566516
43	0xbf2f3980	-0.68447113
44	0x3fbae7a7	1.4601945
45	0x40006f76	2.006803
46	0xbf8d1397	-1.1021603
47	0x3d61aa17	0.05509385
48	0xbe9db0c5	-0.30798927
49	0xbe78a8b8	-0.24283111
50	0x408cc1e7	4.3986697
51	0xbf46886a	-0.775519
52	0x402c7520	2.6946487
53	0x3f8695ba	1.0514443
54	0x3f1f82a3	0.6230871
55	0x3fd4d529	1.6627551
56	0xbf8a0594	-1.0782952
57	0x3f5646d3	0.8370182
58	0xbf02e807	-0.51135296
59	0x3f829ff3	1.0205063
60	0xbf6e01e5	-0.9297164
61	0xbf7266cd	-0.9468811
62	0x3fd6fdff	1.6796263
63	0xbf93b072	-1.1538222

base.mlp.fc2.0.0.weight f4 [64, 64]
0	0x400915b9	2.1419508
1	0xbf6b33a3	-0.91875666
2	0x3f369be5	0.71331626
3	0x3f25f537	0.64827293
4	0xbfcaf079	-1.5854636
5	0xc014a3da	-2.3225007
6	0xbf416086	-0.7553791
7	0xc0874a48	-4.2278175
8	0x40382270	2.877102
9	0x3f8b92a1	1.0904123
10	0x4007e6b5	2.1234562
11	0x3f598900	0.8497467
12	0xc0013b15	-2.019231
13	0x3fe926e8	1.8214998
14	0x3fe43572	1.782881
15	0xbfab39d3	-1.3377022
16	0xbfb518ea	-1.4148228
17	0x3fe79130	1.8091183
18	0xbf844609	-1.0333873
19	0x3e7c3bc5	0.24632175
20	0x3df9451d	0.121713854
21	0xc0f4aadb	-7.6458564
22	0xbf06c954	-0.5265095
23	0x3fa62558	1.2980146
24	0x3c354714	0.01106431
25	0x400c9db7	2.1971262
26	0x3f9ae726	1.2101791
27	0x3f3594f5	0.70930415
28	0x3deaf3c0	0.11472273
29	0xbfc9ddcf	-1.5770816
30	0xbfa177d0	-1.2614689
31	0x3faa1860	1.3288689
32	0x3ff0b09b	1.8803896
33	0x3fc12447	1.5089196
34	0xc07d71b5	-3.9600651
35	0x3f1efe8d	0.62107164
36	0xbf291df0	-0.66061306
37	0x404ab0b4	3.167035
38	0x3f1b33b4	0.6062577
39	0x3db16adb	0.08662959
40	0xc002f035	-2.045911
41	0xbf83b385	-1.028916
42	0x3d40e625	0.047094483
43	0x3e809c8e	0.25119442
44	0x3e854849	0.26031712
45	0x401fed30	2.4988518
46	0x3f8da5f9	1.1066276
47	0xbf28ed36	-0.65986955
48	0x4005fe97	2.093664
49	0xbf1c1350	-0.6096697
50	0xc046f278	-3.108549
51	0xc016de2e	-2.3573108
52	0xc0235d1f	-2.5525587
53	0xc006a3c4	-2.1037455
54	0xc0206345	-2.506059
55	0x3f25d7eb	0.6478259
56	0xbd0a4502	-0.033757217
57	0x3fd79b38	1.6844244
58	0xc002d4f3	-2.0442474
59	0xc00ce6e1	-2.2015917
60	0x3ebc6fc6	0.36804026
61	0x3f30fdce	0.69137275
62	0xc06cfbc4	-3.7028666
63	0xc03d4611	-2.9574015
64	0x3f0923a2	0.53569996
65	0xbf8199b1	-1.0125028
66	0x3f372a4d	0.7154892
67	0x4000855a	2.0081391
68	0xc0574287	-3.3634355
69	0x3fa5b829	1.2946826
70	0xbf799b24	-0.9750235
71	0xc0384253	-2.879048
72	0x4008cba2	2.1374288
73	0xbfa4e77c	-1.2883143
74	0x400f1e5f	2.2362287
75	0xbec7aa43	-0.38997087
76	0x3ec46cc0	0.3836422
77	0x3fe21cfd	1.7665097
78	0xc011e39c	-2.2795172
79	0x3ec2353e	0.37931246
80	0xc030f406	-2.764894
81	0x3fc34b06	1.525727
82	0x3f283d6e	0.65718734
83	0xbf2b43f1	-0.66900545
84	0x3f4d72aa	0.8025309
85	0x40602944	3.5025187
86	0xbf1154a9	-0.56769806
87	0xbfddca1d	-1.7327305
88	0xbe8b596a	-0.27216655
89	0xbfeff2f9	-1.8746024
90	0xc0af253e	-5.473296
91	0xbea53b33	-0.32271728
92	0x3fc789c6	1.558892
93	0xbfa5699d	-1.2922856
94	0x40935fb4	4.6054325
95	0xbdd8d579	-0.10587592
96	0xbe4f6a1b	-0.2025532
97	0x3f3b60f8	0.7319484
98	0x3f3f6eb6	0.74778306
99	0xbf0b6091	-0.54444224
100	0xc0886a55	-4.26298
101	0x3ffcec56	1.9759624
102	0x3fe37d58	1.7772627
103	0xc052f5bc	-3.2962484
104	0xc037a7eb	-2.869624
105	0x40250806	2.5786147
106	0xbff2609b	-1.8935732
107	0xbf1de263	-0.61673564
108	0xbf5d1a42	-0.8636819
109	0xbec5dafa	-0.38643628
110	0x3efb8a21	0.49128821
111	0x3fd65a74	1.6746354
112	0xbf8104c4	-1.0079579
113	0xbf96529c	-1.174396
114	0x40aaa6cc	5.332861
115	0xbf7a9d01	-0.9789582
116	0x3f87a635	1.0597597
117	0xbfdb9770	-1.715559
118	0xbdf8f5c5	-0.12156252
119	0x3fbcbfcc	1.4746032
120	0x3ff28097	1.8945493
121	0x3cc95c92	0.024580274
122	0xc0629ea7	-3.5409334
123	0xbf01b0d5	-0.5066045
124	0xbf02ad48	-0.51045656
125	0xbfe88ca7	-1.8167924
126	0xbf527f62	-0.8222562
127	0xc0296091	-2.646519
128	0xbf45426f	-0.77054495
129	0xbe7107f8	-0.23538196
130	0x407d454a	3.957354
131	0x40c9208f	6.2852244
132	0xbfa16971	-1.2610303
133	0x3dd574b2	0.104226485
134	0x40b1f472	5.5610895
135	0x3f7079cd	0.93935853
136	0x408ac1e4	4.3361683
137	0xbffdc4ae	-1.9825647
138	0x3fcb867d	1.5900418
139	0x3dc0458e	0.093882665
140	0xc03e70bc	-2.9756308
141	0xbf9ae4a8	-1.210103
142	0xbf868436	-1.0509098
143	0x401a80d2	2.4141126
144	0x3deb1d69	0.11480219
145	0x40731613	3.7982223
146	0xc0344ecf	-2.81731
147	0x3f60b8ee	0.8778218
148	0xbfbd4bc9	-1.4788753
149	0xbee23199	-0.44178465
150	0xbf54d65c	-0.83139586
151	0x3ff9a79c	1.9504275
152	0x4061d0a8	3.5283604
153	0x40067671	2.100979
154	0xc08e3163	-4.4435287
155	0x3f421904	0.7581942
156	0xbf4a33c3	-0.7898523
157	0x3f377cf2	0.71675026
158	0xbeb73065	-0.3577911
159	0x3f9df410	1.2340107
160	0x4042b023	3.0420005
161	0x3f273d84	0.6532824
162	0xc04ab5f6	-3.167356
163	0xc01300a4	-2.296914
164	0xc0407796	-3.007299
165	0x3f983342	1.1890643
166	0x3f29aecc	0.66282344
167	0xc00fbffd	-2.246093
168	0x3f06bc14	0.52630734
169	0x40beda78	5.9641685
170	0x40504e2c	3.2547712
171	0x405b0efc	3.4227896
172	0x405c0899	3.4380248
173	0xbf740397	-0.9531798
174	0x4117eca2	9.495272
175	0x40022cda	2.0339875
176	0x401fc258	2.4962368
177	0x405f8a56	3.4928184
178	0x3f86c2bd	1.052818
179	0x40a36a52	5.1067286
180	0x40027817	2.0385797
181	0x40290fca	2.6415887
182	0x3d274d76	0.040845357
183	0x40e219ce	7.06565
184	0x401176d8	2.2728786
185	0x40aac737	5.336818
186	0x40a1f899	5.0615964
187	0xc04bc3ef	-3.1838338
188	0x403eac3a	2.9792619
189	0x3f7292bf	0.94755167
190	0x3fd572da	1.6675675
191	0x3e9a6372	0.30153996
192	0xc0cff7e4	-6.49901
193	0x3f5f4139	0.87208897
194	0xbfa71392	-1.3052847
195	0xc0aecb8c	-5.462347
196	0x40c40a1b	6.1262336
197	0x40888dc9	4.2673078
198	0xbf2608b6	-0.6485704
199	0xbeb54e47	-0.35411283
200	0xc0227bb7	-2.538801
201	0x3fc73ae1	1.5564843
202	0xbe8525c7	-0.26005384
203	0x3f6cb291	0.9245997
204	0xbef8011e	-0.48438352
205	0x3f829873	1.0202774
206	0xbf7c6b73	-0.98601454
207	0x40018d55	2.0242512
208	0xc0d0066b	-6.5007834
209	0xbf41436e	-0.75493515
210	0x4002b584	2.0423288
211	0x403981e8	2.8985538
212	0x3fc0b96a	1.5056584
213	0x403ee111	2.982487
214	0xbd0062d2	-0.031344242
215	0xc02fd85a	-2.74758
216	0x3e04f38a	0.12983528
217	0x3f8b9709	1.0905467
218	0xbd90a185	-0.070620574
219	0xbdd52a30	-0.10408437
220	0xbe69960f	-0.22811149
221	0x3fab47a6	1.338124
222	0xc01d8453	-2.4612014
223	0xc01893b2	-2.3840146
224	0x3f0a8401	0.5410767
225	0xc03491cf	-2.8213995
226	0x40a36703	5.1063247
227	0xbf7147cd	-0.94250184
228	0x3f939f27	1.1532944
229	0xbf88d802	-1.069092
230	0x3fabcdf7	1.342223
231	0xbe9f475c	-0.3110913
232	0x3ec43d4c	0.38328016
233	0x3ff1fc80	1.8905182
234	0xc0005539	-2.0052016
235	0x3f740e31	0.95334154
236	0x406de4ab	3.7170818
237	0xc026e942	-2.607987
238	0xbfcfe567	-1.6241883
239	0xbf38be31	-0.7216521
240	0xc07413dd	-3.8137124
241	0x3e6b6acf	0.22989963
242	0x40015dfd	2.0213616
243	0xc0540dbc	-3.3133383
244	0xbedea821	-0.43487647
245	0xbeabc5a3	-0.33549222
246	0xbf9b29c1	-1.2122117
247	0xbdcc4fb9	-0.099761434
248	0xc029090d	-2.6411774
249	0xbfc39a18	-1.5281401
250	0xbfa88035	-1.3164126
251	0x3ff2e435	1.8975893
252	0xc03b6285	-2.9278882
253	0xbf909350	-1.1294956
254	0x402a1876	2.657743
255	0x3ef41ed7	0.4767978

base.mlp.fc2.0.0.bias f4 [64]
0	0xc038185b	-2.8764865
1	0xbf9202c2	-1.1407092
2	0xc0e3a2fc	-7.1136456
3	0x3faf076e	1.3674142
4	0x3fba2083	1.4541172
5	0xbfa74507	-1.306794
6	0x4044c1b5	3.074323
7	0xbfc1a761	-1.5129205
8	0x3ec61bfe	0.3869323
9	0xbff31b1e	-1.899265
10	0xbf49780f	-0.7869882
11	0x3fa3596d	1.2761666
12	0x3f55912b	0.83424634
13	0x3e000bca	0.12504497
14	0xbeb82a76	-0.35969895
15	0x403f1cbc	2.9861288
16	0xc0a0543d	-5.010283
17	0x3fa937c6	1.3220146
18	0xbef261f9	-0.47340372
19	0xbf647b15	-0.8925031
20	0xbfea095a	-1.8284104
21	0x3e2b2a44	0.16715342
22	0xc00eefe1	-2.233391
23	0xbfb38d2e	-1.402746
24	0xc009bcae	-2.152141
25	0x3e8f1888	0.27948403
26	0xbdaac7c6	-0.08338885
27	0xbfab0999	-1.3362304
28	0x408130c5	4.0372033
29	0xbf0277d9	-0.50964123
30	0x40195997	2.3960931
31	0x3f9319d8	1.1492262
32	0xbf15f18e	-0.5857171
33	0xbec53834	-0.38519442
34	0x3e432740	0.19057941
35	0x3f0b333d	0.5437506
36	0xc02aa0ee	-2.6660724
37	0x3e2c3af7	0.16819368
38	0x3f25e147	0.6479687
39	0x3ee4f51f	0.44718263
40	0x3f83e617	1.0304593
41	0x3f2fbd43	0.68648165
42	0x3f85e9cf	1.0461978
43	0x3dbae2d0	0.09125292
44	0x402bb503	2.682923
45	0xbfaaa926	-1.333287
46	0xbf85ed89	-1.0463115
47	0xbf276980	-0.65395355
48	0x3f9c5393	1.2213005
49	0x3ebdd848	0.37079072
50	0xc01a07a4	-2.4067163
51	0xbef388fe	-0.47565454
52	0xbff9828e	-1.9492967
53	0xc0973e76	-4.7263746
54	0xc03b6fcd	-2.9286988
55	0xbf063ac7	-0.5243344
56	0xc0457a55	-3.0855916
57	0xbf6d87a8	-0.9278512
58	0x3f07f94a	0.5311476
59	0x3fc36f5f	1.5268363
60	0xbff42612	-1.9074118
61	0x3f4858cd	0.782605
62	0xbe872b0b	-0.26400027
63	0xbf2ca521	-0.67439467

base.mlp.fc2.0.2.weight f4 [64]
0	0x3fb93856	1.4470317
1	0x3ba3d8cf	0.005000211
2	0x3fc043bc	1.5020671
3	0xbce34040	-0.027740598
4	0x3e578d73	0.21050052
5	0xbf187a13	-0.5956127
6	0xbba2e0b1	-0.004970633
7	0x3ddb1ac7	0.10698467
8	0x3f068c3c	0.5255773
9	0x3e83d193	0.2574583
10	0xb97e882a	-0.00024274053
11	0xbe3e6387	-0.18592654
12	0xbe2127a0	-0.15737772
13	0x3b0c2a4c	0.0021387516
14	0x3eb3116e	0.34974235
15	0x3ab5fafb	0.0013884002
16	0x3edc2d6e	0.4300341
17	0xba2d43bc	-0.00066095195
18	0xbea7e692	-0.327931
19	0x3e05d4fb	0.13069527
20	0x3d7c51f2	0.061601587
21	0x37bc999e	2.248288e-05
22	0xb4877064	-2.5227484e-07
23	0xb74601df	-1.1802155e-05
24	0x3fafb682	1.3727572
25	0x3c54e333	0.012993622
26	0xbb9703e3	-0.0046086176
27	0x399cb05c	0.00029886037
28	0x3741325b	1.1515421e-05
29	0xbe27620a	-0.16345993
30	0xbc6dfa5b	-0.014525021
31	0xbc2a1689	-0.010381349
32	0x3e338790	0.17532182
33	0xb90b735e	-0.0001329905
34	0x3eb35a37	0.35029766
35	0x3d14b545	0.036305685
36	0x3fc5c893	1.5451835
37	0xbdbf3cd0	-0.09337771
38	0x3c367b2d	0.011137766
39	0x3ac6eadc	0.0015176195
40	0xbe662037	-0.22473226
41	0xbeaaea63	-0.33381948
42	0xaa93f4aa	-2.6282215e-13
43	0xbd43202c	-0.047638103
44	0xba4fa6aa	-0.0007921258
45	0x3ee631ee	0.44959968
46	0xbe824563	-0.25443563
47	0xbeb89c1c	-0.36056602
48	0x388cc577	6.712501e-05
49	0xbd763143	-0.060105573
50	0x3fea7af2	1.831877
51	0x3ec276d3	0.3798128
52	0xbe9d0269	-0.306659
53	0x3fca06a3	1.5783275
54	0x3f951517	1.1647061
55	0x3d30d8aa	0.043175377
56	0x3f998692	1.1994193
57	0x3e08b861	0.13351585
58	0xbe64fa79	-0.22361173
59	0xb8dc6dbb	-0.000105108564
60	0x3fac835c	1.3477588
61	0xbc535265	-0.012898062
62	0x3d87f09e	0.06637691
63	0x3ec7ddb9	0.39036348

base.mlp.fc2.0.2.bias f4 [64]
0	0x3f78ae44	0.9714091
1	0x3b616fe1	0.003439896
2	0x3f97777e	1.1833341
3	0x3cbfd89c	0.023418717
4	0xbe0294ab	-0.12752025
5	0xbe986738	-0.2976625
6	0x3ba83618	0.0051334016
7	0x3d59d451	0.053180996
8	0x3dcefd01	0.101068504
9	0x3e5201cd	0.205085
10	0x392d1aee	0.00016508598
11	0x3c6ec153	0.014572459
12	0xbde5803b	-0.11206099
13	0xb9e40459	-0.00043490788
14	0x3da95307	0.08267789
15	0xbb65bf1d	-0.003505654
16	0x3e913b88	0.2836573
17	0x38c5e9e5	9.437258e-05
18	0xbe0e65c4	-0.13906008
19	0x3ddf652e	0.1090797
20	0xbd6416ce	-0.05568581
21	0xb72a7a40	-1.0161253e-05
22	0x35a6c5eb	1.2425566e-06
23	0x36d98fc4	6.4838405e-06
24	0x3f8d8ef8	1.1059256
25	0x3c1e258c	0.009652507
26	0x39cb4e12	0.00038777344
27	0xba2cf2a8	-0.0006597438
28	0xb6b1b8df	-5.296533e-06
29	0xbe019b49	-0.12656893
30	0x3c92fa50	0.017941624
31	0x3ba1b065	0.004934358
32	0x3e136572	0.14394167
33	0xb8e8c6ee	-0.000110996756
34	0xbbc6679f	-0.006054833
35	0x3c7a4740	0.015275776
36	0x3f9c48a5	1.2209669
37	0x3c862512	0.016375098
38	0xbcf4711b	-0.02983909
39	0x3a8b8040	0.001064308
40	0xbd1900c3	-0.037354242
41	0xbe513387	-0.20429812
42	0x2aa860c7	2.9909948e-13
43	0x3c5ac344	0.013352219
44	0x3abda841	0.0014469699
45	0x3e5cc3b2	0.21559027
46	0xbe4fa1e7	-0.20276605
47	0xbe17a28c	-0.148081
48	0xb86bdb9a	-5.6232886e-05
49	0x3dc68c56	0.09694736
50	0x3faf0938	1.3674688
51	0x3e78d7d3	0.2430108
52	0xbe821af6	-0.25411195
53	0x3f9febc5	1.2493826
54	0x3f6ff20a	0.937287
55	0x3c98b0cd	0.018638993
56	0x3f410faf	0.75414556
57	0x3bf9eda2	0.007627205
58	0x3c5d4707	0.013505704
59	0x380105ec	3.0761512e-05
60	0x3f566c4f	0.83759016
61	0x3af316b6	0.0018546197
62	0xbdfa6761	-0.12226749
63	0x3e8b6378	0.27224326

v_out.weight f4 [1, 64]
0	0xbec93d5f	-0.39304635
1	0xbac7f42a	-0.0015255262
2	0xbf0951e6	-0.5364059
3	0x3c22f807	0.00994683
4	0xbd1d161c	-0.038351163
5	0xbe522202	-0.20520785
6	0x3a62d8d8	0.0008653528
7	0xbcc0f08a	-0.023552198
8	0x3e930688	0.2871592
9	0xbc07fd9e	-0.008300213
10	0xb8415c7c	-4.610092e-05
11	0xbd677cf2	-0.05651564
12	0x3ccbf15d	0.024895364
13	0xba1f1285	-0.0006068128
14	0x3e843b6d	0.25826588
15	0x392a8e38	0.00016265444
16	0x3e32f2ac	0.17475384
17	0xb930a595	-0.00016846352
18	0x3e1f165c	0.15535873
19	0x3b9b8e74	0.0047472063
20	0xbd2b0dbb	-0.04176114
21	0x35923432	1.0893039e-06
22	0xb4500636	-1.9373769e-07
23	0xb70915fe	-8.170957e-06
24	0xbec91ab3	-0.39278182
25	0xbae85c75	-0.001772775
26	0xbaa02b73	-0.001221998
27	0x37b5e151	2.1681803e-05
28	0x36a355a7	4.86775e-06
29	0x3c28c715	0.010301371
30	0xba608691	-0.0008564974
31	0x3b5bb97f	0.0033527312
32	0x3a14832c	0.0005665298
33	0xb5ec9544	-1.7626812e-06
34	0xbe3615cc	-0.17781752
35	0xb93122cc	-0.00016892998
36	0xbf30ac21	-0.6901265
37	0x3d6ad00e	0.057327323
38	0xbb2bbcb6	-0.002620501
39	0xb9cd213d	-0.0003912541
40	0x3dc72621	0.097240694
41	0x3d63bed4	0.05560191
42	0xa8c4fd48	-2.1870215e-14
43	0x3c796327	0.015221394
44	0x397ab2f7	0.00023908528
45	0x3e514194	0.20435172
46	0xbc087deb	-0.008330802
47	0xbe94b6f5	-0.29045835
48	0x37cb408d	2.4229545e-05
49	0xbc9c23a7	-0.01905997
50	0xc00f3258	-2.2374477
51	0xbda2e7e0	-0.07954383
52	0xbcaa78bf	-0.02080953
53	0xbf1b5899	-0.60682064
54	0xbe78388c	-0.24240321
55	0x3c225b51	0.009909467
56	0xbdde54ca	-0.10856016
57	0x3d42ca51	0.047556225
58	0x3dd7479b	0.105117045
59	0x3827685a	3.9913088e-05
60	0x3f0f997f	0.5609359
61	0x3b264240	0.0025369078
62	0x3ce84dd2	0.02835742
63	0xbd4e5625	-0.050375123
