ami_mujoco/ckpt/mujoco/HumanoidStandup-v2_17x1/victim/actor.pt (torch, 31588 bytes, 11 tensors)

base.feature_norm.weight f4 [32]
1.0092192 0.96785563 1.0132294 1.0062758 1.0001881 1.0540569 1.051567 1.0122095
1.015021 1.0333385 1.0043278 1.0022494 1.0149814 1.0163441 1.018158 1.0012174
1.0039593 0.98928535 0.95502615 0.92470855 0.9899502 0.995084 1.0300097 0.9884353
1.0285857 1.010328 1.0045996 1.0120796 0.99737287 0.9894544 1.0136667 0.9829081
00000000: 182e 813f 63c5 773f 80b1 813f a5cd 803f
00000010: 2a06 803f 56eb 863f bf99 863f 1590 813f
00000020: 35ec 813f 7044 843f d08d 803f b549 803f
00000030: e9ea 813f 9017 823f 0053 823f e427 803f
00000040: bd81 803f ce41 7d3f 987c 743f b3b9 6c3f
00000050: 606d 7d3f d3bd 7e3f 5cd7 833f 190a 7d3f
00000060: b2a8 833f 6e52 813f b896 803f d38b 813f
00000070: d453 7f3f e24c 7d3f d5bf 813f de9f 7b3f

base.feature_norm.bias f4 [32]
-0.010212259 -0.015906917 0.01044403 0.026729533 0.020620499 0.010540405 0.0024065054 0.025496632
0.012569225 0.015074678 0.006970757 -0.0026022461 0.023334935 0.021313999 -0.0042095915 0.010493709
0.0051279245 -0.0039195903 -0.0035303438 0.025143893 0.01276004 0.0020628993 0.01251215 -0.0065468755
-0.0053992346 0.0050282986 0.01540258 0.0180921 -0.008809877 -0.0066111926 0.01430864 -0.021307286
00000000: 5251 27bc 394f 82bc 701d 2b3c e5f7 da3c
00000010: 52ec a83c aab1 2c3c 76b6 1d3b 50de d03c
00000020: 27ef 4d3c c8fb 763c f36a e43b 728a 2abb
00000030: e828 bf3c b29a ae3c 9df0 89bb ceed 2b3c
00000040: 2608 a83b e86f 80bb 575d 67bb 91fa cd3c
00000050: 7d0f 513c b531 073b c3ff 4c3c 2c87 d6bb
00000060: 10ec b0bb 6dc4 a43b 1a5b 7c3c e235 943c
00000070: 4d57 10bc b4a2 d8bb c96e 6a3c 9e8c aebc

base.mlp.fc1.0.weight f4 [64, 32]
-0.18857548 -0.15582791 0.11969397 -0.09300148 -0.021641938 0.035071384 0.35251707 0.026038572
0.06642313 -0.3589125 0.1633005 0.091877885 0.076593846 -0.25602737 -0.15080522 -0.22962175
0.14462095 0.02878717 0.31074485 0.03347156 0.0103227375 0.31915325 -0.016853603 -0.030729348
-0.22271289 -0.12795535 0.04351271 -0.015394808 0.047104836 -0.2783807 0.14856523 0.17449114
0.006658907 -0.1757884 -0.18140268 0.1810124 0.026744394 0.14243025 -0.19108742 -0.19997737
-0.15297149 -0.124782875 -0.13347872 0.025631538 -0.095104754 0.0022403405 0.31938443 0.3398646
-0.31131563 0.1775122 0.007372864 0.062227067 -0.08243405 -0.057897367 -0.28939646 0.1130322
0.16339566 -0.0759829 0.020561604 0.11411596 0.019538352 -0.09509371 0.099326484 -0.0313044
-0.017178973 0.13848089 -0.13836317 -0.19614989 -0.19327436 -0.12913747 -0.05558345 -0.019271817
0.36235842 -0.10691437 -0.17859918 -0.060467098 -0.13682511 0.18730433 0.37828484 -0.015931815
-0.057302337 -0.05537027 0.106960006 -0.15085413 0.21709687 0.13535956 0.16443063 0.09949854
-0.19078414 -0.16792081 -0.089548 -0.35141638 -0.07760488 -0.24078119 0.09594465 -0.12284244
0.08624507 -0.038281262 0.085696876 0.05775479 0.3245084 -0.08743382 -0.46321127 -0.16133556
-0.04874427 0.10124178 0.2410943 -0.036447622 -0.27055126 0.016215459 0.21774805 0.023980338
-0.03075898 -0.059314422 0.38000396 0.21140783 0.375613 -0.09080006 0.043486807 -0.10670301
-0.12344064 -0.13208093 -0.11983355 0.079803586 -0.086337 -0.039408933 0.016756518 -0.21753769
-0.17917399 -0.028034633 -0.07437946 0.113696665 0.15207927 0.21585636 -0.18555978 -0.1375036
0.0056053814 0.13877736 -0.014766956 -0.04613475 -0.15757577 -0.16496655 -0.038565245 -0.010541717
0.09793774 0.12364257 -0.15708451 0.15601696 -0.2908379 0.03636305 0.5420908 -0.11467249
-0.3652329 -0.02451491 -0.17243214 -0.18156269 0.0057914723 0.12655324 -0.22938485 -0.051062904
-0.109816045 -0.27154997 -0.21120736 -0.26321816 -0.1344658 0.11172119 0.16419053 -0.067967705
-0.24815646 0.15449639 0.17700484 0.026247138 -0.14633282 0.06458299 0.06292393 -0.15417655
-0.16366574 -0.20882338 0.097983986 0.23685311 -0.22349674 0.20126985 -0.019094992 -0.11601835
-0.0350026 -0.07589388 -0.017410085 0.1398006 0.33603823 -0.029499238 0.058707952 -0.098426074
0.037164927 0.012649569 -0.17354088 0.039771643 -0.24758653 -0.14523433 -0.11070094 -0.36566332
-0.02855818 -0.08030343 -0.3158758 0.11236415 -0.1890194 0.20516999 0.21433656 0.17520061
-0.15878044 -0.25878632 -0.30544773 -0.015732454 -0.08471448 0.13783859 -0.087866254 0.06406669
-0.009609394 -0.30134633 -0.15922645 0.14625992 -0.05377086 0.16205667 -0.3425995 0.1760722
-0.1789734 0.44984746 -0.14671846 -0.111833856 0.070559 -0.013746047 -0.083269976 -0.33717704
-0.034650706 -0.1906236 -0.15716644 0.17530099 0.044982724 0.24365209 -0.13533363 -0.31509626
-0.23384307 0.027130077 0.11040441 0.16553746 0.12842663 -0.22602184 -0.11564213 -0.011742056
0.14588234 0.013242789 -0.03346243 0.077182494 0.42194968 -0.066524856 0.17471014 0.019923788
00000000: ee19 41be 5a91 1fbe 1d22 f53d 8f77 bebd
00000010: 6f4a b1bc 03a7 0f3d 1e7d b43e d84e d53c
00000020: da08 883d 61c3 b7be 3f38 273e 792a bc3d
00000030: 3cdd 9c3d 0516 83be af6c 1abe f721 6bbe
00000040: 8417 143e 12d3 eb3c f319 9f3e 7919 093d
00000050: b320 293c 0e68 a33e 9110 8abc 1dbc fbbc
00000060: d90e 64be ba06 03be 623a 323d 813a 7cbc
00000070: 00f1 403d ea87 8ebe 7c21 183e cead 323e
00000080: f632 da3b e001 34be a0c1 39be 515b 393e
00000090: 0f17 db3c 3cd9 113e 6cac 43be dec6 4cbe
000000a0: 8fa4 1cbe 2a8e ffbd a5ae 08be 3bf9 d13c
000000b0: 48c6 c2bd add2 123b 5b86 a33e bc02 ae3e
000000c0: c364 9fbe c2c5 353e 1198 f13b cfe1 7e3d
000000d0: 2fd3 a8bd ca25 6dbd c62b 94be 6d7d e73d
000000e0: 3151 273e ec9c 9bbd cf70 a83c a1b5 e93d
000000f0: e50e a03c 7ec0 c2bd af6b cb3d 0b39 00bd
00000100: ebba 8cbc efcd 0d3e 13af 0dbe 84db 48be
00000110: b7e9 45be 9d3c 04be 79ab 63bd eedf 9dbc
00000120: 0b87 b93e ecf5 dabd b4e2 36be 59ac 77bd
00000130: e21b 0cbe b5cc 3f3e 8dae c13e 7083 82bc
00000140: dbb5 6abd f0cb 62bd d90d db3d 8179 1abe
00000150: a44e 5e3e b29b 0a3e 8160 283e e4c5 cb3d
00000160: eb5c 43be 6ff3 2bbe f164 b7bd d9ec b3be
00000170: 4fef 9ebd 588f 76be a17e c43d d194 fbbd
00000180: 41a1 b03d d0cc 1cbd d881 af3d 4990 6c3d
00000190: f725 a63e 8110 b3bd 072a edbe 2635 25be
000001a0: 12a8 47bd da57 cf3d 6de1 763e 1a4a 15bd
000001b0: b285 8abe 48d6 843c 58f9 5e3e 6a72 c43c
000001c0: 42fa fbbc aef3 72bd e18f c23e 4b7b 583e
000001d0: 5950 c03e 62f5 b9bd 391f 323d 1c87 dabd
000001e0: 72ce fcbd 3940 07be 4b6b f5bd 1070 a33d
000001f0: 74d1 b0bd 436b 21bd f744 893c 33c2 5ebe
00000200: 6379 37be e3a8 e5bc 4254 98bd ccd9 e83d
00000210: abba 1b3e 7309 5d3e 6203 3ebe becd 0cbe
00000220: 59ad b73b a71b 0e3e 1af1 71bc cbf7 3cbd
00000230: 8b5b 21be feec 28be 97f6 1dbd 2ab7 2cbc
00000240: 9593 c83d 5138 fd3d c3da 20be e9c2 1f3e
00000250: b5e8 94be 6cf1 143d 76c6 0a3f 69d9 eabd
00000260: cfff babe 7ed3 c8bc 0d92 30be 92eb 39be
00000270: 64c6 bd3b 2c97 013e dde3 6abe 5627 51bd
00000280: 3ce7 e0bd 9908 8bbe be46 58be 88c4 86be
00000290: 67b1 09be 14ce e43d 9021 283e a732 8bbd
000002a0: ba1c 7ebe 4d34 1e3e c240 353e 3d04 d73c
000002b0: 45d8 15be 1644 843d 43de 803d 75e0 1dbe
000002c0: fe97 27be ccd5 55be d4ab c83d 9f89 723e
000002d0: 54dc 64be af19 4e3e 1a6d 9cbc 079b edbd
000002e0: e35e 0fbd 406e 9bbd 989f 8ebc e327 0f3e
000002f0: 340d ac3e 63a8 f1bc c077 703d 9c93 c9bd
00000300: 403a 183d 2340 4f3c b3b4 31be 97e7 223d
00000310: 5387 7dbe 4fb8 14be 2db7 e2bd 3938 bbbe
00000320: d8f2 e9bc 2076 a4bd 79ba a1be 2d1f e63d
00000330: 4d8e 41be 1518 523e 0b7b 5b3e ca67 333e
00000340: 5797 22be a47f 84be a563 9cbe 59e1 80bc
00000350: c97e adbd 8f25 0d3e 39f3 b3bd 6635 833d
00000360: b870 1dbc 114a 9abe 420c 23be 29c5 153e
00000370: d53e 5cbd 2ff2 253e 3469 afbe 454c 343e
00000380: ce44 37be 6852 e63e 5d3d 16be 2609 e5bd
00000390: 3d81 903d 1a37 61bc 7389 aabd 78a2 acbe
000003a0: e6ed 0dbd d532 43be 3df0 20be 1a82 333e
000003b0: ce3f 383d ef7f 793e e694 0abe 4c54 a1be
000003c0: 8f74 6fbe e53f de3c b51b e23d a782 293e
000003d0: 4582 033e 4572 67be c8d5 ecbd c161 40bc
000003e0: 2e62 153e 48f8 583c e70f 09bd db11 9e3d
000003f0: ca09 d83e 2f3e 88bd 37e7 323e 3637 a33c

base.mlp.fc1.0.bias f4 [64]
0.037806794 -0.0048541077 -0.008696339 -0.0023695058 -0.00023648085 -0.0084008295 -0.013529505 -0.03331882
-0.0028669783 0.023319982 -0.01136791 0.010677395 0.013128053 2.5564439e-05 0.0074385325 -0.0012212177
-0.0020455304 -0.003431532 -0.0027826692 -0.0030160192 0.00075229444 -0.021293486 0.006998913 -0.00787432
-0.01643817 0.0051146336 0.021329599 0.008765689 -0.004039199 -0.004042283 -0.0038371484 -0.02269078
0.01845107 0.00051370205 0.004425246 -0.002964896 -0.016876547 -0.0049146144 0.009934236 0.012686963
-0.010164798 0.029256914 -0.0016593254 -0.011786307 0.013686491 -0.015600598 0.012008155 -0.0025963779
-0.015052656 0.027637172 -0.0127117 -0.008141438 0.029506324 0.0045190654 -0.009119621 0.0013134965
0.027515983 -0.023516608 0.015099625 -0.02939601 -0.0071550994 -0.0061548958 -0.005172302 -0.024344226
00000000: 4cdb 1a3d 350f 9fbb 177b 0ebc b649 1bbb
00000010: d8f7 77b9 a2a3 09bc dbaa 5dbc 5179 08bd
00000020: eae3 3bbb 8c09 bf3c 7840 3abc 3ef0 2e3c
00000030: 0c17 573c 3773 d637 efbe f33b 4411 a0ba
00000040: 4e0e 06bb 8ee3 60bb 715d 36bb 68a8 45bb
00000050: a035 453a ad6f aebc 2357 e53b 4b03 01bc
00000060: 57a9 86bc a898 a73b 69bb ae3c f79d 0f3c
00000070: 425b 84bb 2175 84bb ab78 7bbb 04e2 b9bc
00000080: b326 973c f6a9 063a a701 913b b34e 42bb
00000090: af40 8abc c60a a1bb 35c3 223c fbdc 4f3c
000000a0: 418a 26bc 32ac ef3c b97d d9ba 5b1b 41bc
000000b0: 4e3d 603c a799 7fbc dabd 443c fe27 2abb
000000c0: 6a9f 76bc 5a67 e23c bc44 50bc aa63 05bc
000000d0: 3fb7 f13c ab14 943b 766a 15bc a129 ac3a
000000e0: 3369 e13c e7a5 c0bc 6b64 773c e7cf f0bc
000000f0: 5375 eabb 02af c9bb 6a7c a9bb 8b6d c7bc

base.mlp.fc1.2.weight f4 [64]
0.99507844 1.0166347 0.97102106 0.98368484 0.993041 0.98221904 0.9836069 0.99312705
1.0141467 0.9857885 0.9937154 1.0091231 1.0290899 0.9958953 0.9924086 1.0039182
0.99158114 0.9968584 0.9800121 0.99517095 1.0134417 0.9839162 0.9966911 0.99683976
1.0034245 1.0279146 0.98414016 0.977329 1.0023093 0.99565923 0.9943693 0.9743467
1.0205345 0.98724395 0.9984175 0.9955892 0.98728585 0.9854414 1.0083531 1.0228962
0.9852534 1.0084276 0.99557567 0.9917615 1.0186305 0.9835988 1.0325853 0.9834875
0.9898036 1.0170062 0.9795136 0.98814666 0.9975765 0.9924753 0.99663615 0.99898297
1.0169079 1.0021641 1.0425473 1.0018493 0.99574196 1.0053842 1.0088614 1.0051141
00000000: 76bd 7e3f 1621 823f d694 783f c5d2 7b3f
00000010: ef37 7e3f b572 7b3f a9cd 7b3f 933d 7e3f
00000020: 8fcf 813f a35c 7c3f 2264 7e3f f22a 813f
00000030: 38b9 833f fff2 7e3f 7d0e 7e3f 6480 803f
00000040: 43d8 7d3f 1d32 7f3f 13e2 7a3f 86c3 7e3f
00000050: 75b8 813f efe1 7b3f 2627 7f3f e430 7f3f
00000060: 3770 803f b592 833f 9cf0 7b3f 3c32 7a3f
00000070: ac4b 803f 86e3 7e3f fd8e 7e3f c96e 793f
00000080: e0a0 823f 05bc 7c3f 4a98 7f3f efde 7e3f
00000090: c4be 7c3f e345 7c3f b711 813f 43ee 823f
000000a0: 9139 7c3f 2814 813f 0cde 7e3f 15e4 7d3f
000000b0: 7c62 823f 22cd 7b3f c12b 843f d6c5 7b3f
000000c0: c563 7d3f 422d 823f 67c1 7a3f 2ef7 7c3f
000000d0: 2c61 7f3f dc12 7e3f 8c23 7f3f 59bd 7f3f
000000e0: 0a2a 823f ea46 803f 3172 853f 993c 803f
000000f0: f2e8 7e3f 6eb0 803f 5f22 813f 94a7 803f

base.mlp.fc1.2.bias f4 [64]
0.038848486 -0.015689414 0.007825411 0.020350566 0.012808741 0.004457223 -0.0067101587 -0.013197643
-0.008868911 0.028654307 -0.011253733 0.0068425965 0.012344464 -0.001635118 0.001287788 -0.008317313
0.00086051156 0.0010314197 0.017007591 -0.001247048 -0.0068106176 -0.013705434 0.0031115816 -0.008661956
-0.022170302 0.0043927664 0.027266447 0.02285373 -0.0024370225 -0.0048813936 -0.0045593427 -0.01907246
0.0050726286 0.015639035 -0.0028206562 -0.0053037954 -0.020018337 0.0061693825 0.001929407 0.013935583
-0.008175366 0.0043612705 0.0013107827 -0.016230976 0.010961337 -0.010163478 0.006429047 0.008891602
-0.0114337215 0.0112562785 -0.0014261499 -0.0038964564 0.016761772 0.006525536 -0.0022616747 0.004801949
0.016681612 -0.026510755 0.005165972 -0.033580754 0.00405863 -0.019759092 -0.014020135 -0.01757736
00000000: 971f 1f3d 1687 80bc 2736 003c 3bb6 a63c
00000010: c1db 513c e60d 923b e4e0 dbbb ed3a 58bc
00000020: e94e 11bc 70bc ea3c 9461 38bc dc37 e03b
00000030: 6f40 4a3c 7551 d6ba ffca a83a 5745 08bc
00000040: f493 613a b430 873a 8153 8b3c fd73 a3ba
00000050: 9a2b dfbb c28c 60bc adeb 4b3b e0ea 0dbc
00000060: 7e9e b5bc 32f1 8f3b e25d df3c bf37 bb3c
00000070: 74b6 1fbb 19f4 9fbb 8a66 95bb d93d 9cbc
00000080: 4b38 a63b 6f1d 803c c2da 38bb 76cb adbb
00000090: 7ffd a3bc 8828 ca3b 28e4 fc3a 1252 643c
000000a0: f8f1 05bc fde8 8e3b 92ce ab3a d3f6 84bc
000000b0: 2e97 333c b784 26bc c1aa d23b 15ae 113c
000000c0: 8154 3bbc 416c 383c a6ed baba b15b 7fbb
000000d0: fc4f 893c 2ad4 d53b 9b38 14bb ab59 9d3b
000000e0: e0a7 883c 152d d9bc 5047 a93b f98b 09bd
000000f0: 42fe 843b d2dd a1bc b5b4 65bc 65fe 8fbc

base.mlp.fc2.0.0.weight f4 [64, 64]
-0.06348911 -0.15149634 -0.09237204 0.11004303 0.049486313 -0.27684358 0.01995069 0.025480311
-0.43727645 0.09277417 -0.22739677 -0.10147161 -0.0781981 -0.07619012 -0.19037466 0.10700528
-0.10388851 0.077175446 -0.06281265 -0.124609046 -0.028457932 0.31619874 -0.19659548 0.1666263
0.17095338 -0.08503823 -0.12403484 -0.1853446 -0.1894661 -0.07825164 -0.22146145 -0.09467728
-0.10640172 -0.21016608 0.14839587 -0.24778667 0.28932032 0.041072223 -0.032884467 0.24450392
-0.22288781 -0.21810263 -0.09656558 -0.21794371 0.009679822 0.05339452 0.066305906 -0.26004535
-0.004726746 0.5641588 -0.027738828 0.17462963 0.025273351 0.036688115 0.12275604 0.115620434
0.16793671 -0.0768926 0.040855832 -0.18810144 0.3398582 0.2553927 -0.14096488 -0.05067432
0.18627124 0.19897337 0.012014455 -0.19686939 0.11345795 -0.15821405 -0.11657303 -0.03948148
0.3215701 0.04183359 -0.12528692 0.05848409 -0.22106704 0.19587217 0.045727443 -0.29092616
0.098342 0.041692376 0.0155217415 -0.11543901 0.017463986 0.05187436 -0.08037229 0.15308797
0.000264629 0.16526432 0.16223072 0.08235958 -0.25953016 0.08086575 -0.2935383 0.19758837
-0.098029464 -0.07174009 0.10378436 0.042068444 0.12492193 -0.23569301 -0.016556168 0.11209782
0.37431964 -0.37081134 -0.15890229 0.1646836 0.22823404 -0.40132684 -0.04371504 -0.035736717
-0.008653687 -0.07699111 0.25655982 0.053098492 -0.032407027 0.21154341 0.13007244 0.32777312
-0.34299666 0.09072624 -0.39545888 -0.041608278 0.13628593 0.05413514 0.16274413 0.025135675
-0.29830086 0.40406534 -0.077439845 -0.34947187 0.04080794 -0.012054279 0.12273446 -0.11334263
-0.05612295 -0.20656918 0.042029377 -0.025368974 -0.12051973 0.008769902 -0.13631499 -0.022587802
-0.019352533 -0.1768479 -0.22757758 -0.06819555 -0.0037454918 -0.053869598 -0.19724803 -0.038342863
-0.11685555 0.03932297 -0.46309417 0.36944968 0.051850546 -0.26336914 -0.40884742 0.051763587
-0.002414604 0.10105297 0.23303935 0.04817428 -0.24644782 0.3589297 0.06598679 0.053852882
0.14489183 0.25130823 -0.073594734 0.05174801 0.010324178 0.10239377 -0.07426013 -0.047480512
-0.25656867 -0.050848436 0.09705955 0.015523777 -0.031670712 -0.05032971 -0.046400104 -0.053984426
0.069730155 0.019699935 -0.025533674 0.0038856044 0.15870662 0.032667063 -0.23783408 0.18583155
-0.08698089 -0.015701016 -0.19151013 0.107651204 0.18278351 -0.2620229 0.43963116 0.03952118
-0.010498443 0.16686918 -0.09555256 -0.34767753 -0.28822985 -0.12512955 0.12216653 0.18742988
0.023716884 0.1188008 0.01334129 -0.25552827 0.07103059 -0.062345818 0.30377236 0.018577905
-0.21536054 -0.15048796 -0.23534669 -0.113857925 -0.13466729 -0.08651911 0.083854415 -0.39084008
0.34422147 -0.10066518 0.08851646 -0.018627282 -0.1586194 -0.116869465 0.08304652 0.004589384
0.37673897 0.001764259 0.00859572 0.12111103 0.100745566 -0.03642075 -0.13207705 0.01278735
-0.05139637 -0.115345925 0.13478954 0.013915186 0.08012387 0.007587914 -0.2768224 0.118997015
-0.1560575 -0.25180143 0.18447961 0.038265526 -0.10825903 0.166853 0.27272782 -0.12729949
00000000: 9406 82bd db21 1bbe 8d2d bdbd 3d5e e13d
00000010: 29b2 4a3d 71be 8dbe a16f a33c 16bc d03c
00000020: b3e2 dfbe 6200 be3d b3da 68be 59d0 cfbd
00000030: 5326 a0bd 9109 9cbd 93f1 42be 9625 db3d
00000040: 80c3 d4bd 290e 9e3d eba3 80bd 0733 ffbd
00000050: 9c20 e9bc cde4 a13e 5350 49be 16a0 2a3e
00000060: 670e 2f3e 8628 aebd fa05 febd faca 3dbe
00000070: 6703 42be 6542 a0bd cac6 62be 29e6 c1bd
00000080: 25e9 d9bd c735 57be 16f5 173e cabb 7dbe
00000090: cb21 943e 593b 283d ddb1 06bd 3c5f 7a3e
000000a0: b43c 64be 4c56 5fbe 2dc4 c5bd a32c 5fbe
000000b0: 1e98 1e3c 36b4 5a3d 64cb 873d aa24 85be
000000c0: d2e2 9abb b66c 103f 8a3c e3bc 1cd2 323e
000000d0: 0f0a cf3c 4746 163d 8567 fb3d 68ca ec3d
000000e0: 9af7 2b3e de79 9dbd 7258 273d aa9d 40be
000000f0: e501 ae3e d5c2 823e 1959 10be e08f 4fbd
00000100: e3bd 3e3e adbf 4b3e 47d8 443c 2198 49be
00000110: a45c e83d dd02 22be d7bd eebd 55b7 21bd
00000120: d6a4 a43e b359 2b3d 374b 00be 038d 6f3d
00000130: 665f 62be b792 483e b34c 3b3d 46f4 94be
00000140: 8867 c93d a0c5 2a3d e74e 7e3c 4a6b ecbd
00000150: a210 8f3c 357a 543d 3a9a a4bd 18c3 1c3e
00000160: e7bd 8a39 0d3b 293e cf1f 263e 24ac a83d
00000170: 23e1 84be f19c a53d a74a 96be 9b54 4a3e
00000180: acc3 c8bd 78ec 92bd e58c d43d f64f 2c3d
00000190: 12d7 ff3d 8259 71be cda0 87bc 8b93 e53d
000001a0: d3a6 bf3e fcda bdbe 48b7 22be d1a2 283e
000001b0: 2fb6 693e b67a cdbe 8b0e 33bd aa60 12bd
000001c0: 32c8 0dbc 84ad 9dbd cf5b 833e ce7d 593d
000001d0: 3bbd 04bd d69e 583e b631 053e e1d1 a73e
000001e0: 429d afbe aece b93d 9679 cabe 716d 2abd
000001f0: 8a8e 0b3e cfbc 5d3d 66a6 263e 55e9 cd3c
00000200: e4ba 98be a7e1 ce3e c898 9ebd faed b2be
00000210: 3a26 273d 507f 45bc 345c fb3d 2e20 e8bd
00000220: 2ee1 65bd df86 53be ff26 2c3d 98d2 cfbc
00000230: 0cd3 f6bd a3af 0f3c 2896 0bbe 0e0a b9bc
00000240: 3489 9ebc 9e17 35be 190a 69be 1caa 8bbd
00000250: ed76 75bb 5ea6 5cbd 63fb 49be 680d 1dbd
00000260: f651 efbd 1f11 213d ae1a edbe 8228 bd3e
00000270: 3d61 543d 52d8 86be 7354 d1be 0e06 543d
00000280: 553e 1ebb dcf4 ce3d dea1 6e3e 6552 453d
00000290: d15c 7cbe a2c5 b73e 1524 873d d794 5c3d
000002a0: 865e 143e 79ab 803e d6b8 96bd b9f5 533d
000002b0: be26 293c d3b3 d13d b215 98bd ed7a 42bd
000002c0: f85c 83be 7346 50bd 28c7 c63d 7157 7e3c
000002d0: 26b9 01bd 8726 4ebd 090e 3ebd c61e 5dbd
000002e0: afce 8e3d c261 a13c ff2b d1bc a0a5 7e3b
000002f0: fd83 223e e6cd 053d c78a 73be a04a 3e3e
00000300: 0923 b2bd 6b9f 80bc 3b1b 44be 3c78 dc3d
00000310: 9a2b 3b3e de27 86be 5617 e13e f6e0 213d
00000320: a901 2cbc c1df 2a3e 10b1 c3bd ca02 b2be
00000330: dd92 93be f621 00be 7232 fa3d 9eed 3f3e
00000340: e949 c23c d54d f33d 6d95 5a3c 9ad4 82be
00000350: 7c78 913d 545e 7fbd 0d88 9b3e b130 983c
00000360: 7987 5cbe 8419 1abe b9fe 70be 582e e9bd
00000370: 39e6 09be ee30 b1bd ddbb ab3d 311c c8be
00000380: cc3d b03e 8c29 cebd 1e48 b53d 3e98 98bc
00000390: 206d 22be 4259 efbd 4b14 aa3d 8b62 963b
000003a0: eee3 c03e b53e e73a 10d5 0c3c 0f09 f83d
000003b0: b153 ce3d ed2d 15bd 353f 07be 0982 513c
000003c0: 0085 52bd 7c3a ecbd 4506 0a3e 85fc 633c
000003d0: fc17 a43d 09a4 f83b aabb 8dbe b5b4 f33d
000003e0: 8acd 1fbe 1eec 80be 39e8 3c3e 50bc 1c3d
000003f0: e9b6 ddbd 83db 2a3e fba2 8b3e cc5a 02be

base.mlp.fc2.0.0.bias f4 [64]
0.0069504483 -0.01381265 -0.04440304 -0.012587364 -0.02543028 -0.024210498 -0.020190118 0.0135609675
-0.003946486 -0.0030951358 -0.0027309416 0.002063189 -0.018075563 -0.031564888 0.001691311 -0.0029842523
0.01833467 -0.0017554356 0.009067931 0.0068589975 -0.017581288 -0.025773235 0.0050805258 -0.0012765208
0.026860764 0.004890949 -0.01559361 0.0044069756 -0.019787295 -0.016150594 -0.0008415889 0.02190555
-0.038495496 -0.0043960847 0.0072782016 -0.01852521 -0.02633384 -0.014337924 0.009500416 -0.015385064
0.016042875 -0.0057247486 0.0016853862 -0.015577391 0.0038958243 -0.021097658 -0.0073524723 0.0028437106
-0.046322882 0.012135262 -0.009533808 -0.018253684 0.0005932552 -0.006590059 -0.03378955 -0.0067468155
-0.01446867 0.004345429 -0.011954384 -0.0035626076 0.011894815 0.005456843 0.007387227 0.005094547
00000000: 96c0 e33b 744e 62bc f6df 35bd 3b3b 4ebc
00000010: 2a53 d0bc 1855 c6bc bf65 a5bc d22e 5e3c
00000020: 8651 81bb c3d7 4abb 99f9 32bb 9136 073b
00000030: 3413 94bc 2f4a 01bd fbae dd3a 7293 43bb
00000040: 9732 963c a516 e6ba a991 143c 71c1 e03b
00000050: a206 90bc 6422 d3bc 8a7a a63b ee50 a7ba
00000060: 1b0b dc3c 4144 a03b 577c 7fbc 6468 903b
00000070: f718 a2bc 404e 84bc 139e 5cba 4573 b33c
00000080: 74ad 1dbd 080d 90bb fb7d ee3b 2ec2 97bc
00000090: 11ba d7bc 9de9 6abc a2a7 1b3c a311 7cbc
000000a0: 596c 833c ac96 bbbb 2de8 dc3a 5038 7fbc
000000b0: 1651 7f3b ffd4 acbc 02ed f0bb 8c5d 3a3b
000000c0: 10bd 3dbd fad2 463c b033 1cbc c088 95bc
000000d0: af84 1b3a 6cf1 d7bb e966 0abd 6414 ddbb
000000e0: 000e 6dbc 1a64 8e3b 52dc 43bc a37a 69bb
000000f0: 78e2 423c 51cf b23b 8d10 f23b 28f0 a63b

base.mlp.fc2.0.2.weight f4 [64]
1.0316361 1.0388587 1.0184128 1.0088023 1.0129547 1.0061368 1.0117714 1.0291357
1.0414947 1.0045506 1.0275941 1.0145981 1.0288993 1.0164928 1.0123723 1.0223011
1.0184644 1.0393001 1.0079076 1.0224684 1.0123961 1.0178307 1.0304543 1.0102556
1.0298245 1.044438 1.0144569 1.0135994 1.020258 1.0250847 1.0200708 1.0583565
1.0079722 1.0421534 1.0072508 1.0067009 1.0118339 1.0122125 1.043396 1.0134318
1.0474997 1.0190334 1.0142497 1.0176574 1.0278044 1.018615 1.0171565 1.00795
1.0077091 1.0437413 1.0084895 1.0280281 1.0150448 1.0173348 1.0128213 1.0257398
1.016239 1.0337989 1.0077819 1.0372502 1.035363 1.0500262 1.0454236 1.0169178
00000000: a70c 843f 52f9 843f 5a5b 823f 6f20 813f
00000010: 80a8 813f 17c9 803f ba81 813f b8ba 833f
00000020: b34f 853f 1d95 803f 3488 833f 5ade 813f
00000030: f9b2 833f 701c 823f 6a95 813f c3da 823f
00000040: 0b5d 823f c907 853f 1e03 813f 3fe0 823f
00000050: 3296 813f 4748 823f ede5 833f 0e50 813f
00000060: 4ad1 833f 25b0 853f b9d9 813f a0bd 813f
00000070: d097 823f fa35 833f ae91 823f 3a78 873f
00000080: 3c05 813f 4865 853f 98ed 803f 93db 803f
00000090: c683 813f 2e90 813f 008e 853f 22b8 813f
000000a0: 7814 863f b06f 823f efd2 813f 9942 823f
000000b0: 188f 833f fa61 823f 2f32 823f 8104 813f
000000c0: 9dfc 803f 5199 853f 2f16 813f 6d96 833f
000000d0: fdec 813f 0738 823f 21a4 813f 714b 833f
000000e0: 1f14 823f 8653 843f fffe 803f 9dc4 843f
000000f0: c686 843f 4267 863f 71d0 853f 5d2a 823f

base.mlp.fc2.0.2.bias f4 [64]
-0.012743275 0.012582864 0.012362836 0.00850653 -0.011332117 -0.001347894 -0.013961477 -0.012869999
0.012627287 0.011929292 -0.013267327 0.01211887 -0.0008287702 0.012351503 0.013583024 -0.013300966
0.012509909 -0.012976703 0.012176648 -0.011741626 -0.0073713553 0.013257629 0.01250438 -0.014271458
0.011996527 -0.0131381005 -0.011523898 -0.011661037 -0.011682534 0.012616157 -0.013422607 0.012452215
0.004420197 -0.0061757877 -0.001679711 0.014038355 0.010961294 0.0051117227 0.012285634 -0.013338433
0.012402819 -0.013096098 -0.013874998 0.007665948 -0.012175409 -0.012506101 -0.013128636 0.001879182
0.016172482 -0.012673472 -0.005518854 0.0022021614 -0.012710135 -0.01172263 -0.008925638 0.01254639
0.008588228 0.012376661 -0.01334093 -0.012821072 -0.013025996 -0.013103427 0.012659035 -0.0130820805
00000000: 2bc9 50bc 5b28 4e3c 7e8d 4a3c f95e 0b3c
00000010: 58aa 39bc d1ab b0ba aebe 64bc b0dc 52bc
00000020: aee2 4e3c 1473 433c 345f 59bc 3a8e 463c
00000030: d441 59ba f55d 4a3c 558b 5e3c 4bec 59bc
00000040: 5df6 4c3c 3d9c 54bc 9080 473c f35f 40bc
00000050: 698b f1bb 8736 593c 2cdf 4c3c d5d2 69bc
00000060: 158d 443c 3041 57bc bbce 3cbc ef0d 3fbc
00000070: 1968 3fbc ffb3 4e3c 7fea 5bbc 6004 4c3c
00000080: 4dd7 903b 435e cabb c029 dcba 2101 663c
00000090: 0097 333c 3d80 a73b af49 493c 7189 5abc
000000a0: 3135 4b3c 0491 56bc f653 63bc a232 fb3b
000000b0: 5e7b 47bc 64e6 4cbc 7e19 57bc e24e f63a
000000c0: 277c 843c 65a4 4fbc 81d7 b4bb 2352 103b
000000d0: 2c3e 50bc 4610 40bc d73c 12bc 608f 4d3c
000000e0: a4b5 0c3c 7bc7 4a3c eb93 5abc 790f 52bc
000000f0: fd6a 55bc c2af 56bc d767 4f3c 3956 56bc

act.action_out.fc_mean.weight f4 [1, 64]
0.032004505 -0.03828121 -0.018143004 -0.0043521062 0.009714072 0.0020284685 0.010715725 0.027818315
-0.042519942 -0.00015520483 0.02610933 -0.013809038 -0.024268715 -0.015054253 0.00921588 0.022152834
-0.018563466 0.038553838 -0.0038165625 0.022691414 0.009484851 -0.016762652 -0.032515384 0.008207915
-0.03254479 0.043175988 0.011586724 0.012850065 0.021214772 -0.024210889 0.019656068 -0.057066355
0.0040973006 0.04066438 0.0036445225 -0.0057190214 0.0027755934 -0.010179785 -0.044396915 0.010026611
-0.046513777 0.017921789 0.013363715 -0.015867615 0.025946407 0.017913405 0.015450844 -0.0055897394
-0.0030660932 0.04337825 -0.0028863824 0.026033776 0.013136231 0.015519842 0.0077630375 -0.025537694
0.00975667 -0.033041082 0.00529836 0.036649153 0.03546443 0.049430106 -0.043893486 0.015353023
00000000: 2817 033d c2cc 1cbd a3a0 94bc 1d9c 8ebb
00000010: c527 1f3c 0ef0 043b 0291 2f3c 3ce3 e33c
00000020: 6429 2ebd 7bbe 22b9 3ce3 d53c 4e3f 62bc
00000030: 2fcf c6bc 1da6 76bc 34fe 163c dc79 b53c
00000040: 6912 98bc a1ea 1d3d 4b1f 7abb 58e3 b93c
00000050: 5966 1b3c d451 89bc da2e 05bd 7e7a 063c
00000060: b04d 05bd 4ed9 303d 3ed6 3d3c 1489 523c
00000070: 9aca ad3c ea55 c6bc c305 a13c 69be 69bd
00000080: a642 863b b18f 263d f1d8 6e3b a166 bbbb
00000090: bbe6 353b 1dc9 26bc 8ad9 35bd a846 243c
000000a0: 3b85 3ebd b7d0 923c 7cf3 5a3c cdfc 81bc
000000b0: 8f8d d43c 22bf 923c 8925 7d3c 222a b7bb
000000c0: 82f0 48bb 64ad 313d 7629 3dbb c944 d53c
000000d0: 5939 573c ef46 7e3c 1461 fe3b 6d34 d1bc
000000e0: 71da 1f3c 1656 07bd dd9d ad3b 6c1d 163d
000000f0: 2643 113d 3977 4a3d a8c9 33bd 3f8b 7b3c
