ami_mujoco/ckpt/mujoco/HumanoidStandup-v2_17x1/victim/critic.pt (torch, 121947 bytes, 11 tensors)

base.feature_norm.weight f4 [376]
00000000: b143 433e 34be 4640 125a c740 a234 7140
00000010: 51e0 0f41 7743 3a41 886b cb40 2628 3d41
00000020: 62f9 bd40 dd3f e540 e789 2f40 12e7 743f
00000030: 1675 b340 a85a d640 9b61 6740 cb31 1340
00000040: bad8 7940 4744 d640 f556 6340 65bf b741
00000050: eb50 2f41 f7ea 0541 002a a440 685b 8840
00000060: 6fcf 9a40 d18e d93f 7845 0840 8a29 0ec0
00000070: e087 903e 6d4c 82bc ec88 8c3f c512 b23f
00000080: 9908 99bc 67d8 b1bf 3971 51bf 7af3 69be
00000090: e484 ed3e 4299 20be 2499 ef3e a773 af3f
000000a0: 07eb 9a3f f4be 82bf 8032 613f 0e86 cfbe
000000b0: 41bf 9abf 3ea5 3e3e 58b2 1b3d 3e1a 12bc
000000c0: 62b7 7ebe 90d6 563e c0a4 e73d 2c34 6f3e
000000d0: c6f3 29be e524 603e da5a c03d 6ddb 9840
000000e0: b7de 3a40 27d1 8840 1a75 df3f d3d4 70c0
000000f0: 4dad 6dc0 5791 4a41 a93c 0241 bc10 8740
00000100: ce9f a53f 3b5f 3b3e 39e9 4e3d 1e7c 433c
00000110: ada9 9a3d 7275 3c3d 3c9e ccbd 35ea 4a3f
00000120: f33a 933f 1170 e53e 2313 bc3f 9502 2cbe
00000130: fb6d 95bc d0c7 163e e311 4ebe 391d 56bc
00000140: 5a50 d3bd 49f7 9541 7655 3441 c732 0241
00000150: 7c48 ce3f 6790 5abd fd45 883d 0f0b 3ebd
00000160: 36b0 7f3d 1d86 6cbd 5267 db3d 184c 0641
00000170: e859 0741 f4d5 ed3f 39d9 bf3f f6d9 ba40
00000180: 4b5e 9240 61ce 273f 9758 a240 442f 523e
00000190: 69ac f7bc 8afa c440 07c0 8741 9d03 9540
000001a0: 2434 c53f 02e3 db40 d1b1 b440 31aa b53f
000001b0: e80e cd40 ac30 26bf 55cc 30be 8a1c b240
000001c0: fc8b 8f41 04d9 9140 fb6b c73f ae2c 523e
000001d0: 7676 3e3e bf77 103e 0a9f 39be fc15 803e
000001e0: 89e6 58be a075 ab40 b492 a840 626d c940
000001f0: a216 c43f c44c 0f3f 5944 193f bf0e 263e
00000200: 5040 253e 50fc c23d de28 0dbe 1661 5440
00000210: 702a ab40 40fb ca40 8fff 9a3f d4d1 963f
00000220: b764 ee3e 2059 a33c 02ff 073e 6493 7abc
00000230: 8030 a43b 64bb 0241 ad02 8a40 067c 2e3f
00000240: 18b9 d33f 079d b1bd fbe4 de3f 220b 563f
00000250: 069a cfbd ef73 82be db54 183e 6380 1c41
00000260: c111 d940 1547 1fbf e5b2 903f f243 c640
00000270: a94b d040 e88f 9e40 2006 a840 a3a7 793e
00000280: 3406 0abe e29f 4941 3922 4a41 28be 833e
00000290: 3431 8b3f 1f9a 973e ef7b 0b3e e370 013e
000002a0: 8363 e33e 52f7 953d 7910 52be 7e84 df40
000002b0: 9b27 8340 172a f93c 1fc6 d83f 08ae e240
000002c0: 20cb e740 3c13 5a40 7956 8f40 3815 5e3e
000002d0: d818 013d f789 8241 d67d cf40 7897 583d
000002e0: 1a8c af3f 1bc3 e73c 6db7 13be 909d 8fbd
000002f0: 17f8 9fbd 2072 52be d0e4 923d 4de3 acbf
00000300: cd34 39bf d82f e73f d062 8abf 1877 34be
00000310: 739b 52bf cdd1 df3f d96a cfbf dfb3 0d3f
00000320: 3dfa f43f 9a0f 0f3f 7114 8b3f c1f0 ec3f
00000330: b95b 75bf f45f 833f 19c6 f53f 7124 1c3f
00000340: 3d71 e0bc e08f ad3e 99d1 71bf fde9 3840
00000350: b776 803f 8080 d83d e60a d83f 5895 14be
00000360: a950 b1be 9eeb 18bf 9b22 79bf 1503 08be
00000370: 5f07 2abf c8d9 e6be 2fda 6e3f 77a1 d93f
00000380: 7857 d73f 98ce ae3f 9e94 98be ca0a 44bf
00000390: f452 6e3f 0d4a db3f 47ad f03f 1aa1 e73d
000003a0: 68af c53e 7330 753e 67fa 943f 3d7a 7a3f
000003b0: 491f dabf abac 45bf 0ca7 8b3f 41d1 0bbf
000003c0: 7aed 02bf 76fe 1a3f 2d9e a73f 7a9e 793e
000003d0: 3144 543f ba69 753f a3dd 66bf 6f2e d4be
000003e0: ebac 1f40 9fd6 4cc0 53f1 14c0 7b77 c33f
000003f0: 577b 4d3e 5d11 0740 1cd9 793f 01b2 21c0
0.19068791 3.105359 6.229745 3.7688375 8.992265 11.641471 6.3568764 11.822302
5.936692 7.164046 2.742792 0.95665085 5.6080427 6.6985664 3.6153324 2.2999141
3.903853 6.6958346 3.5521824 22.968454 10.957255 8.369864 5.130127 4.261158
4.8378215 1.6996709 2.12924 -2.2212853 0.28228664 -0.015905583 1.0979285 1.3911978
-0.018680857 -1.3894166 -0.8181339 -0.22846785 0.4639045 -0.15683463 0.46796525 1.3707169
1.2102975 -1.0214524 0.8796768 -0.40531963 -1.2089616 0.18617722 0.03801188 -0.008917389
-0.24874642 0.20980287 0.113107204 0.23359746 -0.16596898 0.21889074 0.093923286 4.7767854
2.9198434 4.2755313 1.7457612 -3.7629898 -3.7137024 12.660483 8.13981 4.220793
1.2939394 0.18298046 0.050515387 0.011931447 0.07551894 0.046010442 -0.09991118 0.7926362
1.1502365 0.44812062 1.469334 -0.1679786 -0.01824092 0.1472466 -0.2012401 -0.013068491
-0.1031806 18.745745 11.2708645 8.137397 1.611587 -0.05336037 0.06653974 -0.046397265
0.062423907 -0.057745088 0.10713066 8.393578 8.45945 1.8580918 1.4988166 5.8391066
4.5740104 0.65549284 5.073314 0.20525843 -0.030233579 6.1555834 16.968763 4.656691
1.5406537 6.871461 5.646706 1.4192563 6.4080696 -0.6491802 -0.17265446 5.565984
17.943352 4.557741 1.5579828 0.20524856 0.18599877 0.1410818 -0.18127075 0.25016773
-0.21181692 5.3581085 5.267908 6.2946024 1.5319407 0.5597651 0.59869915 0.16216563
0.16137815 0.09520781 -0.13785121 3.3184257 5.3489304 6.34317 1.210924 1.1782784
0.46561214 0.019939959 0.13280872 -0.01529393 0.0050106645 8.17075 4.3128266 0.68157995
1.6540861 -0.08672529 1.7413629 0.8361074 -0.101367995 -0.25479075 0.1487612 9.781344
6.783417 -0.6221784 1.1304594 6.195794 6.509236 4.9550667 5.2507477 0.24380355
-0.13478929 12.601534 12.633355 0.25731015 1.0874391 0.29609773 0.13621496 0.12640719
0.4441186 0.07322563 -0.20514096 6.9849234 4.0985847 0.030415578 1.6935462 7.083744
7.2435455 3.407424 4.4793057 0.21687782 0.031517833 16.317366 6.484111 0.052878827
1.3714631 0.028291276 -0.1442544 -0.070124745 -0.07810991 -0.20551348 0.07172549 -1.3506867
-0.7234619 1.8061476 -1.0811405 -0.17623556 -0.82268447 1.7485901 -1.6204482 0.55352587
1.9138867 0.5588318 1.0865613 1.8510972 -0.9584308 1.0263658 1.920108 0.60993105
-0.027397746 0.3389883 -0.94460446 2.8892815 1.0036229 0.105713844 1.6878326 -0.14510095
-0.3463185 -0.59734523 -0.9731843 -0.13282426 -0.664175 -0.4508803 0.9330167 1.70024
1.6823568 1.3656797 -0.29800886 -0.7657896 0.93095326 1.7131974 1.880288 0.113100246
0.38610387 0.23944263 1.1638917 0.9784277 -1.7040797 -0.77216595 1.0910354 -0.5461617
-0.5114361 0.60544527 1.3095146 0.2437686 0.8291655 0.9586445 -0.9018194 -0.41441676
2.494929 -3.2005994 -2.3272293 1.5270838 0.20066582 2.1104348 0.9759691 -2.5264895

base.feature_norm.bias f4 [376]
00000000: 812e 9f3d d1c2 e0be a88d 25bf 9818 cfbe
00000010: 7d2e 75bf d728 fdbe 8b27 03bf 4141 0bbe
00000020: 5fc2 b9bd c590 83bf 8b1e 323e 7170 b0bd
00000030: e45f d2be a4c1 dc3e b419 c73e f5a8 463f
00000040: 2326 073f eae3 6fbf 4184 053f c112 d7bf
00000050: c986 3cbf d475 d43e f662 8ebe 4d5d 34be
00000060: 1002 21bf 72e1 bfbc 674e 5c3d 4fe4 5cbc
00000070: 254d c9bc d032 ef3b 4fb1 31be 9f9a 353d
00000080: 8b3c b4bb 7742 7f3e f2e4 193d 2029 66bd
00000090: 6d5f 00bd 83f0 b23c 1d8b 953d 374e 23be
000000a0: 9f05 003e f050 823d f0f7 3abd 4e11 02bd
000000b0: 4ae0 5fbc be4e 273d 66ff 183c 0081 a3bb
000000c0: 4b17 92bd e00c 753d d9f0 6ebc 14e5 1a3c
000000d0: 29bc cbbc f5ac 283d 2f9d 8d3c c565 31bf
000000e0: 2619 33be 7c45 e0be 5454 2abe 9445 c33e
000000f0: bda2 9c3e 938a 7cbe dc41 dd3d 1537 93bf
00000100: e4df d6bf 8040 16bd 7be4 2fbd d0e4 443d
00000110: 8c1f b73d 401e 963d 6a16 813d 9170 d9bc
00000120: 60a1 e3bd 3724 1ebb aced d7be 1ba5 5c3d
00000130: 78a4 c03a fe0e 99ba cdb4 4cbc 7a1f d23c
00000140: 76de 373d d5f5 63be 6e23 bebe c1b3 54be
00000150: 7100 95bf 4bb9 81bb 1f71 ca3b 1c58 b5ba
00000160: 372e 973d 59ec 5f3d 75d4 5ebd dced 1cbf
00000170: 5eda d7be d686 1fbe d64b 79bf 3c4d 2cbf
00000180: 1dc2 c7be ffab 20bd 90f2 7dbe b451 ce3d
00000190: 5ba3 9a3d bb5a ecbe 4e8c 19bf f42f 68be
000001a0: 500d 09bf 6df9 47bf 6cb2 25bf 67ea 36be
000001b0: fbbc 553d d016 95bd 624b b3bd 3ed8 c0be
000001c0: b0ed 2ebf c31a 9ebe 8f89 b8be 2810 3dbe
000001d0: 10ee 273d 783d a8bb dc8a 58bd 19be 06bd
000001e0: 71d4 0abe f1a9 d5be ac94 58be 3be3 9ebe
000001f0: 90bf 52bf ab0f 49bd 7887 afbd e07d 9ebd
00000200: 53e8 f53c 0e21 683d 3ad9 8fbd e149 bfbd
00000210: f181 efbe ddf9 b5be 57e4 23bf 2da3 033e
00000220: 8e22 c0bd 676f 123d d000 013d a1bf 3a3c
00000230: 425c 293d b3cd e4bd df63 95be c171 96bd
00000240: 3910 a3be 4828 383c 7be4 5cbe b81e 503e
00000250: 0ca9 b0bd 4e03 cd3c 7625 363d 8eaa 3abf
00000260: 0b6b 6cbe c193 c43d b2e6 21be 161f ccbe
00000270: 41ba 40bf fdd3 49bf e6bc ebbe e2bc 453d
00000280: 3806 edbc b8bf 26bf 00b4 d9be 239d 1abe
00000290: 13e1 fabd 41f2 533e 8f14 51bd 2c06 ee3c
000002a0: c3dc bdbd 43b3 763d 63a1 3cbc 26ee 18bf
000002b0: 5fd1 82be 93af 873c cf7b d2be 3ce9 11bf
000002c0: 740f 2cbf 8720 c8be 234c ccbe 1c1c b2bd
000002d0: 91c1 793d a56f 2fbf 5049 08bf 99c0 3fbd
000002e0: 3c7c b53d d951 56bd 1c43 17be 1287 573d
000002f0: d782 c93a d64f 89bd a3e1 f4bd d695 473e
00000300: 7e67 d53d 3f4a 1bbc 9f58 90be 4f6a 153c
00000310: 9146 5fbc 2ffe 96bd a9c9 f5bb 53fa 303a
00000320: 62e5 823e 0a5d 3bbc 2697 8f3d ff9b 72be
00000330: 8477 363d be8e 0e3d 7a39 b0bd 0941 bdbd
00000340: 7e7f 8fbb 9182 26bd 0ea2 073b 94be c5be
00000350: 9991 733c 38e1 4f3e b0b6 30be c8b3 0abe
00000360: 048e 9bbd 1185 aebd ce45 e23d 8712 87bd
00000370: cfd6 2e3e 7b74 df3d dd49 07be b0da c0be
00000380: b66b 4bbd a88c c1bc 212e 2e3b ca6c d23d
00000390: 23c7 64bd 0a82 73be a48c 423e 8eb7 a7bd
000003a0: 2802 29be 998a dabc 9d07 07be 5fa4 22be
000003b0: 235b 433e 450d 8cbd 260f 0c3e 87c4 003e
000003c0: d39c 163e 6fe5 4d3d 4039 103e e387 f4bd
000003d0: be80 eabc fb94 c3bd 7497 75be fc3e 0e3b
000003e0: 2da8 e43d ba0a 843e 49c1 303e c0d4 3fbc
000003f0: 0a5b db3e 9c17 98bd 45b5 96bd 20fd 4ebd
0.07772542 -0.43898633 -0.64669275 -0.4044845 -0.9577406 -0.4944522 -0.5123221 -0.13599111
-0.090702765 -1.0278555 0.17394464 -0.086151965 -0.41088784 0.43116486 0.38886797 0.7760156
0.52792567 -0.93707144 0.5215493 -1.6802598 -0.73643166 0.41496146 -0.27809876 -0.17613716
-0.6289377 -0.02342293 0.053785708 -0.013482167 -0.024572918 0.0072997585 -0.17352794 0.04433691
-0.0055003813 0.24927698 0.037571855 -0.056191564 -0.031341005 0.0218432 0.073019244 -0.15947805
0.12502144 0.06363094 -0.045646608 -0.031754784 -0.0136643145 0.04084658 0.0093382355 -0.004989743
-0.07133349 0.05982673 -0.01458379 0.009454031 -0.024869995 0.04118057 0.017286865 -0.69295913
-0.17490062 -0.43803012 -0.16633731 0.3813902 0.3059291 -0.24662237 0.10803577 -1.1501185
-1.6787076 -0.036682606 -0.042942505 0.048069775 0.08941564 0.073299885 0.06303103 -0.026542934
-0.11114764 -0.0024130472 -0.42173517 0.053868394 0.0014697453 -0.0011677442 -0.012494278 0.025649775
0.04488989 -0.22261746 -0.37136406 -0.20771696 -1.164076 -0.003958856 0.006178036 -0.0013835463
0.07381862 0.054668758 -0.054401834 -0.61300445 -0.42158788 -0.1557878 -0.9738134 -0.6730535
-0.39015284 -0.03922653 -0.24799562 0.100741774 0.07550689 -0.46162972 -0.5997971 -0.22674543
-0.5353594 -0.7811497 -0.64725375 -0.17862855 0.05218218 -0.07279742 -0.087546125 -0.3766498
-0.6833143 -0.30879793 -0.3604245 -0.18463194 0.04099852 -0.005134281 -0.0528668 -0.032896135
-0.13557602 -0.41731218 -0.21150464 -0.31032738 -0.8232355 -0.049087208 -0.085707605 -0.077388525
0.030018007 0.05667215 -0.070238546 -0.09340263 -0.46778825 -0.35542193 -0.64020294 0.12855215
-0.09381591 0.035750773 0.031494915 0.011398227 0.04134775 -0.111720465 -0.29177758 -0.073459156
-0.31848314 0.011240073 -0.21571533 0.20324218 -0.08625993 0.02502599 0.04446932 -0.72916496
-0.23087709 0.09598494 -0.1581066 -0.39867467 -0.752842 -0.78839093 -0.46042556 0.048275836
-0.02893363 -0.6513629 -0.42520142 -0.15099005 -0.12249961 0.20697881 -0.051044997 0.029055677
-0.092706226 0.06022955 -0.011513087 -0.59738386 -0.25550362 0.016563212 -0.41110083 -0.5699651
-0.6721108 -0.39087316 -0.39901838 -0.08696768 0.060975615 -0.6852973 -0.53236866 -0.046814535
0.088615865 -0.05232415 -0.14771694 0.052619047 0.0015374076 -0.067046806 -0.11957099 0.19490752
0.1042013 -0.009478151 -0.28192613 0.009119584 -0.013627664 -0.073727004 -0.0075008464 0.00067511684
0.2556563 -0.011435756 0.07011251 -0.2369232 0.044547573 0.0348041 -0.08604713 -0.0924092
-0.004379212 -0.04065186 0.0020695957 -0.38621962 0.014866256 0.20300758 -0.1725719 -0.13545144
-0.07595447 -0.08521474 0.110484704 -0.06595331 0.1707413 0.10910889 -0.1321177 -0.37666845
-0.049663268 -0.02362664 0.0026577788 0.10274656 -0.055853974 -0.23780075 0.18998963 -0.08189307
-0.16504729 -0.026677417 -0.13186498 -0.15883015 0.19077735 -0.068384685 0.13677654 0.12574969
0.14708261 0.050267633 0.14084339 -0.11939981 -0.028625842 -0.095499 -0.23983556 0.0021705022
0.111648895 0.25789434 0.17261232 -0.011708438 0.42842895 -0.07426378 -0.07358793 -0.050534368

base.mlp.fc1.0.weight f4 [64, 376]
00000000: ac6b 07be 8269 b13f 58c9 d63f 6f87 ecbf
00000010: 2bde 6fbf c57b 233f a32a 5f3f 247e 0840
00000020: fcc2 9d3f c714 a8bf 3495 92bf 3c28 56bf
00000030: 931a d03f 0fa2 1c40 cf52 85be bad9 0340
00000040: 99f9 9e3f ac08 2341 1c11 f13f a358 30c0
00000050: bec1 2340 d55c 4ac0 3b11 aebf 9252 2040
00000060: 63bf 8dbf 2b5b 98be fd15 33be 2cba 89bd
00000070: 99b1 7e3e 4a70 563f 5e14 02bf da12 ed3f
00000080: 39be a73f 1795 123e 42c9 60bf fe26 acbe
00000090: feb9 0abf 9473 d03e ff80 4a3e 43ec 1ebf
000000a0: 7a23 f43f cc66 6cbf 3b95 fb3d 836c 89bf
000000b0: ec63 c9bd 7cc8 ea3e 62d4 bbbe 8ea0 e4be
000000c0: 3690 b03d 839b 553f 5d9d 09bf 0640 233d
000000d0: be58 fd3e 91b6 533f 20ff 49bd 1487 9dbe
000000e0: 999e 833e 0c2c 803f 79e7 2bbf d304 e6bf
000000f0: 5cef 803d e890 d0c0 c451 0e40 5d81 bc3d
00000100: c195 62c0 90e7 70bd d999 ba3d 6cec 8dbc
00000110: 65ac 093e ab09 da3e dfc7 ec3c 78d2 f0bc
00000120: c3ae 84bd c8c4 e13e 7f4f 893f 81b4 9c3d
00000130: acb8 6b3e 8696 99be 6d4b 41bf 11f6 bebe
00000140: 22ea 0f3e 70fd e23f 03cf 86be fa41 8e3e
00000150: 1477 09bf fa3b 4cbe e047 d9be 6f5a 183e
00000160: e012 5e3f 1cb1 133f 0528 253e 73c6 4d3f
00000170: a715 f7bf 48d1 6cbd e97c 973e 9b37 6f3f
00000180: 884d 03bc 7a14 c63d 482d 0e40 df06 e53e
00000190: bd90 85be f120 de3f ce40 b4c0 1510 7bbe
000001a0: 0e7a af3f 0bf0 bc3f 57c4 ddbf e651 553f
000001b0: a5f3 2c40 3c69 a0bf 610c 62bf fba6 3b3f
000001c0: 524a aec0 d2ca fcbe 340e a93f b47f de3d
000001d0: e318 ba3e 5836 323f 9bfe 9d3e 9642 a33e
000001e0: 6d91 fabd 12f7 7e3f 92dd f8bf 5867 35bf
000001f0: dff9 cf39 835f 85be b6e4 a83d 369c 2abf
00000200: 479c 823f 8b13 e5bd 5108 e4be 8780 523e
00000210: a65a 20c0 77d7 86be 0d9e 203f e543 7a3f
00000220: 83a4 aabd f282 22bf 9deb 923e c243 2a3f
00000230: d98e 3f3e 68f8 5e3f cb54 96bf d13c 0ebf
00000240: 2a1f 823f 356e 36be 20eb 96bf 395c 703f
00000250: 2ad0 a7bf 39a4 06bf 11d3 023f a9e9 36c0
00000260: 96d7 2a40 7652 c83e 00d6 b93f da96 9bc0
00000270: f4ea 2c3e 18c6 80c0 fef7 413f 2103 bebd
00000280: 76eb 45bd 4d19 8d40 66e9 de40 5730 2dbe
00000290: 5432 7e3f c21c 6f3f 8aa2 fbbc a390 14bc
000002a0: a7ac f83d ca22 ac3e 5223 3e3e 8095 d3bf
000002b0: 4f36 283f b854 0abf 9f8a 103f 96e1 6c40
000002c0: 5852 92c0 04cf 233e 223e 8bbf 06f1 2c3f
000002d0: 00f8 41be d775 603f 0904 e73f 9e72 d1be
000002e0: 4e6b 9e3f 1ea0 4c3e 1181 39bf 4d10 62bd
000002f0: 5125 5fbe d8ac 9dbf 0296 e2bd 3f21 0140
00000300: afe1 773f 7cb3 b43f b1a1 83bf 0609 0a3f
00000310: b3f6 a0bf 5084 bcbe 8ef8 b1be ab42 52bf
00000320: 0b57 ff3e 2539 cbbe 7744 16be 01ac 6abf
00000330: e06f 4ebe 105e cf3f 767d 4e3e 0407 73be
00000340: ce44 b93e 6c7b e4be 8e1b 1bbf f12e 88bf
00000350: 228c abbc a9d5 07bf 77ac e23d d4ff 45bf
00000360: 1f9f 4ebf 59e7 9cbf c19c 6bbd 8b1f d23e
00000370: 7e4a 873f 9e63 2b3f 96b6 3bbf b389 68bf
00000380: a624 543d a964 68bd 3983 1cbf 7ffb 273d
00000390: 48c2 52bf 72e1 ccbd e066 4d3f 6c9f 73bd
000003a0: 4cb0 943e 5cd3 82be 713c 02bf 13ee 8ebc
000003b0: 0cdc 14bf 3ffd 4bbf cb8a 043e cb74 323e
000003c0: 03ee 61bb ee0d 7f3d 9201 673f 53af 553e
000003d0: 2623 c1be a70a 3c3e 51da 2dbe cd2d 373f
000003e0: 07ff d1bd 87ab 1ac0 a389 cf3e 8917 b23e
000003f0: ed45 2d3f 7793 7c3f 5792 a5bf 868c f8bf
-0.13224667 1.3860323 1.6780195 -1.8478831 -0.93698376 0.6386073 0.87174433 2.132699
1.232513 -1.3131341 -1.1451783 -0.8365514 1.625811 2.4473913 -0.2603974 2.060164
1.2419921 10.189617 1.8833346 -2.75541 2.5587 -3.161916 -1.3599008 2.5050397
-1.1074032 -0.29757056 -0.17488857 -0.067249626 0.24872436 0.8376509 -0.5081233 1.8521378
1.3104926 0.14314686 -0.87807095 -0.336235 -0.5419005 0.4071318 0.1977577 -0.62079257
1.9073327 -0.92344356 0.12284323 -1.073624 -0.09833512 0.45856082 -0.36685473 -0.44653744
0.08621256 0.8344042 -0.5375574 0.03985598 0.49481767 0.8270045 -0.04931557 -0.3076712
0.25706938 1.0013442 -0.67150074 -1.7970222 0.06295654 -6.5176888 2.2237406 0.092043616
-3.5403903 -0.058814585 0.09111375 -0.017324649 0.1344467 0.425855 0.0289039 -0.029397234
-0.06478646 0.44095445 1.0727385 0.07651616 0.23019665 -0.29997653 -0.75505716 -0.3729711
0.14054158 1.7733593 -0.26329812 0.2778471 -0.53697324 -0.19944754 -0.4243765 0.14878248
0.8674755 0.5769212 0.16128547 0.80380934 -1.9303483 -0.057816774 0.29587486 0.9344422
-0.00801409 0.09671874 2.2215137 0.44731805 -0.2608699 1.7353803 -5.6329107 -0.24517854
1.3709123 1.4760755 -1.7325543 0.8332809 2.702371 -1.2532115 -0.8830014 0.73301667
-5.4465723 -0.4937349 1.320746 0.10864201 0.36347112 0.6961417 0.3085831 0.3188674
-0.12234769 0.9959575 -1.9442618 -0.70860815 0.00039668285 -0.26049432 0.08246748 -0.6664461
1.0203942 -0.11185368 -0.44537595 0.20556842 -2.5055327 -0.26336262 0.62741166 0.9775985
-0.08332159 -0.63481057 0.28695384 0.6650964 0.18706836 0.8709779 -1.1744627 -0.5556155
1.016576 -0.17815478 -1.1790504 0.9389072 -1.3110402 -0.52594334 0.5110331 -2.8580115
2.6694083 0.39125413 1.4518433 -4.8621645 0.16886503 -4.0241814 0.7576903 -0.092779405
-0.048320256 4.4093385 6.965991 -0.16912971 0.99295545 0.93403256 -0.030717153 -0.009067687
0.12142306 0.33620292 0.18568161 -1.6529999 0.6570787 -0.5403552 0.5646152 3.7012687
-4.5725517 0.15996939 -1.0878336 0.6755527 -0.1894226 0.8767981 1.8048106 -0.40907758
1.2376497 0.19982955 -0.72462565 -0.055191327 -0.21791579 -1.2318373 -0.11063768 2.0176542
0.9682874 1.4117274 -1.0283719 0.5392002 -1.2575287 -0.36819696 -0.34759945 -0.8213298
0.49871096 -0.39692035 -0.14674555 -0.9166871 -0.20159864 1.6200581 0.20165047 -0.23733145
0.36185306 -0.44625413 -0.6058892 -1.0639325 -0.020940844 -0.53060395 0.11068051 -0.7734349
-0.8071155 -1.2258102 -0.05752254 0.4103969 1.0569608 0.6694888 -0.7332548 -0.9083511
0.051792763 -0.056736622 -0.6113773 0.04101133 -0.823277 -0.10003938 0.802351 -0.05947821
0.29040754 -0.2555188 -0.50873476 -0.017447507 -0.58148265 -0.796833 0.1294357 0.17427365
-0.0034474141 0.062269144 0.9023677 0.20867662 -0.3772213 0.18363439 -0.16977812 0.7155426
-0.10253721 -2.4167192 0.40534696 0.3478358 0.67684823 0.98662513 -1.2935284 -1.9417884

base.mlp.fc1.0.bias f4 [64]
00000000: 6170 4fbd 674c 10be cd39 5fbe 6ada 80bf
00000010: 2f14 cfbf e4c2 a6be 2593 9e3f 20ab 073f
00000020: 3c63 0ec0 cb1b a6be 5a2f 1fc0 1b71 f1bf
00000030: 98c0 bfbe da62 80c0 8486 91bf 39e3 a0bf
00000040: dde0 8abf b3c0 1bc0 e970 2ac0 5aa8 a5bf
00000050: 80db 81c0 cb22 dfbf 6933 b33d 8ae3 55bf
00000060: a8c8 d1be aa7a febe 9ef6 68bf de0e a13f
00000070: fc83 22c0 4b99 0fc0 57bc 16c0 caf3 63c0
00000080: 5b11 1fc0 dc9d a43e 770c 65c0 2169 2bbf
00000090: c1d9 15c0 c854 96bf 0f47 3e3f e332 10c0
000000a0: 42c0 e3bf 7ed5 5e3f bfc1 c2bf 72b3 0fc0
000000b0: 249d adbf 6a11 4f3f a249 41c0 c88b dbbf
000000c0: 55ac a73e 8368 723f fed1 03bf 8d2e 08bf
000000d0: c9f2 7dbe 6154 63bf 8f3a 31bf 2bd7 31bf
000000e0: 386b 22c0 9994 c5be 452b 03bf 284d 1140
000000f0: e35b 3a3f eb3e 74bf 4ad7 433f 7410 6bbf
-0.050644282 -0.14091645 -0.21799393 -1.0066655 -1.6178035 -0.32570565 1.2388655 0.5299549
-2.2248068 -0.3244308 -2.487265 -1.8862642 -0.37451625 -4.012067 -1.1369176 -1.2569343
-1.0849873 -2.4336364 -2.6631415 -1.2942002 -4.0580444 -1.7432493 0.0875004 -0.8355032
-0.409734 -0.4970296 -0.9100131 1.2582662 -2.5393057 -2.2437313 -2.3552454 -3.5617547
-2.4854343 0.32151687 -3.5788858 -0.6695729 -2.3414156 -1.1744623 0.74327177 -2.2531059
-1.7793047 0.87044513 -1.5215377 -2.2453275 -1.356358 0.80885947 -3.0201192 -1.7152033
0.32748666 0.9469072 -0.514923 -0.5319603 -0.24799646 -0.88800627 -0.6922998 -0.69468945
-2.537794 -0.38589934 -0.512379 2.2703342 0.7279646 -0.95408505 0.7650038 -0.9182198

base.mlp.fc1.2.weight f4 [64]
00000000: bfbf 3bbe deb2 4d40 1600 4240 97b7 d140
00000010: 7b9e a440 b01a d13f 29f8 853e 91ed 773f
00000020: 5f63 bf40 3777 a240 62a1 4e40 199a 9d40
00000030: 9620 f93f 0ed6 e140 5539 c840 c0eb b140
00000040: 4eba 8940 5d27 9e40 ba77 b640 9420 ac40
00000050: c764 7e40 9e65 a940 2e52 1340 e04d e03f
00000060: 0998 b73f b9cd bb40 1e99 ca3f f18b 3b40
00000070: 7fbd be40 7240 4740 172d b540 26ce a540
00000080: 0fe3 b240 4267 0740 9eb4 a940 b239 8a40
00000090: d2e9 fb40 eadd 0641 8df4 b940 402b a440
000000a0: 100b 6840 3707 7b40 c791 7940 2c1b bd40
000000b0: f4fa ac40 8781 5b40 a9b5 a740 90ef cf40
000000c0: 9fab f13f 4d95 763f 6d2b 9b40 a1b9 b940
000000d0: eb59 5540 036f bf3f 9299 9e40 2d3d bf40
000000e0: 0c3f d340 869a 0540 db5e ac40 7ba1 0f40
000000f0: c272 613f 1bef 3e40 ef26 1340 e2cd 9040
-0.18334864 3.2140422 3.0312552 6.553661 5.1443458 1.6336269 0.26165894 0.9684687
5.9808803 5.0770526 3.2286 4.9250607 1.946307 7.0573797 6.2569985 5.560028
4.3039923 4.942305 5.702115 5.378977 3.974901 5.2936544 2.3018909 1.7523766
1.4343272 5.8688626 1.5827978 2.9304163 5.960632 3.1133084 5.661754 5.1814146
5.590217 2.1156774 5.303298 4.319543 7.8722925 8.429178 5.8111024 5.1302795
3.6256752 3.9223154 3.8995225 5.909567 5.405634 3.4297807 5.2409253 6.4979935
1.88805 0.96321565 4.849051 5.80391 3.3336132 1.4955753 4.9562464 5.9762177
6.601446 2.0875564 5.386579 2.244231 0.8806573 2.9833438 2.2992513 4.525132

base.mlp.fc1.2.bias f4 [64]
00000000: e1c8 ddbe f2b5 74bf 4c28 6ebd c506 9abf
00000010: 3e08 0a40 9247 a1bf f4b2 24bf 72b4 00c0
00000020: d67f f53f 2121 543f c367 953f ddc7 ed3f
00000030: 8b4c 06c0 9c99 963f 75cf 903d e144 ec3f
00000040: d761 5fbe 871f 943f 424b e73f d0e7 8f3f
00000050: e717 0b40 a288 9a3d 685c 3cbf d603 6640
00000060: 6392 94bf 2c0c fa3f 9fe1 903f ef1e eb3e
00000070: f47a db3e b929 9a3f 81ab e73f e756 ce3f
00000080: 11bc fc3f a4e8 80bf d0db 5cbe 1833 11c0
00000090: 5e5a ae3f 92ee ec3e e3a9 3ebf 0f1c 903f
000000a0: 07ab 9540 927f 18bf fe78 2440 49cc b13d
000000b0: bf76 fe3e 6d01 3cc0 f6b6 563e eec5 8040
000000c0: a6d2 423f a106 84bd 1432 513f 5945 9c3f
000000d0: 6c03 2bbf 9899 1e3f 8111 f8bf 583c 88be
000000e0: 6057 d53f bf56 abbf 6245 ff3f 7414 9dbf
000000f0: c623 8ebf 2176 0440 70cd aabf ba1d 643f
-0.4331732 -0.95590127 -0.0581439 -1.2033316 2.156753 -1.2599967 -0.6433556 -2.0110135
1.9179637 0.8286305 1.167229 1.8576618 -2.0984218 1.1765628 0.07070819 1.845852
-0.21814667 1.1572121 1.8069842 1.1242619 2.173334 0.07545592 -0.735785 3.5939841
-1.1607174 1.9534965 1.1318854 0.45922038 0.42867243 1.2043983 1.8099214 1.612027
1.9744893 -1.0070996 -0.21568227 -2.2687435 1.3621328 0.46275765 -0.74477977 1.1258563
4.6771274 -0.59569657 2.5698848 0.086815424 0.4969997 -2.937587 0.20968232 4.0241613
0.76102674 -0.06446577 0.8171704 1.2208663 -0.66802096 0.61953115 -1.9380342 -0.2660854
1.666729 -1.3385848 1.9943049 -1.2271867 -1.1104667 2.06971 -1.3343945 0.8910786

base.mlp.fc2.0.0.weight f4 [64, 64]
00000000: c8e6 1a40 70fc 3bc0 80f3 b23e 9c45 1740
00000010: f38d e6bf 324c babe 7200 01c0 dea9 fbbf
00000020: 791b 0e3f 4b7a bdbd 7d90 0a3d 3ef8 5e40
00000030: d1ff 3640 baf0 7e40 4507 3240 d888 913e
00000040: 0d4c 1f40 1ef5 3740 840e 0740 f6d8 d33f
00000050: 6f20 f9bf d31f 2740 a855 b13f 65c2 4cc0
00000060: ef33 3940 b1a2 0dc0 9bdd ba3f 4cd2 5ac0
00000070: 729c 7940 2f32 4e3e 437c 1540 9b9d e63f
00000080: de72 f13e 3457 463f 57e5 6040 11d9 6140
00000090: 175a b340 acb2 6740 82e3 973f eee7 bc3f
000000a0: f810 80c0 8094 10c0 b881 bcbf b0c0 5a40
000000b0: 3291 2940 5a66 eebf e4fb 8f40 4930 ddbf
000000c0: b2a7 f43f ff82 04c0 8cc4 0a3d f055 4340
000000d0: 6daa fbbd f1a5 86bf bdcb a23e 725f 1740
000000e0: 60bf 073f 0d15 363f 699a 1440 592b 4bc0
000000f0: e1f1 03be e239 203f 9e05 ac3f 5b6e 1140
00000100: b93e 523e 309d 33bf 1956 ccbf b182 c53f
00000110: 62e0 8cbf 88fe 34bf 46fe 473e 07f3 25bd
00000120: 0944 893f e844 9cbe b340 99bf 6261 a03c
00000130: de34 5c3d e483 c23e 984c aa3f 0e42 bcbe
00000140: 7154 8d3f c4ff 27bf 9bb6 be3f e6e5 953f
00000150: 22dc 493f 8bb6 a73f cd93 02bc cf88 a8be
00000160: a888 5dbf 0a70 7fbe 5008 11bd 3bd1 60c0
00000170: 6906 853f 7031 d3be 2510 413f c1cf 053f
00000180: 30ae c73e 0323 08bf 25a7 f83e 7ba4 0fbe
00000190: 8503 0cbe 1fb0 3e3e 8313 013f ab5a 903f
000001a0: 157c cdbd 9b0b bfbd 0321 a0be 7a10 9e3f
000001b0: c42d 3b3e 9d2e 2bbf f426 88be dbf2 2cbf
000001c0: b5d8 1bbf 009d 8c3d e907 9c3f 4a19 18bf
000001d0: c19a 3c3f 331d bcbe e0aa 423f 3581 903f
000001e0: fdfd b13f 88b8 553f 7603 4e3f e2c0 b3bf
000001f0: 92a5 0b3e 43ae 8cbe 4f42 353f 1e86 c23f
00000200: 30bc 02c0 ab6c fcbf 6f1c bd3f b7ed 783f
00000210: 1789 c03f 5f60 a1c0 3321 0dc0 37d7 00c0
00000220: 489f 52bf 0154 4340 795a 06c0 6ffd 413f
00000230: e6a1 2dc0 2149 823f e306 9ebc ebaf 243f
00000240: e53d 0240 30b2 c7bf 795f fabf 9126 0240
00000250: 4baf 99bf 610b 2b3f 8f6f cfbe 8b8b fd3f
00000260: c7d3 6a40 020c 823f 119a 6440 b5a9 75c0
00000270: e3fd cdbf fa72 4b40 add6 4d3f 2d91 63bf
00000280: df74 a0bf 960f 8f40 82d0 263f faee 2840
00000290: 4958 8d3f ca33 443f d221 0640 acdc e33f
000002a0: b74e 0b40 0c12 f43f 2015 edbe d8d7 d03f
000002b0: 7982 55c0 a515 0dc0 8d95 3940 878a b43e
000002c0: 3f50 833f 4141 00c0 d374 7e40 844a 8b40
000002d0: 8995 bb3f 01df 49be 2507 9bc0 889e 843f
000002e0: aed1 7040 0c9b 523e e5d7 2ac0 ea63 26c0
000002f0: 381e d9bf dafd b2bf 55ab 36c0 6a0a c83f
00000300: c09d 403f b10c bb3f eba5 91bf b8a9 3a40
00000310: 9b5f 73bf 2ab8 1ec0 407c 1fc0 fc50 80bf
00000320: 35c2 4fbf 633f ae3f 8741 153f 39cc e43f
00000330: 7031 43c0 ce0e 6340 5c45 1240 f6e3 2540
00000340: 49bd 2340 3d98 ec3f 3315 6f40 a067 1a40
00000350: 8ddb bcbf 2bd6 4540 9e14 db3f 856c 84be
00000360: 7463 3bc0 0e3e d73e 92d7 463f ca24 0ac0
00000370: 7e82 9540 f309 763f e242 2f40 671b 2540
00000380: eed2 f03f 0ec1 813f 3147 7840 1b13 c7bf
00000390: 7c44 253f 699c 3140 52ab 38c0 0882 3a3f
000003a0: 3dc6 1ac0 d1af 90bf 3827 be3f 10d5 2440
000003b0: 1df5 db3e 25a6 0dc0 39a0 8f3f 3924 34c0
000003c0: 7221 973f 4e4a edbf 3d2f 0240 33cb f0bf
000003d0: a31a debf 9423 2abf 9f2e e93f 731d 2040
000003e0: cbcc e93f aafe 0740 1455 5440 d511 e5bf
000003f0: a679 8140 11f3 ac3f ed57 5640 9d15 1240
2.4203358 -2.9372826 0.349514 2.3636236 -1.801207 -0.36386257 -2.0156522 -1.9661214
0.5551067 -0.09251841 0.0338292 3.4839015 2.8593638 3.9834428 2.7816937 0.28424716
2.4890168 2.8743358 2.110261 1.6550586 -1.9463023 2.6113174 1.3854265 -3.199365
2.8937948 -2.213055 1.4598879 -3.4190855 3.9001737 0.20136331 2.3357093 1.8016847
0.4715795 0.7747681 3.5139978 3.5288737 5.6047473 3.6202803 1.1866305 1.4758279
-4.0020714 -2.2590637 -1.4727087 3.4180107 2.649487 -1.8624985 4.4994984 -1.728036
1.9113677 -2.0704954 0.033878848 3.0521202 -0.122883655 -1.0519391 0.31796065 2.3652005
0.5302639 0.7112587 2.3219244 -3.1745207 -0.12885238 0.6258832 1.3439214 2.2723606
0.2053174 -0.70161724 -1.5963775 1.5430509 -1.1005976 -0.70700884 0.19530591 -0.040514972
1.0723888 -0.3052132 -1.197287 0.019577686 0.053761356 0.3799125 1.3304625 -0.36769146
1.1041394 -0.6562464 1.4899477 1.1710784 0.7885152 1.3102583 -0.007969809 -0.32916877
-0.86536646 -0.24945083 -0.035408318 -3.5127704 1.0392581 -0.41248655 0.7541526 0.5227013
0.39000082 -0.53178424 0.4856502 -0.14027588 -0.13673218 0.18621872 0.504204 1.127767
-0.100334324 -0.093283854 -0.31275186 1.2348778 0.18279177 -0.66868 -0.2659222 -0.6755807
-0.60877544 0.06865883 1.2189914 -0.5941359 0.73673636 -0.36741027 0.76041985 1.1289431
1.3905636 0.834847 0.8047403 -1.4043238 0.13637379 -0.274767 0.70804304 1.5197179
-2.042736 -1.9720663 1.4774302 0.97237724 1.5041837 -5.043014 -2.2051513 -2.0131357
-0.82274294 3.0520022 -2.099272 0.75777334 -2.7130065 1.0178567 -0.019290393 0.6433093
2.0350277 -1.5601254 -1.9560386 2.033604 -1.200662 0.6681424 -0.405148 1.980821
3.6691759 1.0159914 3.5719035 -3.838483 -1.6093105 3.1788926 0.80405694 -0.88893396
-1.2535666 4.4706526 0.6516191 2.639586 1.1042567 0.76641524 2.0958142 1.7801719
2.1766794 1.9068007 -0.4630518 1.631587 -3.3360884 -2.204446 2.8997529 0.35261938
1.0258864 -2.0039828 3.9758804 4.352846 1.465501 -0.19713975 -4.844622 1.036088
3.7627978 0.20566958 -2.6694272 -2.5998483 -1.6962347 -1.3983719 -2.8542073 1.5628178
0.7524071 1.4613248 -1.1378759 2.9166088 -0.9506776 -2.4799905 -2.4919586 -1.0024714
-0.8115571 1.3613094 0.5830311 1.7874824 -3.0498924 3.5477786 2.2854834 2.5920386
2.558428 1.848396 3.735669 2.4125748 -1.4754502 3.0911968 1.7115667 -0.25864044
-2.9279451 0.4203953 0.77672684 -2.1584954 4.672179 0.9610893 2.7384572 2.5797975
1.8814371 1.0137041 3.8793452 -1.5552706 0.64557624 2.7751715 -2.8854566 0.7285466
-2.4183495 -1.1303655 1.4855719 2.5755043 0.42960444 -2.2132657 1.1220771 -2.8147109
1.1807082 -1.8538301 2.0341332 -1.8812011 -1.7351879 -0.6646054 1.8217353 2.5017974
1.8265623 2.1249185 3.3176928 -1.7896067 4.0460997 1.3511678 3.3491166 2.2825692

base.mlp.fc2.0.0.bias f4 [64]
00000000: c9e2 2fc0 77e4 f8bf a222 73be f2c7 fdbf
00000010: 08df d3bf e640 37c0 8eed acbd 5ee5 2ac0
00000020: 86e0 42c0 f4f8 a4bf f952 80be cfd3 92be
00000030: c3de 503f 2560 18c0 9349 22bf 80ad 14c0
00000040: 5e86 81bf 8d91 00c0 70e9 17c0 ea52 51bf
00000050: 4ba0 e9bf c8b7 2e3f 9dfa 3fbf 8274 00c0
00000060: c1df 11c0 ae6a bcbf 3c88 c5bf cb40 763f
00000070: a333 043f b2a5 8a3e 6de5 48be 7935 82c0
00000080: 3756 843c 408c 45c0 a5eb f7bf ce7a c0bf
00000090: a208 aa3f 2c3d ecbf 2786 01c0 ad9f 58c0
000000a0: c215 e83e df25 4dbd 19f0 adbe 1ade dbbf
000000b0: 39c4 f9bf f622 3fc0 6ff1 9ebf d411 fdbf
000000c0: 15ea 24c0 7ae5 06c0 5103 a6bf 6fb4 a33c
000000d0: e819 bbbe 25ba 15bf 5ff5 d4bf 2ccc 83c0
000000e0: dbec 1dc0 ec1e 1e3c ece5 2b3e 0b52 eebf
000000f0: bc85 c1bf 368b 19c0 ac18 97bf 4c5c 09c0
-2.7482169 -1.9444722 -0.2374368 -1.9826643 -1.6552439 -2.863336 -0.084437475 -2.6702495
-3.0449538 -1.2888474 -0.25063303 -0.28677222 0.8158991 -2.3808682 -0.63393515 -2.3230896
-1.0119131 -2.0088837 -2.373623 -0.8176714 -1.8252043 0.6824918 -0.7499178 -2.007111
-2.2792819 -1.4720056 -1.54322 0.96192616 0.5164129 0.2707954 -0.19618769 -4.0690274
0.016154392 -3.0866852 -1.9368788 -1.5037477 1.3283885 -1.8456168 -2.023813 -3.3847458
0.453291 -0.050084945 -0.33972242 -1.7177155 -1.9513007 -2.9865088 -1.241743 -1.9771066
-2.5767872 -2.1077561 -1.2969762 0.019983498 -0.36543202 -0.5848716 -1.6637381 -4.1186733
-2.4675815 0.009650927 0.16786927 -1.8618788 -1.5118937 -2.3991218 -1.1804404 -2.1462584

base.mlp.fc2.0.2.weight f4 [64]
00000000: 952d df3c d167 a03f 6484 45be 33ab 8d3c
00000010: 3508 093f 61c0 e13f bb76 9ebe 4485 983d
00000020: f1f7 963e 0801 57be faaf 243e e03b 4d39
00000030: 64b4 503c 9985 af3e a330 423e 74d5 f03f
00000040: 3eee 3b3e 3c13 a63f 6ac6 d63f 8fd2 0fbf
00000050: 15d3 11bd 615b 46be d654 77be 6696 e2be
00000060: 4abb 0c3f 8586 793e cfa3 9e3e 890c 123c
00000070: f6cc 0c3d 3292 2c3d 5d55 4ebd 0766 a53f
00000080: 2380 ccb8 997d 073d e726 f53f 92ef ee3f
00000090: 0dad 1f36 9349 cebe 2bb0 a53f 8b9e b53c
000000a0: f549 47bc 4b9d 623d be61 233b 99f8 e03f
000000b0: 3717 d23f abbb 38bf a0a9 41bc 7e00 d33f
000000c0: 95f0 aabc 5029 e53e 9fb5 e03e 0590 83be
000000d0: 97b9 8abe 810a 82be 334f e03f 130b 22bc
000000e0: 8f2c ec3f 26fd 2dbe 6ccf 143b bb4e ea3f
000000f0: 81ab abbe 247e a63e 21c3 8e3e 0c4b 493f
0.027243415 1.2531682 -0.19288784 0.017293548 0.5352815 1.7636834 -0.3094996 0.074472934
0.2948604 -0.20996487 0.16082755 0.00019572629 0.012738321 0.34281614 0.18963866 1.8815141
0.18352601 1.297462 1.6779301 -0.5618066 -0.035601694 -0.19370796 -0.24153456 -0.4425537
0.5497328 0.24367721 0.3098435 0.008914121 0.034375153 0.04213161 -0.050374378 1.2921761
-9.751345e-05 0.033078764 1.9152497 1.8666861 2.3793575e-06 -0.40290508 1.2944387 0.022170326
-0.012163629 0.055325788 0.0024930085 1.7575866 1.6413335 -0.7216136 -0.011820227 1.6484525
-0.020866672 0.4475808 0.43888566 -0.25695816 -0.2709472 -0.2539864 1.752417 -0.009890336
1.8451098 -0.169911 0.002270664 1.8305277 -0.33529285 0.32518113 0.27883247 0.7863014

base.mlp.fc2.0.2.bias f4 [64]
00000000: 7074 893c 7bb7 423f 4163 e9bc f4c6 2e3c
00000010: 12b0 363e 8d00 873f 1a3f 873e 7ba6 383d
00000020: ee6c 363e ef4f eabd 7ae0 70be c065 2437
00000030: 958a 27bd ba87 4c3d c52e e53c 76d0 8b3f
00000040: 6145 2b3d b5a4 493f 1586 653f 3606 13bd
00000050: 508e b3bc 8872 e63d 4e86 10bd 5b97 68be
00000060: a240 a03e 4a6d 043e b6ac 363e 31a0 49bc
00000070: da21 abbb 98de b8bb d41f 0bbd 98d0 133f
00000080: e507 4f39 25c9 a63c 6368 8c3f 4972 893f
00000090: 0622 38b6 6bd1 4ebe d42b 493f 11e2 5f3c
000000a0: 580a e33c 20a0 bdbd 3cc3 97ba cdf9 863f
000000b0: a808 7d3f aae3 aabe 9f84 e53b 97b8 593f
000000c0: 8ac2 52bc 83f8 7c3e 12c5 0c3e 5359 423e
000000d0: 2195 f83d faed 023e b57e 863f f215 c8bb
000000e0: c639 893f e430 493e e587 68bb 2b05 893f
000000f0: 2970 4ebe cb55 3e3e b778 2c3e 6204 9c3e
0.016779155 0.7606122 -0.02848971 0.010667551 0.17840603 1.0547043 0.2641533 0.045080643
0.17814991 -0.114410274 -0.23523131 9.798852e-06 -0.040903646 0.049934126 0.027976403 1.0922992
0.04181421 0.7876695 0.8965772 -0.035894595 -0.021918446 0.11252314 -0.035284333 -0.22713988
0.3129931 0.12932315 0.17839321 -0.012306259 -0.0052225413 -0.0056417696 -0.0339659 0.57740164
0.00019744 0.020359585 1.0969356 1.0738002 -2.743794e-06 -0.20197074 0.785825 0.013664738
0.027714893 -0.09259057 -0.001157857 1.0544983 0.98841333 -0.3337682 0.007004335 0.85047287
-0.012863765 0.24704175 0.13747051 0.18979387 0.12137819 0.12786093 1.0507418 -0.0061061317
1.0720756 0.19647557 -0.003548139 1.0704702 -0.20159973 0.18587415 0.16842924 0.30472094

v_out.weight f4 [1, 64]
00000000: 89e2 bbb8 c724 f5bd 9c7f d9bd 5ccc 3337
00000010: ec74 c23e 9a92 ccbe 3831 cebc 9988 9fbb
00000020: d0c8 02bd 8c35 19bd 9910 323d dbae ef38
00000030: 45ac ebb8 eeea 6dbe c663 883d 7a21 43bf
00000040: 335e 58bd fbff fbbd c1b5 c13e b3b8 0a3e
00000050: 7245 2139 a9ec 47bc 2a49 363e a164 253d
00000060: b0df 993b 15dc 3e3e 1a3b a0bc b2ff f839
00000070: ee36 463c da50 ab3b d4f8 963d 9c0a 2ebf
00000080: 4752 d3b5 7835 34b9 623e 7bbf a0e5 66bf
00000090: 5051 16b4 9eee 803d e981 fbbd 3470 f9b7
000000a0: bf02 243b e69f dfbc 1d77 a53a bef6 9bbe
000000b0: f052 53be d22c a03e 8849 a6bb c70b 42bf
000000c0: f289 9737 2263 37be 0c46 d1bd 7fe0 4e3d
000000d0: 8b85 513e 8fd9 a53d 0776 aabe 70d6 f9b7
000000e0: d024 46bf 879b 12bc 2d9b 82ba 4574 34bf
000000f0: 9d47 483d 9a62 96bc 972c 0ebd caeb fabe
-8.95905e-05 -0.11969905 -0.10620043 1.07168125e-05 0.3797983 -0.39955598 -0.025169954 -0.0048685786
-0.03192979 -0.037404582 0.04347286 0.000114289775 -0.00011237761 -0.2323415 0.06659655 -0.76222956
-0.05282421 -0.12304684 0.3783398 0.1354702 0.00015380027 -0.01220242 0.17801347 0.04037917
0.004695855 0.18638642 -0.019559432 0.00047492754 0.012098057 0.005228144 0.07371679 -0.6798494
-1.5744671e-06 -0.00017186056 -0.98142064 -0.9019413 -1.399942e-07 0.062955126 -0.12280638 -2.9735362e-05
0.002502605 -0.027297925 0.0012624 -0.30461687 -0.20637107 0.31284195 -0.0050746836 -0.7579922
1.8064839e-05 -0.1790891 -0.102184385 0.050507065 0.20461099 0.08098137 -0.33293173 -2.9782968e-05
-0.7739992 -0.008948213 -0.0009964459 -0.70489913 0.04889642 -0.018357564 -0.034710493 -0.49008018
